result/PanNet/WV2exp0/PanNet_pgcu.pkl (torch, 640861 bytes, 88 tensors)

weight f4 [4, 1, 3, 3]
000000 f0 3c 61 3e d5 88 10 3e eb d2 ca bc d0 64 2c be
       0.21995902 0.14114697 -0.024758777 -0.16835332
000010 bc 49 2f be 4d b3 5e be 31 5b 0d be e8 7f 79 be
       -0.17117971 -0.21748085 -0.13804318 -0.24365199
000020 17 db 9d 3e c6 68 16 3e b6 c9 1f be 44 33 b9 3d
       0.30831215 0.14688405 -0.1560429 0.09042981
000030 7d d9 c8 bd 34 be 2c 3d 21 bd 4d 3e 89 4b 4c be
       -0.098071076 0.04217358 0.20091678 -0.1995069
000040 83 18 a1 be 6f ca c2 bd 55 9f 35 be 67 43 18 be
       -0.31464013 -0.095112674 -0.17736562 -0.14869462
000050 d3 83 86 3e b0 6a 26 be 6f 40 a6 be 45 fc 3c 3e
       0.2627245 -0.16251636 -0.32471034 0.18455608
000060 79 6f c5 3d aa 47 26 be a2 87 ef 3c 7d 21 d8 3c
       0.09640402 -0.16238275 0.02923948 0.026383156
000070 b5 22 c0 bd 2c 23 c1 bd 4b dd a6 be 3c 00 de bd
       -0.0938162 -0.09430537 -0.32590708 -0.108398885
000080 67 18 52 bc b4 00 74 3e f4 2e 28 be 15 39 96 bd
       -0.012823201 0.23828393 -0.16424161 -0.07335106

bias f4 [4]
000000 72 b5 25 be 62 80 9e 3d 69 a1 1f bb 38 77 90 3e
       -0.16182497 0.07739331 -0.0024357683 0.28215957

weight f4 [4, 4, 3, 3]
000000 62 12 62 3d e6 4b d0 bd f5 13 a0 bd 65 89 99 bd
       0.055193312 -0.101707265 -0.078163065 -0.07496909
000010 4e 70 cd 3c 8d 03 c1 bd b6 e6 4c 3b 7a 8e 9b bd
       0.025077965 -0.094245054 0.0031265444 -0.075955346
000020 2a 6d 39 bd cd 17 99 3d b1 f6 06 bd ab 5a 64 3c
       -0.045270123 0.07475243 -0.032950107 0.013937633
000030 5c 73 0a 3e b9 43 e8 3d 6b 88 ac bc 26 f0 72 3d
       0.13520569 0.11341042 -0.021061143 0.059311055
000040 9d 8d 9b bc 5e 2e e6 3c b5 60 0e bc 0a 83 6a bd
       -0.018988425 0.028098281 -0.008690049 -0.057253875
000050 0e 89 46 bd 2b c8 50 bd 5a b3 39 bc 61 3a b4 bd
       -0.04847055 -0.050972145 -0.011334265 -0.088001974
000060 a4 92 10 3e ec 65 1a 3e 1d 41 ca 3d 72 ef 1d 3d
       0.14118439 0.15077943 0.098757006 0.03855843
000070 8a 57 70 bd 5c 96 df bc 7a 03 b3 bd 95 49 97 bd
       -0.058677234 -0.027293377 -0.087408975 -0.073870815
000080 80 8d 53 bd 14 ea c9 3d 97 fe da 3d 43 d6 0f be
       -0.051648617 0.098591 0.106930904 -0.14046578
000090 6e c4 ca bd 3d 4c 0a 3e 4d 3f 8b bd 7b bf c8 bd
       -0.09900747 0.13505645 -0.06799183 -0.09802147
0000a0 b9 9b c1 bc f8 48 2b 3d a9 2a b3 bd 3b c2 24 3d
       -0.023633825 0.041817635 -0.08748371 0.040224295
0000b0 86 9a ad bd ef d8 0d 3d a5 dc 52 3d a3 df 44 3d
       -0.08476739 0.034630712 0.051479954 0.04806484
0000c0 74 78 de bd 72 e5 56 bd b8 73 b5 3d 7f 3e d6 bd
       -0.10862818 -0.05246491 0.08859962 -0.10461139
0000d0 fb 98 fb 3d ff 76 d0 bd f2 59 f1 3d ae 8e e0 3d
       0.12285038 -0.10178947 0.11784734 0.10964714
0000e0 46 be e2 3d 65 f0 0e bd df a9 20 3e 95 e2 4f 3e
       0.11071448 -0.034897227 0.156898 0.20301278
0000f0 f4 be e6 bc 59 8c 3b 3e 87 e6 3d 3d fd 7a 7e 3d
       -0.028167225 0.18315257 0.046362426 0.06212901
000100 1c 47 17 bd df 0d 93 bb 0d 7f 98 3d 3c f9 35 be
       -0.03693305 -0.0044877375 0.07446108 -0.17770857
000110 91 09 52 3c 60 f5 67 3d d3 4e ab bd c4 87 0e be
       0.012819664 0.056630492 -0.08364644 -0.13918978
000120 d1 0c a6 3d fb 6a b8 3d a4 f6 ba 3d ab 4c 2f 3e
       0.08107913 0.0900478 0.09129074 0.1711909
000130 d7 0f 74 3d 5f f6 63 bd 54 6d e4 3d 03 9c dc 3d
       0.05958542 -0.05565488 0.11153665 0.107719444
000140 a0 35 7e 3d fd 8e 2e 3e 21 18 fc 3d 47 fa 86 3d
       0.06206286 0.17046733 0.1230929 0.06590705
000150 cc 26 d7 bc 6f 9d 49 3e c3 71 98 bb eb 53 86 3d
       -0.026263617 0.19688962 -0.0046522333 0.06558975
000160 9e f0 25 3d 18 fb 03 bb f3 da 42 bd 69 ab 17 bd
       0.040512674 -0.0020138677 -0.047572087 -0.037028704
000170 29 9c 4e 3c 8b 03 14 bc e8 e2 d0 3c a7 71 70 bd
       0.012610474 -0.009034048 0.025498822 -0.058702137
000180 65 78 1a be ef d6 6e 3d ae 94 85 bd 26 ce e6 bd
       -0.1508499 0.058310445 -0.06522499 -0.112697884
000190 1a d0 d9 bd 6a 12 06 bd 21 23 00 be 71 5d 7c 3b
       -0.10635395 -0.032732405 -0.125134 0.0038507844
0001a0 7c 61 d4 bb d1 2a 10 3a cf 8b 19 bd c5 94 d6 3d
       -0.0064813476 0.0005499544 -0.037486847 0.10477594
0001b0 ca 78 98 bb 0d 3c bf bd a0 09 f8 bd fa 47 fa bd
       -0.004653071 -0.09337626 -0.12111211 -0.1222076
0001c0 53 18 83 3d b8 6f 31 bb e0 27 b7 3d aa 7d 88 3d
       0.06401124 -0.0027074646 0.089431524 0.066645935
0001d0 55 14 bd bd 6e 75 60 3c 60 07 a6 bd 6c ce 46 3c
       -0.09232394 0.013699872 -0.081068754 0.012134176
0001e0 43 bf 19 3d 2c 6b bb 3d 13 e3 73 3d 9a 56 b4 bd
       0.037535917 0.09151301 0.059542727 -0.088055804
0001f0 77 99 ab bc 51 e8 20 3d ea 70 73 3d 69 48 98 3d
       -0.020947201 0.039284054 0.059433855 0.07435686
000200 47 4a 8a 3c 6a 70 77 bd 89 01 b7 bb b8 a5 db bd
       0.016881121 -0.06040994 -0.0055849 -0.10724968
000210 c3 f9 0d 3d d1 5e 3e 3d db 7f b2 bd d3 1c 7a bd
       0.03466202 0.046477143 -0.08715793 -0.061062645
000220 cf 86 16 3e 6d 4b 17 3d e8 91 68 3d e7 73 d5 3d
       0.14699863 0.036937166 0.056779772 0.10422497
000230 4e 72 8b 3d c2 30 7f 3d a8 23 da 3d a0 09 f1 3d
       0.06808911 0.06230236 0.10651332 0.11769414

bias f4 [4]
000000 56 7a 64 3c 9c 1f a4 bc 8c 3d 0d be 5d e6 7e bd
       0.013945183 -0.020034604 -0.1379301 -0.06223141

weight f4 [128, 8, 3, 3]
000000 c2 b8 87 3a f0 12 0f 3c 5c 6d aa 3c c5 95 a9 3b
       0.0010354745 0.008732542 0.0208041 0.0051753246
000010 f7 df 55 3c 88 df 77 3c 91 ae ad bc 74 1d 3d ba
       0.013053886 0.015128978 -0.021201404 -0.00072141667
000020 58 ff f7 38 96 ee ea bb 78 41 ad b6 90 9c 68 3b
       0.00011825439 -0.007169555 -5.1634233e-06 0.003549371
000030 0d 1c 19 3c 3d c3 97 3c 96 ea 18 3c 69 a0 5a 3c
       0.009345067 0.018525714 0.009333273 0.013343909
000040 c9 02 a2 3c 18 cf 08 3c 80 7d 8c bb 5b 32 77 bc
       0.019776719 0.008350156 -0.0042874217 -0.015087689
000050 cc 8b c2 bb 3d a6 cb 3b 3d f6 2a 3c 62 78 af 3b
       -0.0059370752 0.0062148855 0.010434684 0.005354927
000060 0d 30 c2 3b 4c db 53 3c f2 a0 68 3c 03 a2 9b bc
       0.0059261383 0.012930702 0.014198529 -0.018998152
000070 5d 51 91 3c da 76 1a 3c b8 fd dd 3c 48 61 1e bc
       0.017738992 0.0094277505 0.027098522 -0.009666748
000080 73 02 cf 3c d5 5f 2c 3d 22 99 d1 bc 30 c5 49 bb
       0.025269723 0.04208358 -0.025585715 -0.00307877
000090 1a 21 18 3d 01 43 5d 3d 23 82 78 3c 4d 60 76 bd
       0.037140943 0.054018978 0.015167746 -0.060150433
0000a0 a9 38 b1 3d 27 43 81 3d 2d ef 23 3c 8c c5 d1 bc
       0.08653385 0.063116364 0.010005754 -0.025606893
0000b0 b2 7d 0e 3d 1c ba d9 3c 85 b2 cb 3c 88 bc a4 3c
       0.03478784 0.026578002 0.024865398 0.02010943
0000c0 a5 44 c3 bc 6c 54 b2 3c 5c a8 d8 3c 98 05 07 bd
       -0.023836443 0.021768771 0.026447468 -0.03296432
0000d0 f0 b1 d7 3b 0c 15 ab bc 7b e4 9b bc 62 c5 c4 3c
       0.006582491 -0.02088406 -0.019029846 0.0240199
0000e0 49 74 8b 3c 2b 89 b5 3b eb 4b 06 3d 53 73 44 bc
       0.017023223 0.0055400333 0.032787245 -0.011990386
0000f0 71 98 05 3c 0f 11 45 3d 2a 8e a1 3a 57 d4 49 3d
       0.008154021 0.04811197 0.0012325693 0.04927477
000100 6b 43 69 bd 6d b6 4d 3d 77 3b b6 3c 3e 44 57 3c
       -0.05694906 0.050222803 0.022245152 0.013138829
000110 9f 2f 7d 3d d9 3d 19 3d c3 98 23 3d 72 ac 10 3b
       0.061812993 0.0374125 0.039940607 0.0022075442
000120 59 ea 47 3c ce 6b c2 3c 57 f5 57 3d bc fc 22 3c
       0.012201869 0.023733046 0.05272421 0.009947952
000130 81 cf 7a 3c b7 30 e8 3c 36 8b d1 bc 4c ab 57 bc
       0.015308262 0.028343542 -0.025579076 -0.013163399
000140 b6 bb ee bb 21 ff a8 bc b3 d3 72 bb 3d 07 56 bc
       -0.0072855605 -0.020629467 -0.0037052452 -0.013063249
000150 af d5 1f 3d 8c 26 52 3d 82 05 23 3d 90 5f f1 3c
       0.039022144 0.051306292 0.039800175 0.029464513
000160 4d 06 e1 3c cd 88 53 3c 09 f3 65 bc d4 da 0d bc
       0.027468825 0.012911034 -0.014034995 -0.00865813
000170 17 f7 22 bd 84 5e 23 3c 7b 46 06 3d f8 ff b0 bb
       -0.039786424 0.009971265 0.03278206 -0.0054016076
000180 cc 1a 9e 3c 14 b6 04 3d 5b 5d b5 bb b8 73 20 bd
       0.019299887 0.032400206 -0.0055348105 -0.039172858
000190 ad d3 57 3d f3 f3 50 bb 69 c4 b6 3c 5a 56 7e bd
       0.052692104 -0.0031883686 0.022310453 -0.06209407
0001a0 34 57 9d 3c e7 a2 57 bc ae b3 35 3b 6a 99 0b 3d
       0.01920662 -0.013161398 0.0027725506 0.034081854
0001b0 bb 87 23 bd f6 ba be 3c ce 22 42 bd 01 2a 92 3d
       -0.039924365 0.02328251 -0.047396474 0.07136918
0001c0 76 07 91 3d 24 12 81 3d d4 61 6b 3d 23 75 71 3c
       0.07081501 0.06302288 0.057466343 0.0147374
0001d0 04 8d 2d 3d be 89 a8 3b 04 b4 40 3c b9 7e 33 3b
       0.04237081 0.0051433733 0.011761669 0.0027388765
0001e0 47 e0 14 bc 9a ec f7 3c 42 34 b2 3b 43 94 0f bd
       -0.009086675 0.030264188 0.0054383585 -0.035053503
0001f0 f0 b8 f3 bc c9 ef 22 bc ac 20 d2 bb 98 eb ef 3c
       -0.029751271 -0.009944865 -0.006412586 0.029287145
000200 e1 78 e6 bc 48 f1 51 bc b0 c6 2d 3d f7 3a 68 bc
       -0.028133811 -0.012813874 0.04242581 -0.014174215
000210 45 59 f9 3c 93 53 9b 3c fb 72 0b bd b8 c5 59 bd
       0.030438075 0.01896075 -0.0340452 -0.053167075
000220 f0 6c f7 ba 35 da 37 bd a7 d7 14 bc 8f c1 78 3d
       -0.001887707 -0.044885833 -0.009084619 0.060731467
000230 10 61 9d bd f0 a2 86 bd e3 95 85 bd 1b 36 9b bc
       -0.07684529 -0.065740466 -0.06522729 -0.018946698
000240 04 fb 84 38 8b 7a f5 b7 c5 1e 22 b8 55 b6 aa 39
       6.341006e-05 -2.926334e-05 -3.8652466e-05 0.00032560775
000250 d6 14 50 39 1f 75 fc 38 b3 00 0e 37 e6 c4 0e b9
       0.00019844188 0.00012038112 8.464022e-06 -0.00013615526
000260 0a cc 35 b9 cf e8 e8 b7 f8 39 86 3a b5 47 e2 39
       -0.00017337516 -2.7764965e-05 0.0010240665 0.00043159505
000270 a3 50 73 b9 f7 4d 34 3a 95 08 0c 39 c2 ab df b9
       -0.00023204325 0.0006878073 0.00013354637 -0.00042661844
000280 e6 03 b8 39 99 59 bc b9 fb b4 b7 b9 d1 42 ef b9
       0.0003509812 -0.0003592491 -0.0003503932 -0.00045635414
000290 a0 c4 24 b9 12 2f eb b9 92 59 5e ba 3e 9a 1c ba
       -0.00015713507 -0.00044857763 -0.0008481975 -0.00059739116
0002a0 b1 6a 2a b8 df f9 0a ba b7 4f dd b9 b6 0c 0b 3a
       -4.0630523e-05 -0.0005301516 -0.00042211797 0.0005304323
0002b0 bd 09 c7 39 3e 1e 0a 3a 59 ab 71 39 37 c3 8e 37
       0.00037963493 0.00052687887 0.00023047383 1.7018623e-05
0002c0 4b e7 34 39 70 09 9f 39 b1 c4 1a 39 62 c7 bb 39
       0.00017252301 0.00030333875 0.00014759858 0.0003581597
0002d0 55 04 ba 3a b9 a9 5a 3b be 04 a6 3b cf d5 56 3b
       0.0014191965 0.0033365323 0.0050664833 0.0032781248
0002e0 5b b9 a0 3b f5 b6 5d 3b 92 46 10 3b 90 a8 f3 3a
       0.0049049086 0.0033830975 0.002201472 0.0018589664
0002f0 56 b3 68 3b f8 cb e0 b9 3e 72 2f 38 ab 1e 27 39
       0.0035507283 -0.00042876578 4.1829648e-05 0.00015937786
000300 3e 0b ac b9 e1 89 26 ba 58 9a 09 ba 53 e2 68 b8
       -0.00032814773 -0.0006352943 -0.0005249134 -5.552389e-05
000310 82 66 21 b9 eb e5 04 36 67 40 86 39 ac 55 3e 3a
       -0.00015392344 1.9803363e-06 0.00025606455 0.0007260691
000320 30 e7 26 3a 88 99 1c b8 53 96 eb 39 62 e6 77 3a
       0.0006366847 -3.7336285e-05 0.00044934693 0.0009456632
000330 fc de 55 b8 60 bc ea 39 15 e9 40 3a c8 25 20 bb
       -5.0990828e-05 0.00044772308 0.00073589507 -0.0024436582
000340 fd 11 01 bb f4 c8 d3 ba 09 5f 2a ba 16 84 91 ba
       -0.001969456 -0.0016157911 -0.00064991467 -0.0011101987
000350 dc 4e 1f ba db e9 17 bb ba f6 29 bb b9 3b 2b bb
       -0.00060771196 -0.002318016 -0.0025934414 -0.0026128127
000360 fa 03 99 bb 86 1a 0a bb 34 e9 88 bc eb 2f f2 3a
       -0.0046696635 -0.0021072938 -0.016712762 0.0018477415
000370 c9 c4 49 bb 35 aa 2f bc b2 4e 00 3c 11 4f ac ba
       -0.003078746 -0.010721733 0.007831262 -0.0013146122
000380 9c 3e 21 bb b2 dc d0 3a c1 be 5e 3c 8b 2c 94 3c
       -0.0024603968 0.0015934913 0.013595284 0.018087646
000390 75 82 d8 bc f3 e9 53 bc 2f 74 d2 bc 67 0e 25 bc
       -0.026429394 -0.012934196 -0.025690166 -0.010074235
0003a0 04 12 5a 3c f8 1b 08 bb 83 50 f1 3a 98 95 7e bc
       0.013309959 -0.0020768624 0.0018410835 -0.015538596
0003b0 7e 4e 88 3c 27 43 bd bb 5d ae 1c bd a0 e9 75 bc
       0.01663899 -0.0057758274 -0.038252223 -0.015009314
0003c0 1a c9 01 b9 33 5d 03 bd bc 0a ed bb a4 dd d0 3c
       -0.00012377315 -0.032071304 -0.0072339457 0.025496311
0003d0 6c 62 ad 3c bc b1 a5 3c 82 de 1d 3d 4f 5e 48 3c
       0.021165095 0.020226352 0.038542278 0.012229516
0003e0 77 8d 03 bd 14 74 73 bc ff 03 dd bb 86 f3 aa 3c
       -0.032117333 -0.014859218 -0.006744861 0.020868074
0003f0 12 9f 5a 3d 27 a0 e7 bc cb 02 b3 bc 5e 82 82 bc
       0.053374358 -0.028274609 -0.021851918 -0.015931305

bias f4 [128]
000000 6d 4f 39 bd dd 96 c8 bd 2e 10 1e 3c 02 cf 01 bd
       -0.045241762 -0.097944 0.009647412 -0.03169156
000010 21 3a ea 3c eb 51 27 bd 61 9d 18 3d 58 ae 94 bd
       0.028592171 -0.040849607 0.037259463 -0.07259816
000020 18 82 5a bd dc c6 58 3d e6 0b 90 b9 7c 60 8c bd
       -0.053346723 0.052924022 -0.00027474685 -0.068543404
000030 db 69 24 b8 5c 1e cf b9 88 c6 b8 bd 1d 8b 9b bc
       -3.9199233e-05 -0.00039504736 -0.09022242 -0.018987233
000040 74 49 a3 3b 1f d1 bf b8 aa a6 af bc f2 5c 69 3d
       0.0049831215 -9.1465416e-05 -0.021441776 0.056973405
000050 1e e7 a3 bd 95 29 ab bc fd df e7 b7 27 8e 1a bd
       -0.080030665 -0.020893851 -2.7641649e-05 -0.037733223
000060 7f cd 06 b8 9a 8c 02 3c b3 5a 06 bd f1 2d 5d bd
       -3.2139473e-05 0.007968092 -0.03280134 -0.05399889
000070 e3 73 57 3c bb 55 7c 3c 58 e5 ca bb f8 09 38 3c
       0.013150188 0.015401299 -0.0061918907 0.0112328455
000080 0c 70 23 37 86 2e 48 3d f3 39 2c 3c 10 ca 2b 3c
       9.741645e-06 0.048872493 0.010511863 0.010485187
000090 11 da c5 bc e7 e9 28 3d 57 28 a8 3d f6 d1 3a 3d
       -0.024151834 0.04123869 0.08210819 0.04561039
0000a0 c1 29 48 3c 33 d4 02 bd ea 77 e2 bb 94 e0 8b 3d
       0.012216986 -0.03194065 -0.0069112675 0.06829944
0000b0 2a 6f 8e bd 2c 2e b0 bc 1b 8b ac 3c 0a 6d 14 3d
       -0.069547966 -0.021506391 0.021062424 0.0362368
0000c0 8b 8b 48 3c 70 6b 2d 3d 6f ac 96 bc 5f 2c 6b bc
       0.012240301 0.04233879 -0.01839277 -0.014353841
0000d0 bb 25 d0 3d 1c 07 3f 3b ca ff bf ba 95 09 66 bd
       0.101634465 0.0029148525 -0.0014648375 -0.056161482
0000e0 d0 d3 82 39 d2 71 05 bd c4 70 40 b8 2e 02 0f 3d
       0.00024953345 -0.03257925 -4.588139e-05 0.034914188
0000f0 88 4b 79 3b 1f 18 8a 3b 97 56 21 3d 5e 99 38 bb
       0.0038039405 0.0042143012 0.03938922 -0.0028167586
000100 78 0e ac bd a2 69 e4 3b 7b ba bc 3c 4b 9b a0 3c
       -0.08401197 0.0069706 0.02303814 0.0196053
000110 57 0e 93 3c 86 2b b3 bb 95 4c 9a bd f8 d0 6e bd
       0.017951174 -0.005467835 -0.07534138 -0.058304757
000120 86 92 ae 38 8c 37 8e 3d eb 53 14 3d 37 fd 76 bc
       8.324259e-05 0.069441885 0.036212843 -0.01507502
000130 b3 94 94 3c a7 73 ed bb ab a4 3d b8 5b 54 4a bd
       0.018137312 -0.007246453 -4.521447e-05 -0.049396854
000140 89 3a 15 3d 75 59 eb b6 66 df 69 3d 05 7a 41 bb
       0.036432777 -7.01396e-06 0.057097815 -0.0029522192
000150 73 44 07 b9 02 03 c8 3c 9c cd 89 3c ea f1 85 bc
       -0.00012900103 0.024415497 0.016821675 -0.016350705
000160 d5 37 a0 bc 3a e5 e3 bc 3f 31 a5 37 2f 7f 8c b7
       -0.019557873 -0.027819265 1.9692465e-05 -1.6748525e-05
000170 5b 60 7e bd 05 ea 68 3d 65 be 81 3c 69 a5 71 bc
       -0.06210361 0.056863803 0.015837857 -0.0147489095
000180 b1 dd 6a bd d6 4a 71 3d 3d fc f6 bb 44 d2 3b bd
       -0.057340328 0.05890926 -0.0075373934 -0.04585482
000190 c0 67 90 bc f7 ad 89 b9 47 c5 2c 3c 71 6a 55 3d
       -0.017627597 -0.0002626029 0.010545081 0.052103464
0001a0 ce 64 b6 b6 33 16 2a bc 88 f9 76 3d b8 62 e4 3b
       -5.435758e-06 -0.010381269 0.060296565 0.006969776
0001b0 71 9e 89 3d 28 15 4b 36 73 30 88 3c 44 37 29 bb
       0.067196734 3.0261672e-06 0.016624665 -0.0025820294
0001c0 b1 3f 26 3b 4d 6c 42 bd 6c 58 8e 3d 3f 61 d2 bc
       0.0025367553 -0.047466565 0.06950459 -0.025681136
0001d0 7c a8 49 bc 46 96 c5 3a 58 1c 0a 3d 7b b8 99 b7
       -0.012308236 0.0015074692 0.033718437 -1.8324927e-05
0001e0 97 61 b3 b7 77 b3 90 3d 8c 6a 49 bd 0b 79 3e 3b
       -2.1383907e-05 0.0706548 -0.049173877 0.0029063846
0001f0 d1 35 df bc 01 39 10 3a 19 51 55 bd 2d bb ee ba
       -0.027247341 0.00055016583 -0.052079294 -0.0018213742

weight f4 [4, 1, 3, 3]
000000 d8 c9 bb 3a 42 fe 03 3d c9 f4 79 3c e0 e7 94 3c
       0.0014327122 0.0322249 0.015256115 0.018176973
000010 1a f1 9e 3c 9d 7f 06 3d 54 b7 bd 3c fb 29 c7 3c
       0.019402076 0.032836545 0.023158707 0.02431201
000020 bf e1 fb 3c a3 c1 9f bd 53 e6 3f bc 1b e3 e6 bd
       0.030747293 -0.07800605 -0.011712628 -0.11273786
000030 62 6c ad bd 4c c7 5d bb 6e 5d aa bc 9c 71 66 bd
       -0.08467938 -0.0033840714 -0.020796504 -0.05626069
000040 b3 41 47 bc 3e ab c6 bd 52 d9 08 3e e2 c1 d6 3d
       -0.01216166 -0.097006306 0.13364151 0.10486199
000050 02 d6 d9 3d 6a c2 1f 3e 36 bd 2e 3e 3b 4d ca 3d
       0.10636522 0.15601507 0.17064366 0.09878012
000060 82 72 49 3d 6a 3b 9f 3d fd fb 87 bd d6 51 93 bd
       0.04918147 0.07775004 -0.0663986 -0.07193343
000070 cf 1c 96 bb 8b ed dc 3d 39 49 ea 3d 71 fd 61 3e
       -0.004581071 0.10787495 0.11439747 0.22069336
000080 dc c3 05 3d a1 87 4c 3e f7 3a 19 3d 3d d7 aa 3d
       0.03265749 0.19973613 0.03740975 0.08341835

bias f4 [4]
000000 9c 84 83 bd 44 15 44 bd 1b 9b 1f 3d df 9d 13 be
       -0.064217776 -0.047871843 0.03896628 -0.14415692

weight f4 [4, 4, 3, 3]
000000 4d 1e 09 bc e6 91 e1 bb 01 71 03 bc 20 8f bf bb
       -0.008369041 -0.0068838475 -0.008022548 -0.0058459193
000010 27 9c d5 bb d1 d4 09 bc 62 c4 fd bb ce fb 14 bc
       -0.006518859 -0.008412556 -0.007744358 -0.009093238
000020 22 f0 17 bc 16 8d 50 3d 6a 1f 30 3d e4 68 5e 3d
       -0.009273561 0.0509158 0.04299871 0.05429925
000030 c0 58 a2 3c 5c 5d e7 bc 87 5a 78 3c 2c e2 b2 3c
       0.01981771 -0.02824276 0.015158302 0.021836363
000040 96 27 76 3d 46 0e 00 3d f3 2c c0 bd 56 b7 46 bd
       0.060096346 0.031263612 -0.093835734 -0.048514687
000050 c5 55 39 bd f8 15 4b bd 44 ef 52 bd 95 41 fa 3b
       -0.04524781 -0.049581498 -0.051497713 0.0076372125
000060 7d 14 c3 bd a3 5b 5f bd 25 4f 94 bd a6 1f 13 bd
       -0.09525392 -0.05453075 -0.07241658 -0.035918854
000070 a2 da 12 bd 51 15 0a bd 40 1d 15 bd 45 5f 0b bd
       -0.035853036 -0.033711735 -0.036404848 -0.034026403
000080 3a d9 01 bd 04 55 15 bd f8 e6 09 bd 53 99 04 bd
       -0.031701304 -0.03645803 -0.033667535 -0.032372784
000090 eb 3f 0f 3c 8e 09 10 3c f6 be 09 3c 73 e6 01 3c
       0.008743267 0.0087913405 0.008407345 0.0079284785
0000a0 8f 54 10 3c 1a 31 0f 3c b5 57 00 3c 44 0f 19 3c
       0.008809223 0.008739734 0.007833411 0.0093420185
0000b0 18 74 09 3c 03 68 22 bd 29 02 07 bd 88 43 74 3c
       0.008389495 -0.039649975 -0.032961044 0.014908679
0000c0 81 37 8e bc 60 37 42 bd d4 a5 26 bd e5 a0 f7 3b
       -0.01736045 -0.04741609 -0.04068549 0.007557022
0000d0 2f 9a bc bc 4b e1 53 bd 98 77 57 3d 4f f1 a4 bc
       -0.02302274 -0.051728528 0.052604288 -0.020134596
0000e0 78 25 82 3d 78 aa b1 3d df f8 3f bc 9f ab 47 3d
       0.06354803 0.086750925 -0.01171705 0.048747655
0000f0 82 ea 02 3c ac 4e 7d 3d 55 5b f0 3c 7a c4 0f 3d
       0.007990481 0.061842605 0.029340426 0.035099484
000100 65 35 0f 3d a5 5e 10 3d 35 2b 01 3d 02 42 0c 3d
       0.03496303 0.03524651 0.031535346 0.034242637
000110 b0 a1 12 3d f2 9f 01 3d 07 6c 12 3d 9a df 0b 3d
       0.03579873 0.031646676 0.035747554 0.03414879
000120 e7 35 82 3c 01 e7 b7 3c 1e 34 36 3c ed 3c 66 3c
       0.015894843 0.022449018 0.011120824 0.014052612
000130 38 39 5c 3c c1 51 8f 3c 76 6d 2a 3c e4 3c 99 3c
       0.013441376 0.017495038 0.010402074 0.018705793
000140 89 5e 99 3c 48 92 15 bd 68 45 3d bd b7 c4 76 bd
       0.018721836 -0.036516458 -0.04620877 -0.060246196
000150 13 e0 48 3d 76 97 75 3c 82 c8 94 bd 48 7f 49 3d
       0.04904182 0.014989724 -0.07264806 0.04919365
000160 ef e8 a0 bd 9b c5 25 bd 43 85 89 3d d4 80 3d 3c
       -0.078569286 -0.040471654 0.06714871 0.01156636
000170 08 25 d3 3d 26 ed 88 3d 78 44 60 3d 26 b8 bd bc
       0.103097975 0.066858575 0.054752797 -0.023159098
000180 14 06 7e 3d e1 a8 9c 3d 6a 20 30 bd d9 76 74 3d
       0.062017515 0.076493986 -0.042999662 0.059683654
000190 9f b9 72 3d b4 2c 83 3d b4 08 67 3d db 36 81 3d
       0.059259053 0.06405011 0.056404784 0.06309291
0001a0 a4 c0 80 3d 4e a9 68 3d 4c c1 7e 3d 3e 79 6a 3d
       0.06286743 0.056802087 0.06219606 0.05724453
0001b0 dd 41 27 a8 4c d7 96 a7 48 cf 91 25 e9 f9 4a a8
       -9.284644e-15 -4.186679e-15 2.529395e-16 -1.1267443e-14
0001c0 45 15 ad a7 32 d3 9d a5 b6 ef 4b a8 d4 29 ca a6
       -4.8040206e-15 -2.737827e-16 -1.1320743e-14 -1.4027903e-15
0001d0 eb 94 98 27 18 41 53 28 58 44 43 28 6b 68 85 27
       4.2349932e-15 1.1726968e-14 1.0839494e-14 3.7028126e-15
0001e0 74 2c 8c 28 ac 09 91 28 50 3e 25 28 6c ba 67 28
       1.55624e-14 1.6102428e-14 9.172852e-15 1.28635e-14
0001f0 07 93 8f 28 4c ff 37 28 df c5 a7 a8 cb a6 a9 a8
       1.5939952e-14 1.0213899e-14 -1.8626537e-14 -1.8835104e-14
000200 0b 7f 92 a6 eb ad f6 a8 d9 84 c8 a8 04 ba bc a7
       -1.016522e-15 -2.7386911e-14 -2.2262074e-14 -5.238216e-15
000210 17 48 15 a8 3b d2 b9 a8 5b 80 2d a8 56 56 07 a9
       -8.2867935e-15 -2.0630299e-14 -9.631262e-15 -3.0050906e-14
000220 b6 9c 9b a8 65 4f 77 27 52 45 69 a9 e5 44 9e a8
       -1.727642e-14 3.4321176e-15 -5.179652e-14 -1.7571402e-14
000230 ef c9 56 28 04 91 84 a9 bf be d3 a7 05 43 d9 28
       1.1923174e-14 -5.887134e-14 -5.877107e-15 2.4120905e-14

bias f4 [4]
000000 fd 1b 0d 3e 2a a2 85 bc 9c bd 50 bc 8e 75 52 29
       0.13780208 -0.016312677 -0.012740519 4.673133e-14

weight f4 [4, 4, 3, 3]
000000 0c 95 1a 3c 16 4e 91 3c 7f f4 fe 3c f9 66 c8 3c
       0.00943495 0.01773743 0.031122444 0.024463164
000010 b6 e9 e5 3c d0 c3 34 3d 42 46 f5 3c 16 ad 07 3d
       0.028065544 0.044132054 0.029940728 0.033124052
000020 4e 34 1f 3d f5 bb dd bb f2 fc ae bc cf 66 af bc
       0.03886824 -0.006766791 -0.021360848 -0.021411328
000030 dc a9 19 bc 65 49 39 bd d3 05 72 bd a7 f4 56 bc
       -0.009378877 -0.04523601 -0.059087586 -0.013119853
000040 42 f9 74 bd 79 d3 06 bc 11 8f 16 bc 5a ac d9 bc
       -0.059808023 -0.00822913 -0.009189383 -0.026571441
000050 27 ec e4 bc c0 e2 07 bd fe 1a 8a bd 20 06 91 bd
       -0.027944637 -0.03317523 -0.067434296 -0.070812464
000060 0b cf f5 bc 84 f9 80 bd 0d 9f 78 bd de 25 ac a8
       -0.030005952 -0.06297591 -0.060698558 -1.9112258e-14
000070 f1 89 97 28 9c c1 10 29 a8 cc 8c a8 65 38 67 a8
       1.682419e-14 3.2142352e-14 -1.5631878e-14 -1.28353045e-14
000080 6b 92 53 27 cd f3 5b a8 70 11 11 a8 95 a5 97 a7
       2.9361506e-15 -1.2209808e-14 -8.052898e-15 -4.2090444e-15
000090 0c fb c0 bb 3a ce 0f ba 50 85 87 bb 95 e3 27 bc
       -0.005889302 -0.0005485747 -0.004135765 -0.010247131
0000a0 ba a3 04 bc a6 58 3b bc d3 a2 ea bb 20 a6 8c bb
       -0.008095676 -0.01143471 -0.0071605234 -0.0042922646
0000b0 c6 41 b9 bb 99 19 31 3c dc 7a 3c 3c 94 ec 76 3c
       -0.0056535928 0.010809326 0.011503901 0.015071053
0000c0 cd 26 de 3c 7f 54 a0 3c 72 c1 a9 3c 11 1c 8f 3c
       0.027118111 0.01957154 0.020722125 0.017469438
0000d0 03 61 20 3b 15 06 30 3c 42 35 42 3c 10 68 86 3c
       0.0024471886 0.010743638 0.011853518 0.016407043
0000e0 78 ba 7c 3c 1e a5 f8 3c b0 f4 98 3c 82 c0 a0 3c
       0.015425317 0.030352172 0.018671364 0.019623045
0000f0 1b 62 c4 3c 2d 9b 1a 3c 28 65 2c 3c e0 30 00 a8
       0.023972562 0.009436411 0.010522164 -7.1160254e-15
000100 e7 94 e3 a7 4c c6 c8 a7 cd 1d e3 a6 95 32 66 a7
       -6.3166597e-15 -5.5726145e-15 -1.5759367e-15 -3.1946333e-15
000110 cb 08 b5 a7 45 8f 38 a7 6b 4b b8 a5 c4 d5 a7 a7
       -5.0247125e-15 -2.5612796e-15 -3.1970017e-16 -4.6583576e-15
000120 05 86 c2 b9 64 18 c1 39 ec 72 e3 3b 7f 50 59 3a
       -0.00037102416 0.0003683 0.00694119 0.0008289888
000130 a4 5a 64 3c a4 78 bb 3c db 30 69 3b df 13 38 3c
       0.013937626 0.022884674 0.0035582099 0.011235206
000140 22 5e 0f 3c 31 a5 05 bc 68 3a 82 bc 5d 9f 82 bc
       0.00875047 -0.0081570605 -0.01589699 -0.015945131
000150 d5 7a 3f bc 2f fc 46 bc 01 b8 84 bc 4b 86 18 bc
       -0.011687 -0.012145086 -0.016201021 -0.009309362
000160 e8 83 29 bc 5d b8 9c bb 6f 80 13 bc 95 07 75 bc
       -0.01034639 -0.00478272 -0.009002789 -0.014955421
000170 74 7c 57 bc 2e 02 68 bc e1 f5 98 bc d2 64 bc bc
       -0.0131522305 -0.014160676 -0.018671932 -0.022997294
000180 24 a5 38 bc e3 b5 42 bc 3c 7c 5f bb a9 75 20 a8
       -0.011269841 -0.0118841855 -0.003410115 -8.907298e-15
000190 b6 d3 73 28 2f eb 95 28 7b 67 aa a8 10 85 ea 27
       1.3535117e-14 1.6644318e-14 -1.8918669e-14 6.5092314e-15
0001a0 a7 4e 7c 28 ca fb f3 a8 6b 58 23 28 3f 1a 28 28
       1.4005865e-14 -2.7087616e-14 9.06749e-15 9.331565e-15
0001b0 03 f9 3a bd 13 a5 a1 bd 1b 9d 65 bd 6f ef 54 bd
       -0.045647632 -0.078928135 -0.05605803 -0.051986154
0001c0 3d 2b 8a bd 69 c9 34 bd 87 39 44 bd cb c7 59 bd
       -0.06746528 -0.044137392 -0.047906425 -0.053169053
0001d0 e8 f5 47 bd fc f2 51 3b 5b 87 8e 3d 52 ae 70 3d
       -0.0488185 0.00320357 0.06959411 0.058759995
0001e0 8e 93 82 3d de a3 3b 3c 3b f5 1e 3d 50 8e a8 3b
       0.063758 0.011452643 0.03880809 0.005143918
0001f0 40 49 e4 3b 98 88 99 3d 54 c9 c7 3d 08 ec 9b 3d
       0.00696674 0.07496756 0.09755197 0.07613379
000200 e5 88 ac 3d b7 e1 8b 3d be 67 2a 3d 70 44 a1 3d
       0.08424548 0.06830161 0.041602843 0.078743815
000210 b1 d2 82 3d 7a a7 90 3d f2 9f 5a 3d 13 23 86 29
       0.063878424 0.070631936 0.053375192 5.95688e-14
000220 f3 0b 1a aa d8 62 4c a8 aa e7 32 29 2e 8c ee a9
       -1.3682093e-13 -1.1345708e-14 3.9724876e-14 -1.05936405e-13
000230 6a c5 99 28 52 8f e9 28 c4 82 09 a9 38 8d 6a 29
       1.7072027e-14 2.5930352e-14 -3.0533532e-14 5.2080925e-14

bias f4 [4]
000000 cd de 1a 3d a2 a4 01 bd 6c 0c 61 bd 68 4a ef bd
       0.037810136 -0.031651147 -0.054943487 -0.11684114

weight f4 [4, 4, 3, 3]
000000 f2 a2 ad 3c e0 5e ab 3c d7 ba a2 3c f7 87 a2 3c
       0.021195862 0.020919263 0.019864483 0.019840224
000010 12 ce af 3c 87 02 98 3c 46 10 a1 3c a6 c5 93 3c
       0.021460567 0.018555893 0.01966108 0.018038582
000020 50 b3 96 3c fe a0 0b 3d e5 75 12 3d be a5 e5 3c
       0.01839605 0.03408908 0.035756964 0.028033134
000030 9d f7 f9 3c 04 96 d2 3c fc a9 a7 3c 63 a4 a5 3c
       0.030513579 0.025706299 0.020466797 0.020219987
000040 30 c2 fa 3c cb a1 a2 3c 0e f8 9a 3c e5 ca 9b 3c
       0.030610174 0.01985254 0.01891711 0.019017646
000050 19 58 6b 3c 1c d4 66 3c 89 e6 8e 3c dd 1f 3d 3c
       0.014364266 0.014088657 0.017443912 0.011543241
000060 bb e5 00 3c 88 84 12 3c 88 24 02 3c 66 05 09 3d
       0.007867272 0.008942731 0.00794328 0.033452414
000070 79 6f 22 3d c8 2a 3b 3d 8b 66 29 3d 29 b2 e3 3c
       0.03965709 0.045695096 0.04135756 0.027794914
000080 3e 65 00 3d ea 6e 12 3d 5c 6a f4 3c 11 9e e4 3c
       0.031346552 0.035750307 0.029835872 0.027907403
000090 7e 6c 5e bc 38 79 5c bc ce 55 5f bc df 93 69 bc
       -0.013575671 -0.013456635 -0.013631297 -0.014256447
0000a0 51 86 67 bc eb bb 65 bc 0d 3b 84 bc 17 53 5b bc
       -0.014131145 -0.014021854 -0.016141439 -0.013386509
0000b0 ad 76 53 bc 63 2e 8d bc 24 fa 70 bc f4 3b 81 bc
       -0.0129067125 -0.017234033 -0.014708076 -0.015775658
0000c0 52 b6 86 bc da 9a 91 bc 40 3a 88 bc 23 9e b7 bc
       -0.016444359 -0.017774034 -0.016629338 -0.022414273
0000d0 07 01 81 bc 6a 50 70 bc ec ed f7 bb 02 1f cf bb
       -0.01574756 -0.01466761 -0.0075662043 -0.006320835
0000e0 c2 5e 5d bb a2 13 13 bc 5f 25 00 bc 3f 97 bb bb
       -0.0033778404 -0.008976849 -0.00782141 -0.005724817
0000f0 3c 6e 51 bc 47 51 f6 bb 35 6b a8 bb c5 85 be bc
       -0.01278263 -0.0075170132 -0.005139733 -0.023257146
000100 2b ac 91 bc d1 6b aa bc 37 c2 d0 bc 06 c4 86 bc
       -0.017782291 -0.020803364 -0.025483234 -0.016450893
000110 39 65 82 bc c4 17 ab bc b1 41 8d bc b3 a2 99 bc
       -0.015917407 -0.020885356 -0.017243238 -0.018754339
000120 f4 b2 0c bc 3f 0e 0b bc 6b a6 09 bc e9 c7 11 bc
       -0.008587588 -0.008487283 -0.008401494 -0.00889776
000130 96 5d 11 bc 2a bd 0b bc d9 fa 26 bc a4 f8 09 bc
       -0.00887241 -0.008528987 -0.010191643 -0.008421097
000140 7d c0 ff bb 5c 21 20 bc 5a 77 14 bc 8b 11 06 bc
       -0.007804929 -0.0097735785 -0.009061659 -0.0081828935
000150 da b3 27 bc 4d 00 23 bc ad 3d 18 bc 41 fe 53 bc
       -0.010235751 -0.009948802 -0.009292048 -0.012939037
000160 e3 36 1a bc 49 91 08 bc 0f d2 9a bb 82 95 80 bb
       -0.0094125 -0.00833542 -0.004724748 -0.0039240727
000170 32 75 f1 ba cc e2 a4 bb 1c 86 8f bb c0 87 44 bb
       -0.0018421768 -0.005031919 -0.0043800008 -0.002998814
000180 dc 59 f5 bb cd 65 84 bb c2 c9 10 bb 4c ec 62 bc
       -0.0074875187 -0.004040456 -0.0022092913 -0.013850283
000190 d9 b3 2e bc f1 33 26 bc 4d 85 54 bc 2a 28 1d bc
       -0.010662996 -0.01014422 -0.0129712345 -0.009592095
0001a0 e0 ae 12 bc d5 ba 54 bc e9 27 1c bc 85 ee 16 bc
       -0.008952826 -0.012983997 -0.009531 -0.009212141
0001b0 e7 5e 6d 3c 6a 8a 75 3c 57 d7 5d 3c e3 41 58 3c
       0.0144879585 0.014986614 0.013540111 0.013199302
0001c0 2c c1 67 3c d9 4f 4c 3c 0e 23 55 3c a3 33 4c 3c
       0.014145177 0.012470209 0.013008846 0.012463483
0001d0 2b 77 39 3c 69 96 99 3c 54 83 a7 3c 3d d7 88 3c
       0.011319916 0.018748479 0.020448364 0.016704196
0001e0 8f 90 81 3c 91 00 92 3c 28 02 6a 3c 1e e3 78 3c
       0.015816001 0.017822536 0.014282741 0.015190868
0001f0 48 12 70 3c 85 ad 50 3c 35 d8 5b 3c e3 89 82 3c
       0.014652796 0.012736683 0.013418247 0.01593489
000200 6c 75 3c 3c f5 b5 1b 3c b9 f8 3a 3c 74 93 02 3c
       0.011502605 0.009503831 0.011411839 0.007969726
000210 7f 22 e4 3b 7e 85 e6 3b 80 21 aa 3b de 73 8f 3c
       0.00696212 0.0070349565 0.005191982 0.017511304
000220 8f 9f a0 3c c4 f2 96 3c a6 bd 83 3c 20 93 8b 3c
       0.019607333 0.018426307 0.016081642 0.017037928
000230 89 d7 8c 3c 5e 8e 50 3c 52 a6 8a 3c e1 f9 89 3c
       0.017192619 0.0127292555 0.01692501 0.016842784

bias f4 [4]
000000 c5 56 bd 3d cc 23 f2 bd 16 1c bc bd 2f e1 dc 3d
       0.092450656 -0.11823234 -0.091850445 0.10785138

weight f4 [4, 4, 3, 3]
000000 bf 75 6b bb ca a1 8e bb 2d bc 2e bc ee 6e ca bb
       -0.0035928336 -0.004352783 -0.010664982 -0.0061777746
000010 ba e2 a9 bc 77 c9 02 bd a3 34 8b bb 50 22 98 bc
       -0.020737994 -0.031930413 -0.004248218 -0.018571049
000020 11 83 7d bc 10 95 cc 3a 7d 5f 51 3a df 0e 7f 39
       -0.015473143 0.0015608389 0.0007986946 0.00024324235
000030 cb e0 96 3a 0f 44 2d 3b ac 9c 15 3c 2b 13 1e 3a
       0.0011511085 0.002643827 0.009131592 0.0006030078
000040 94 30 07 3c 19 3d 56 3c 1d d8 8d 3a 2a c6 23 b8
       0.008251328 0.01307609 0.0010821853 -3.9046783e-05
000050 7a ea 85 39 0c 4d 31 3a 02 08 34 3b 52 db 88 3b
       0.00025542435 0.0006763495 0.0027470593 0.0041765356
000060 8b 1b 80 38 11 ba 39 3b 3d f9 8c 3b 44 30 1e bb
       6.108646e-05 0.0028339664 0.0043021725 -0.0024137655
000070 4b ec e4 ba 11 0b 05 ba f5 78 0f bb 86 30 00 bc
       -0.001746544 -0.00050751964 -0.0021892164 -0.007824069
000080 d4 fb f6 bb 95 a2 1b ba 6d d0 1d bc c3 e0 0c bc
       -0.0075373445 -0.00059370074 -0.009632212 -0.008598509
000090 03 c2 ee 3b ee 8b 6b 3c a5 36 88 3c ce 26 26 3c
       0.0072863116 0.014376624 0.016627619 0.010141088
0000a0 a0 b7 26 3c 36 96 50 3c d4 2f e4 3b c2 31 05 3c
       0.010175616 0.012731126 0.0069637094 0.008129539
0000b0 55 28 01 3c 3c 95 fc ba ca 02 b1 bb 17 73 eb bb
       0.007883151 -0.001927055 -0.005401944 -0.0071853506
0000c0 77 6c 2b bb f4 01 c0 bb fa 34 d5 bb bd b2 f4 ba
       -0.002615718 -0.005859608 -0.0065065594 -0.0018668991
0000d0 16 89 71 bb b9 99 a9 bb 64 ac 94 ba e3 e7 55 bb
       -0.0036855391 -0.005175796 -0.001134288 -0.0032639436
0000e0 65 85 5e bb 19 27 ad ba dd 7d 3b bb 4d c4 5a bb
       -0.003395402 -0.0013210505 -0.0028608956 -0.0033381165
0000f0 c3 bf 3f ba 0f c4 e9 ba 04 0b 1b bb 0b 38 80 3b
       -0.00073146465 -0.0017834919 -0.002365769 0.003912931
000100 01 04 bc 3b dd 8a db 3b da 0a 81 3b 62 d6 98 3b
       0.005737782 0.0066999034 0.003938061 0.0046642283
000110 ed 9c dc 3b 4a 82 11 3b 6c 0b 6c 3b 7d b9 85 3b
       0.006732574 0.0022202902 0.003601755 0.00408095
000120 c1 ac 91 bb b8 ed 10 bb 75 42 00 bb dc 30 d8 ba
       -0.0044456427 -0.0022114348 -0.0019570861 -0.0016494053
000130 20 af 98 3a a9 36 c2 3a 02 87 c9 ba b2 ff b5 3a
       0.0011648871 0.0014817315 -0.0015375318 0.0013885407
000140 08 06 06 3b 34 af 6e 3b 12 7c da 3a dc c1 9d 3a
       0.0020450372 0.0036420347 0.0016669056 0.0012035924
000150 8c 87 a7 3a e2 b5 90 ba 2f 47 ed ba d3 80 45 3a
       0.0012781485 -0.0011040533 -0.0018102879 0.000753415
000160 3d cf c5 ba a6 e6 1f bb de 7c 4e 3b 5b b0 a5 3a
       -0.0015091669 -0.0024398952 0.0031507532 0.0012641059
000170 40 b7 68 3a f9 9d 5c 3a bd de c0 ba 9f 2b 06 bb
       0.0008877404 0.0008415874 -0.0014714819 -0.0020472778
000180 7a 85 dc 39 96 03 eb ba e0 1b 28 bb 39 42 78 bb
       0.00042061118 -0.0017930146 -0.002565138 -0.0037881269
000190 d0 17 db ba 1e 5e be ba fb 1b 8c ba 6b 76 d3 3a
       -0.0016715471 -0.0014523899 -0.0010689491 0.0016133314
0001a0 0d 04 f1 3a f3 a2 82 ba 6f c3 e8 3a e3 20 15 3b
       0.0018388048 -0.0009966776 0.0017758439 0.0022755198
0001b0 f2 b2 70 3d 2b 2a 66 3d 67 a2 bb 3d 6d ae 59 3d
       0.058764406 0.05619256 0.09161835 0.05314486
0001c0 7d a6 74 3d f9 fd 36 3d b2 cd 58 3d c2 a2 33 3d
       0.059729088 0.0446758 0.05293054 0.04385639
0001d0 51 0a 88 3d 9c 43 5d bd 87 8e 62 bd b3 f3 7d bd
       0.06642593 -0.054019555 -0.055311706 -0.061999988
0001e0 98 f2 52 bd 3e e4 05 bd a2 3c 67 bd 6f 22 2d bd
       -0.051500887 -0.03268837 -0.05645431 -0.042269167
0001f0 2a 4c 81 bd e5 2a 25 bd 9d 2a 1c bd 17 9e 0a bd
       -0.06313355 -0.04032411 -0.038126577 -0.033842172
000200 52 1b 19 bd 4d 8e 1d bd 8a 4a e1 bc 53 3e 0b bd
       -0.03737957 -0.038465787 -0.027501363 -0.033994984
000210 45 47 14 bd 8f 20 17 bd 08 51 00 bd d2 36 17 3d
       -0.03620078 -0.036896285 -0.031327277 0.036917515
000220 cb 05 4c 3d c1 a6 4b 3d b8 dd 57 3d 5f 13 3e 3d
       0.049810212 0.049719576 0.05270168 0.046405192
000230 3e 87 41 3d bc 6b 5e 3d f2 64 1b 3d e3 5e 13 3d
       0.047248118 0.054301962 0.037938066 0.035979163

bias f4 [4]
000000 13 6c 43 3d f9 cb 59 bd 38 d2 4d 3b 25 ee 36 3e
       0.04771049 -0.05317304 0.0031405818 0.17864282

weight f4 [128, 8, 3, 3]
000000 b9 69 d7 b3 e4 ee 81 b4 f5 99 03 b4 d1 97 03 b4
       -1.00309485e-07 -2.4201938e-07 -1.2256335e-07 -1.2255556e-07
000010 c7 f0 b7 b4 03 a0 0f b5 28 c3 09 b2 c4 7d 8c 33
       -3.4261595e-07 -5.35045e-07 -8.018823e-09 6.542135e-08
000020 60 f0 fc b3 20 8e d9 33 ff 69 74 34 66 4a 08 b3
       -1.17783884e-07 1.0130702e-07 2.2762832e-07 -3.1732633e-08
000030 55 f7 23 33 59 43 06 35 ae d9 bf 33 ee 12 6d b3
       3.8176342e-08 5.0016894e-07 8.933726e-08 -5.519808e-08
000040 2d 08 0e 34 93 4f 43 34 93 95 83 b4 e7 7c 08 b5
       1.3227755e-07 1.8189739e-07 -2.450948e-07 -5.0845705e-07
000050 ed 83 7c b4 b9 7e db b4 42 22 81 b3 e9 09 be b3
       -2.3517323e-07 -4.0884132e-07 -6.013262e-08 -8.849367e-08
000060 de 3a db b3 70 94 8d 34 e3 e8 fb 34 28 95 3c b7
       -1.020869e-07 2.63713e-07 4.692184e-07 -1.1240401e-05
000070 80 15 9b b6 20 fb dc b6 5c 39 36 36 ce 0b e5 36
       -4.621863e-06 -6.5857457e-06 2.71535e-06 6.826106e-06
000080 82 7f c5 b5 bc 10 3f b6 4a 92 59 b7 e7 66 fe 35
       -1.4714753e-06 -2.8470959e-06 -1.29682685e-05 1.8954423e-06
000090 ca 9a 6b b4 8a b8 73 b5 44 be d0 32 55 7b 6a b4
       -2.1942392e-07 -9.0793094e-07 2.430091e-08 -2.1837816e-07
0000a0 8a 74 ce b5 38 9e a8 b5 52 14 11 35 15 fe 93 33
       -1.5382113e-06 -1.2563023e-06 5.404628e-07 6.891438e-08
0000b0 61 92 4b b5 d8 53 16 34 de 9b b2 34 1b c8 9e b1
       -7.58364e-07 1.4000341e-07 3.3268492e-07 -4.6211546e-09
0000c0 3d 6e 4f 34 17 bf 40 35 e1 d0 39 34 3c 69 3b b3
       1.9318482e-07 7.1803646e-07 1.7305457e-07 -4.363504e-08
0000d0 2d 8d b5 34 91 a2 d2 34 6c 9d 72 b3 e8 88 ee b3
       3.3816596e-07 3.923383e-07 -5.648819e-08 -1.1107642e-07
0000e0 e5 67 de 32 fa d9 29 33 9e 39 8f b4 2f 65 b2 b4
       2.5891447e-08 3.9546627e-08 -2.6677748e-07 -3.3228704e-07
0000f0 3b ea 7e 34 6e 82 ba b3 8a 4b 13 b5 70 26 60 35
       2.3740806e-07 -8.685025e-08 -5.487169e-07 8.3502437e-07
000100 d0 6d cb 35 a7 ca 87 b5 c5 b2 4c 35 7a 2b f2 35
       1.5156638e-06 -1.0117263e-06 7.6256066e-07 1.8043058e-06
000110 37 a8 86 b5 48 1e 79 34 34 4f 3f 35 70 f9 97 35
       -1.0032735e-06 2.3200948e-07 7.12683e-07 1.1322973e-06
000120 a5 87 08 bb 3b ab 33 39 ee d0 2c 3a 77 7d 20 bb
       -0.0020832804 0.00017134559 0.0006592412 -0.0024488845
000130 44 cb 2d 3b cc 2e b4 b9 7e f0 9a bb a1 94 d8 3a
       0.002651886 -0.00034367142 -0.004728376 0.0016523787
000140 66 c6 8e 3a 56 38 dd 3a 85 92 00 bb bd a2 97 ba
       0.0010892868 0.0016877751 -0.0019618582 -0.0011568886
000150 0a ae 59 3b 53 4c c6 ba 61 1b 78 bb d0 ba 85 ba
       0.0033215308 -0.0015128948 -0.0037858116 -0.0010202769
000160 b6 ad 60 3a 2f c7 5e ba 0d 2a 4c b9 a9 81 aa 3a
       0.0008570807 -0.00084983086 -0.00019470621 0.0013008612
000170 fe 17 cb 3a 20 25 ad ba e5 e6 80 ba b9 3a 87 b9
       0.0015494821 -0.0013209917 -0.0009834437 -0.00025792958
000180 dd c3 a9 b9 cd 86 d0 39 85 fd 98 3a 80 4d d1 bc
       -0.0003238012 0.00039773286 0.0011672234 -0.02554965
000190 37 a3 43 3c 29 26 87 3d 88 7e 0c bd 18 06 d6 ba
       0.011940769 0.06599075 -0.034300357 -0.001632872
0001a0 6e 4e 5f 3d 10 d8 98 3c 40 01 2f bc 2f ef ce bb
       0.054518156 0.018657714 -0.01068145 -0.006315134
0001b0 a5 80 c9 bb 67 99 62 3a 80 73 db 39 db 3f 43 bc
       -0.006149369 0.00086440746 0.0004185699 -0.01191708
0001c0 a8 4a e3 39 46 a7 eb ba ab 61 a6 bc ae ff 3e bb
       0.00043352437 -0.0017978929 -0.020310244 -0.0029144096
0001d0 2c 02 cb 39 d4 f2 7c 3b 7e a2 17 bb ea df f4 ba
       0.00038720795 0.0038596885 -0.0023137624 -0.0018682454
0001e0 af f5 9f 3b 16 8c 72 bb df 0d e5 bb 70 64 4b 3b
       0.0048815827 -0.0037009767 -0.006990179 0.0031035207
0001f0 66 7e 66 3b 1f f9 34 ba b8 99 c7 3b c3 8e 5e b9
       0.0035170554 -0.0006903577 0.0060913227 -0.00021224753
000200 cf 36 0d bc 67 b2 96 3b 17 44 f0 3a ef f0 1b bc
       -0.008619024 0.004598904 0.0018330839 -0.009517892
000210 3e 05 30 bc d8 9c a9 ba da 0c 04 3b a8 aa db 3b
       -0.010743437 -0.001294042 0.0020149262 0.0067036934
000220 96 a0 58 bc cb db d2 bb 4e 0a bc 3c c7 db 0a bc
       -0.01322188 -0.006434893 0.022954132 -0.008475251
000230 db 04 c5 bc 2c 2f 21 3c c8 42 6b 3c 95 95 51 bb
       -0.024050167 0.009837907 0.014359184 -0.0031980027
000240 23 8f e0 38 50 85 ae 38 8b d3 b8 37 b6 32 93 38
       0.000107078136 8.321798e-05 2.2033017e-05 7.018952e-05
000250 0c e9 80 38 20 14 3c b7 1c 2a 44 37 50 d1 94 38
       6.146924e-05 -1.1210359e-05 1.1692315e-05 7.0961774e-05
000260 0e 10 4e 38 e4 7c df b8 9b 3e 96 b7 f9 66 1c b8
       4.912918e-05 -0.00010656731 -1.7910546e-05 -3.72892e-05
000270 67 29 b8 b6 7d a0 2b 38 67 57 a4 36 83 bc 02 b8
       -5.488447e-06 4.0919043e-05 4.897756e-06 -3.116998e-05
000280 97 25 d9 b7 d3 56 45 b8 9f 58 3b b5 8a c7 4f 39
       -2.588592e-05 -4.704932e-05 -6.979189e-07 0.00019815392
000290 d6 91 5a 39 2f 6c 83 38 b1 11 d1 39 a0 91 a2 39
       0.00020844428 6.2667175e-05 0.00039876768 0.00031007547
0002a0 53 4c 43 35 c7 3a 03 39 a6 75 6d 38 24 73 99 37
       7.275423e-07 0.0001251503 5.6614772e-05 1.8292638e-05
0002b0 fa da 2a 38 96 64 cf b7 bb bb 08 38 bf 3d c1 37
       4.0735096e-05 -2.4723162e-05 3.2599764e-05 2.3036146e-05
0002c0 ff b6 7b b7 a6 42 8f b7 96 14 83 b8 d7 a8 76 b8
       -1.5003373e-05 -1.7077964e-05 -6.250401e-05 -5.8808215e-05
0002d0 5a ff 53 39 50 65 18 39 44 f6 cb 37 af cd 97 36
       0.00020217654 0.00014533591 2.4314162e-05 4.5240954e-06
0002e0 4e cc 57 38 7c e4 9d 37 d2 98 06 b7 77 46 40 37
       5.1450268e-05 1.8822255e-05 -8.022604e-06 1.1460498e-05
0002f0 8e dd d1 38 d5 81 46 b9 e0 05 a2 b8 64 8e 9f b8
       0.000100071644 -0.00018931118 -7.725856e-05 -7.608233e-05
000300 da 0a c3 b7 96 2d 9a 38 da f3 b4 b6 ac 32 9e b8
       -2.3250865e-05 7.351783e-05 -5.392806e-06 -7.5434655e-05
000310 99 e6 a8 b8 a6 67 2b b9 16 16 f2 b7 c1 b0 eb b7
       -8.0538164e-05 -0.00016346443 -2.8858933e-05 -2.809649e-05
000320 16 79 1c 36 c0 56 07 b8 cb 59 6c b6 72 ec 83 37
       2.3316293e-06 -3.22673e-05 -3.5219007e-06 1.572652e-05
000330 b1 73 f9 36 a4 85 c1 37 a0 f0 0f 38 77 04 8e b9
       7.4342465e-06 2.3069624e-05 3.4317956e-05 -0.00027087677
000340 00 33 21 b8 6b cb f6 b8 1f b6 a2 38 dd bc 97 39
       -3.843289e-05 -0.00011768084 7.758685e-05 0.00028941678
000350 1d 14 ef 37 5c 85 bc 38 94 e2 e0 b8 9e ef 7a b9
       2.8500386e-05 8.989379e-05 -0.00010723356 -0.00023931122
000360 fe 47 bf ba da 06 20 ba 2d ac 30 3a 24 06 e5 ba
       -0.0014593599 -0.00061045366 0.00067395234 -0.0017473144
000370 2e 77 3f bb 4e 83 66 ba dd b0 8b 3a 26 15 44 ba
       -0.0029215324 -0.00087933696 0.0010657568 -0.0007479958
000380 d4 02 09 b9 07 b0 97 39 5a 3e 87 bb 32 a9 86 bb
       -0.00013066392 0.00028932115 -0.004127306 -0.004109525
000390 38 02 24 3b 36 9f ae 39 c0 98 b7 ba f4 23 b7 3a
       0.0025025737 0.00033306488 -0.0014007315 0.0013972507
0003a0 68 dd 9c 3b 64 3c 5c bb d3 f9 9e 3a 46 46 e8 3a
       0.004787136 -0.0033605332 0.0012128897 0.0017721138
0003b0 8c 3b d1 39 fe fa 84 b9 52 b1 13 bb 8e 15 59 ba
       0.00039907952 -0.00025364006 -0.002253611 -0.0008281105
0003c0 16 c5 83 b9 95 80 2b ba 68 3d 98 ba dc f1 24 3d
       -0.00025133108 -0.00065422925 -0.001161498 0.040269718
0003d0 a6 eb 67 3d a0 a1 29 3d 38 73 59 bd ca a3 a6 3b
       0.056621216 0.041413903 -0.053088397 0.005085443
0003e0 18 4c 2b 3d 45 c3 2f bd 89 cc d4 3b 36 ff 34 3c
       0.041820616 -0.042910833 0.006494109 0.011047175
0003f0 99 ce a9 bb b0 0c 90 bb 23 f9 a0 ba 6b 2b f0 b9
       -0.005182099 -0.0043960437 -0.001228128 -0.00045808716

bias f4 [128]
000000 3b d0 95 36 6c 5d 05 bb fe 61 84 b7 7c ab 0a bd
       4.4647873e-06 -0.0020349873 -1.5781257e-05 -0.033854946
000010 e8 f0 55 b6 47 1a 07 bb 61 a2 0b bc 5f 35 51 bd
       -3.18797e-06 -0.0020615028 -0.008522601 -0.05107629
000020 ca 4d 86 b7 5a 01 92 bb c6 c5 93 3c a0 d8 84 bb
       -1.6010268e-05 -0.0044557275 0.018038642 -0.004054144
000030 aa 03 a6 3c 82 e1 66 b8 4a a5 c0 bc eb 92 74 37
       0.020265419 -5.5046294e-05 -0.023516316 1.457774e-05
000040 1b 40 f3 3b be 8d 8d 3c 51 00 8c 3c ae da be 36
       0.0074234135 0.017279502 0.017089995 5.687899e-06
000050 78 66 7b 3b f1 d8 a6 39 d0 7b c8 3c 9e 9c 39 3b
       0.0038360637 0.0003182362 0.0244731 0.002832211
000060 b0 93 88 3a fa 19 bc b4 d3 c5 c7 3c b8 b5 1f 3d
       0.0010419991 -3.503663e-07 0.024386322 0.03899166
000070 17 af 91 36 2d 85 71 bc 56 b8 2e 3b f8 86 9d 39
       4.34172e-06 -0.014741224 0.0026660166 0.00030045933
000080 6b a2 03 3d 24 46 e8 bc 19 51 1c 36 4f 6f b0 bb
       0.032137316 -0.028353758 2.3293017e-06 -0.005384363
000090 10 e9 1c 3d 16 e4 92 3b c3 1a fb 39 f1 cb 4b 36
       0.038308203 0.0044827564 0.0004789439 3.0368067e-06
0000a0 89 4b a2 bb 51 02 57 b9 72 7c 05 b9 cb ad 9b bb
       -0.004952852 -0.00020504861 -0.00012730228 -0.0047509423
0000b0 b0 d0 cd 36 8d 55 d7 bb f6 fb 5b b5 0a 16 28 bc
       6.1337705e-06 -0.0065714777 -8.195051e-07 -0.010259161
0000c0 9d 08 16 ba c2 2a 35 bc d6 d4 11 bc 1f 11 2e b9
       -0.00057233294 -0.011057558 -0.008900842 -0.00016600311
0000d0 a1 23 38 ba c9 3a 64 3c eb e6 c9 bc bb e3 86 37
       -0.0007024352 0.013930031 -0.024646243 1.608009e-05
0000e0 8e 9a 8b 3a fe f5 28 bd 1d 3b 07 bd 31 e3 82 bc
       0.0010650919 -0.04125022 -0.03301536 -0.015977474
0000f0 81 5f 47 bc 18 c5 82 3c 46 73 23 bc b9 56 32 3b
       -0.012168766 0.015963122 -0.009976214 0.0027212335
000100 57 a9 e2 3c c7 b6 db bb 3c e9 24 3c 2d 61 38 39
       0.027668638 -0.0067051384 0.010065373 0.00017583808
000110 b9 f9 a6 38 3d d6 2b 3b 7a ba 24 38 ce fc a1 37
       7.962011e-05 0.0026220225 3.9274317e-05 1.9310417e-05
000120 9c 15 03 bd 80 a3 e6 bc fc 1c 4d b6 e6 b4 87 b7
       -0.03200303 -0.028154135 -3.0564252e-06 -1.6177491e-05
000130 e1 81 83 bc 08 6a f9 bb ef 8f 96 3c d0 e5 56 bd
       -0.016053142 -0.007611517 0.01837918 -0.05246526
000140 f3 89 ca 3c 7b e2 a3 ba fe 49 e0 3a 1a 3c dc 3b
       0.024723982 -0.001250341 0.0017111895 0.006721032
000150 58 41 08 b8 a3 51 22 bc 8a 2a 82 3c f4 de e0 3b
       -3.2485783e-05 -0.009907159 0.015889425 0.0068625156
000160 fb 97 91 bc 80 d5 71 bc 23 c8 9a bc fc 39 a9 3c
       -0.017772665 -0.014760375 -0.01889426 0.020657532
000170 19 4c fe 3a bf 89 9d 39 11 62 e6 b7 d1 59 41 3c
       0.0019401341 0.00030048002 -2.7463802e-05 0.011801199
000180 ae ae 9c 3c 2b 13 66 3c 80 1b 0d bc a3 b7 55 bc
       0.019126263 0.014042656 -0.008612514 -0.013044271
000190 ca b3 83 b9 f0 cf f6 35 8c 07 9f 3b ce 8d 1b ba
       -0.0002512022 1.8388946e-06 0.0048531946 -0.00059339113
0001a0 f3 53 11 bc b7 34 94 3a 3d b8 9d 3c 19 fb de 3a
       -0.008870113 0.0011307214 0.01925289 0.0017012089
0001b0 52 6a ef bc e9 24 da 39 aa 2e 49 bc 05 8c 5b 3c
       -0.029225502 0.000416077 -0.012279192 0.0134000825
0001c0 2b de d3 bc e7 4b 4e 39 c9 17 85 b7 57 fd e8 ba
       -0.025862774 0.00019673967 -1.5865911e-05 -0.0017775696
0001d0 31 92 e6 bb 05 64 3d 3c 39 e2 37 bc d0 b1 5d b8
       -0.0070364703 0.011559491 -0.011223369 -5.2856107e-05
0001e0 4b ff e8 bb 32 28 22 3c b6 5c 57 39 de a3 8d b4
       -0.0071105114 0.009897279 0.00020538535 -2.6382526e-07
0001f0 02 f3 3b 3c 16 88 d1 39 dd 69 7b 37 78 cc 37 b7
       0.011471512 0.00039964978 1.4985414e-05 -1.0955257e-05

weight f4 [4, 1, 3, 3]
000000 43 84 cb bc c1 36 ab 3d f1 b5 a2 3d f6 06 f9 ba
       -0.02484334 0.08360053 0.07944859 -0.0018999267
000010 7b f6 92 3d 81 5d 06 be c9 33 dc 3d 48 c4 ba 3d
       0.07175919 -0.13121606 0.10752065 0.09119469
000020 b3 0f b4 3d db 8c 0c 3e b2 b1 be 3b 2d 83 55 bd
       0.08792057 0.13725607 0.005819523 -0.052127052
000030 a6 13 13 bd e4 4b 37 bc 9f ba ab bd 81 ac bf 3d
       -0.03590741 -0.011187527 -0.083852045 0.093590744
000040 c5 5a 1a be 10 82 1e 3e 8d ce c1 3d 0d 69 f1 3d
       -0.15073688 0.15479302 0.094632246 0.11787615
000050 a3 6e b8 bd dc 00 c7 3d c0 4e 86 3d 2f a4 00 be
       -0.09005477 0.09716961 0.06557989 -0.12562631
000060 81 5d c5 3c 83 e3 10 3e 9a ed bb 3d f3 9f cd 3d
       0.024092438 0.14149289 0.09176178 0.100402735
000070 89 ff a3 3d 35 48 bb 3c 63 bc 3d bd 52 12 d1 3d
       0.08007724 0.02286158 -0.046322238 0.102085724
000080 51 d9 a9 bd a9 e8 50 bd f7 5c 8b 3d da 9e e5 3d
       -0.08293403 -0.051003132 0.06804841 0.11211939

bias f4 [4]
000000 f3 b6 14 3e 08 f2 38 be 10 ef 88 3e 69 d2 6c 3e
       0.14522915 -0.18061078 0.2674489 0.2312714
