result/PanNet/WV2exp0/PanNet.pkl (torch, 394897 bytes, 28 tensors)

weight f4 [4, 4, 3, 3]
000000 30 6a 7f 9b fd 83 5e 9b de 61 d9 9b ae a0 69 9b
       -2.1127417e-22 -1.8406057e-22 -3.5962884e-22 -1.9325227e-22
000010 69 11 51 9b b4 28 d8 9b bf a7 5d 9b d8 dd 59 9b
       -1.72937e-22 -3.5760506e-22 -1.8334893e-22 -1.8021501e-22
000020 06 36 dd 9b c4 af 9e a0 98 dd ed a0 e5 67 2c a1
       -3.6596295e-22 -2.6882553e-19 -4.0296e-19 -5.841337e-19
000030 4f 12 8f a0 99 5a a7 a0 d1 25 29 a1 a6 6f a5 a0
       -2.4237258e-19 -2.8350853e-19 -5.7309477e-19 -2.802597e-19
000040 a4 9c dc a0 cd 65 0e a1 12 61 a9 a4 dd 19 19 a4
       -3.7373106e-19 -4.8246204e-19 -7.345651e-17 -3.3198494e-17
000050 ba ef f3 a4 18 fa aa a4 27 7a 0e a4 62 d3 00 a5
       -1.05790564e-16 -7.414942e-17 -3.089481e-17 -1.117385e-16
000060 d7 2b 9c a4 e7 c4 fb a3 ea 85 fe a4 e3 59 75 29
       -6.772848e-17 -2.7296866e-17 -1.103818e-16 5.4478893e-14
000070 b3 e4 7c 29 4c b4 d0 29 72 69 65 29 f2 df 6f 29
       5.6153605e-14 9.268332e-14 5.0939674e-14 5.3262902e-14
000080 f0 f1 db 29 1e e5 4a 29 65 ca 80 29 34 ae e8 29
       9.767523e-14 4.5051738e-14 5.719452e-14 1.0333089e-13
000090 8c ed d2 1a b1 d9 09 1b 20 66 9e 1b 4d 37 24 1b
       8.723774e-23 1.1402714e-22 2.6204904e-22 1.3583631e-22
0000a0 b9 90 33 1b fe a9 6c 1b 3f 80 49 1b f9 38 39 1b
       1.4853295e-22 1.957639e-22 1.6667769e-22 1.532125e-22
0000b0 af 42 68 1b a9 72 f1 1f ac 37 71 20 46 65 db 20
       1.9212137e-22 1.0225716e-19 2.0431914e-19 3.716706e-19
0000c0 b2 50 32 20 e0 7f 5f 20 88 e1 8c 20 51 a7 7c 20
       1.5103886e-19 1.8931145e-19 2.3866167e-19 2.140059e-19
0000d0 ea bc 62 20 61 c3 9b 20 17 16 08 24 97 82 a9 23
       1.9205451e-19 2.6387312e-19 2.950901e-17 1.8378324e-17
0000e0 ef 81 93 24 c5 91 44 24 8c a4 0c 24 e6 26 a5 24
       6.3971204e-17 4.2624197e-17 3.0497037e-17 7.162324e-17
0000f0 af 3d 44 24 50 f7 03 24 4e dc 8d 24 33 9e c8 a8
       4.2552973e-17 2.861558e-17 6.152221e-17 -2.2273068e-14
000100 52 53 23 a9 85 ae 8c a9 e8 0e 24 a9 e2 2f 36 a9
       -3.626554e-14 -6.247523e-14 -3.6428244e-14 -4.045365e-14
000110 e0 1c 66 a9 d1 4b 40 a9 ab e2 57 a9 f4 f3 60 a9
       -5.1095304e-14 -4.2698324e-14 -4.7936193e-14 -4.9949587e-14
000120 91 f7 1e 1b c2 8e 50 1b 7c 1b a6 1b c7 fb 4e 1b
       1.3149447e-22 1.7251484e-22 2.7480158e-22 1.7121274e-22
000130 6f 62 83 1b 06 3e 9e 1b 45 b5 78 1b 94 c5 83 1b
       2.1735743e-22 2.617899e-22 2.057265e-22 2.1799814e-22
000140 c4 32 88 1b 40 be 63 20 ce 9b 70 20 52 60 f8 20
       2.253212e-22 1.9290596e-19 2.0380342e-19 4.2076574e-19
000150 8e 1a 8a 20 f6 4f cb 20 a8 7a 06 21 eb a0 fc 20
       2.3395682e-19 3.4442451e-19 4.55633e-19 4.2796947e-19
000160 18 59 bf 20 84 5b a4 20 78 df 16 24 01 52 2f 24
       3.2415616e-19 2.784324e-19 3.271535e-17 3.8016536e-17
000170 5a 7b 94 24 d5 31 5b 24 cf d1 78 24 f1 c4 a1 24
       6.4393734e-17 4.7530265e-17 5.3954143e-17 7.015625e-17
000180 e7 ac 7d 24 2b a7 91 24 6e 74 96 24 fe 10 06 a9
       5.5007084e-17 6.316692e-17 6.524937e-17 -2.9768715e-14
000190 b9 cb 57 a9 1e 7d a6 a9 e3 47 61 a9 f6 39 80 a9
       -4.791629e-14 -7.393585e-14 -5.0022388e-14 -5.6943965e-14
0001a0 7c f7 8f a9 96 72 77 a9 43 b3 79 a9 e2 b7 7d a9
       -6.3934074e-14 -5.4944405e-14 -5.544459e-14 -5.6336778e-14
0001b0 9b 6d bc 9b 20 36 de 9b ee a0 9b 9b 22 c1 c9 9b
       -3.1172822e-22 -3.6761797e-22 -2.5746597e-22 -3.337747e-22
0001c0 c8 1f 08 9c d5 29 10 9c 93 03 c1 9b 6a c8 08 9c
       -4.50397e-22 -4.769967e-22 -3.1931481e-22 -4.5257654e-22
0001d0 c3 a4 1b 9c d2 ff 22 a1 f9 33 03 a1 e3 d4 0e a1
       -5.149815e-22 -5.522631e-19 -4.445331e-19 -4.8393225e-19
0001e0 4b 3b 43 a1 03 41 48 a1 b8 7b 83 a1 91 80 1b a1
       -6.6147043e-19 -6.784868e-19 -8.909653e-19 -5.26862e-19
0001f0 33 b2 34 a1 6b b9 9b a1 59 a1 df a4 e3 e7 00 a5
       -6.1222217e-19 -1.0552288e-18 -9.698417e-17 -1.1180797e-16
000200 51 36 9d a4 84 fe e0 a4 1c 00 00 a5 b7 09 e0 a4
       -6.817991e-17 -9.757568e-17 -1.1102267e-16 -9.716097e-17
000210 a9 40 e8 a4 47 dc 05 a5 e9 b2 fe a4 b5 4d c5 29
       -1.007235e-16 -1.1610544e-16 -1.10458026e-16 8.7620375e-14
000220 dc 16 d1 29 62 37 97 29 f4 d7 d0 29 d6 63 05 2a
       9.28543e-14 6.7153545e-14 9.2745175e-14 1.184741e-13
000230 6d bb 10 2a 9a b4 bd 29 1d 70 10 2a ff cb 20 2a
       1.2854796e-13 8.4246154e-14 1.2828666e-13 1.428163e-13

bias f4 [4]
000000 3f bd 37 9f 18 bc 8c a4 7f c9 f4 a8 10 6c 40 2d
       -3.8908298e-20 -6.1033965e-17 -2.7176827e-14 1.0937931e-11

weight f4 [4, 4, 3, 3]
000000 a3 8d 38 14 60 03 4a 14 a7 bc 71 95 52 27 82 15
       9.317559e-27 1.0199059e-26 -4.8818383e-26 5.256862e-26
000010 a8 8d 69 14 ef f9 90 94 04 76 e7 94 fb fb ca 94
       1.17914306e-26 -1.4638866e-26 -2.3371588e-26 -2.0496176e-26
000020 8e 5a c3 95 38 f9 1b 9d 9d 6d c9 9c 95 c1 07 9d
       -7.890274e-26 -2.0642922e-21 -1.3329399e-21 -1.796718e-21
000030 ee de 9a 9b 2d 19 fe 1c 99 80 2c 99 3c aa 13 9d
       -2.5621228e-22 1.6814818e-21 -8.918162e-24 -1.9543297e-21
000040 3a 69 b5 9c 98 f5 fe 9c 99 61 b0 1c 8d b1 93 1c
       -1.2004776e-21 -1.6871795e-21 1.1671931e-21 9.77354e-22
000050 c2 06 af 1c 82 1b b9 1b 94 dd 35 19 ef ad c7 1b
       1.1582275e-21 3.062346e-22 9.402228e-24 3.303419e-22
000060 7b 29 9e 1c 5c 84 80 1c 4b 56 9d 1c ce f7 71 96
       1.0466285e-21 8.504544e-22 1.0411695e-21 -1.9546018e-25
000070 68 44 ef 95 1c 1f b3 96 17 b2 c0 16 9a cb 79 16
       -9.663926e-26 -2.8938642e-25 3.1131663e-25 2.0178305e-25
000080 59 35 bd 15 fa 37 fd 96 59 87 bd 96 8b 2f 1d 97
       7.642066e-26 -4.090968e-25 -3.0620013e-25 -5.0789444e-25
000090 57 16 b4 1b b9 1c 1a 1b 88 f1 e8 1a 4d 3a d6 1b
       2.979294e-22 1.2747862e-22 9.6343166e-23 3.5441006e-22
0000a0 25 76 4e 1b 13 a0 40 1b c4 5f 89 1b cf 7e 29 1a
       1.7078095e-22 1.593359e-22 2.2726636e-22 3.5050816e-23
0000b0 44 2d c5 98 ca 6b 0b a2 6e c1 02 a2 db 2d 3e a2
       -5.0969013e-24 -1.8895076e-18 -1.7720686e-18 -2.5774077e-18
0000c0 0f 2d be a0 5d 05 50 a0 22 35 b2 a1 01 be 04 a2
       -3.221707e-19 -1.762006e-19 -1.2075813e-18 -1.7989923e-18
0000d0 fc 43 fc a1 60 1a 38 a2 10 d3 b7 a0 c5 f8 e0 20
       -1.709418e-18 -2.4950613e-18 -3.1141075e-19 3.8111698e-19
0000e0 18 1d f4 21 02 02 fc a1 6e b2 9e a1 9d 31 e1 20
       1.6541784e-18 -1.7076716e-18 -1.0753726e-18 3.8149314e-19
0000f0 9c de 09 a1 e2 73 8c 20 1d 8a ed 21 fa 6f 75 1c
       -4.6712027e-19 2.3793607e-19 1.6096303e-18 8.1208426e-22
000100 d2 c2 19 1c 4d 75 c3 9a e0 4c f5 1c 21 50 ac 1c
       5.0875253e-22 -8.083962e-23 1.6232612e-21 1.1402718e-21
000110 54 88 8b 1c 22 4b 0e 1c 1a 7c fd 1a cb 67 03 9c
       9.233488e-22 4.7080966e-22 1.04838844e-22 -4.3478413e-22
000120 cc c8 59 9d 2a 69 9a 9e b7 c9 a3 9e 2f 3b 4c 1e
       -2.882352e-21 -1.6348879e-20 -1.7341724e-20 1.0811909e-20
000130 75 26 d9 1d c7 99 00 9e 8a 7e be 9e 16 85 24 9f
       5.7479185e-21 -6.808064e-21 -2.0169368e-20 -3.4838437e-20
000140 89 a2 24 9f f9 b2 d5 a6 38 b1 30 a6 83 f7 a7 a6
       -3.4862797e-20 -1.4828355e-15 -6.130244e-16 -1.1655041e-15
000150 e0 65 01 26 85 e6 8d 27 04 e1 52 26 09 8b c6 a6
       4.489393e-16 3.938529e-15 7.316334e-16 -1.3776695e-15
000160 a8 0f 10 a6 b0 0b 9a a6 97 23 37 26 b8 2e 0a 26
       -4.9981254e-16 -1.0689065e-15 6.353911e-16 4.7941684e-16
000170 bd 64 21 26 f8 46 8b 23 8d 6f 7d a5 ed 22 86 a4
       5.599462e-16 1.5100467e-17 -2.1982047e-16 -5.81724e-17
000180 b4 0e 22 26 a8 8a e4 25 77 d8 0b 26 7d 3d 25 a0
       5.6224967e-16 3.9645652e-16 4.8518677e-16 -1.3996388e-19
000190 76 e3 15 a0 97 c6 37 a0 c7 bd cc 1f 93 98 21 20
       -1.2696051e-19 -1.5566411e-19 8.671132e-20 1.3687713e-19
0001a0 df 40 02 1f 70 63 a9 a0 b3 21 9e a0 55 87 b3 a0
       2.758223e-20 -2.8695516e-19 -2.6788541e-19 -3.0413335e-19
0001b0 e7 f2 00 a4 fb ce 57 a3 04 57 a4 22 55 37 44 a4
       -2.7961322e-17 -1.1699003e-17 4.454442e-18 -4.2547593e-17
0001c0 2d e5 b6 a3 c0 cc 1b a3 08 ba a9 a3 e6 9e cf a1
       -1.982954e-17 -8.445924e-18 -1.8401804e-17 -1.4068926e-18
0001d0 b1 70 81 23 b6 e0 b9 2a d0 d0 9c 2a 71 aa c7 2a
       1.4033935e-17 3.3018526e-13 2.785606e-13 3.5467769e-13
0001e0 98 0a ab 29 83 49 f7 a8 f8 3e f6 29 ec f5 af 2a
       7.595763e-14 -2.745439e-14 1.0935518e-13 3.1256887e-13
0001f0 ec d8 8f 2a 37 80 bd 2a 0c 38 47 aa 33 4f 5a aa
       2.5552423e-13 3.366211e-13 -1.7694196e-13 -1.9389767e-13
000200 db f9 a1 aa 00 2f 09 29 4a c1 3b 29 50 cd d9 a9
       -2.8772717e-13 3.0460877e-14 4.1689993e-14 -9.672352e-14
000210 98 07 2f aa 91 47 3f aa e9 10 95 aa ca e9 d0 a3
       -1.5545757e-13 -1.6989037e-13 -2.647945e-13 -2.2650419e-17
000220 0d c7 0e a4 12 41 8b 24 19 2a 57 a5 e4 e1 23 a5
       -3.0959944e-17 6.0391874e-17 -1.866254e-16 -1.4214531e-16
000230 9a ec a5 a4 5e 6a 33 24 78 ed dd 23 c2 76 0a 25
       -7.195816e-17 3.8904534e-17 2.406144e-17 1.2009829e-16

bias f4 [4]
000000 d6 8d be 34 50 59 1c 3d 30 e3 ce bc c6 b4 0e 36
       3.5493457e-07 0.038171113 -0.025254816 2.1264873e-06

weight f4 [32, 5, 3, 3]
000000 ac 06 58 bd 73 3a 39 3d cd 19 64 3b e5 1b 6c 3c
       -0.052740738 0.045221757 0.0034805418 0.014410947
000010 3d 34 61 3e 01 5f 83 3d 37 86 8e 3c 53 4a d6 3d
       0.21992584 0.06414605 0.017397983 0.10463395
000020 30 96 b5 bc 7e 72 b8 33 1c 95 5a 33 5d b9 88 33
       -0.022166342 8.588994e-08 5.0892695e-08 6.366711e-08
000030 c2 8b 12 34 49 b9 e3 33 b4 3f 0a 34 e0 dc 98 33
       1.3648153e-07 1.06042144e-07 1.2875427e-07 7.1182285e-08
000040 31 c3 19 33 39 25 42 33 4d 39 af 3b cf d3 c1 39
       3.5800614e-08 4.5203e-08 0.005347407 0.00036969638
000050 d1 05 52 39 2b 67 13 3c b8 de aa 3b a8 a2 38 3b
       0.00020029327 0.008996765 0.0052145384 0.0028173123
000060 eb f2 6f 3b 93 be be b9 c3 3a b9 ba db 2b 56 bb
       0.0036613296 -0.00036381613 -0.0014131892 -0.0032679948
000070 1a c3 64 ba e5 a8 57 b8 7d 24 d3 bb ee 03 63 bb
       -0.0008726582 -5.141729e-05 -0.0064435587 -0.0034639793
000080 93 15 2c bb 78 66 2d bb d1 22 c3 37 eb 18 e4 39
       -0.0026257976 -0.0026458781 2.3262024e-05 0.00043506114
000090 62 5c 5b 35 4f 75 09 35 ff 47 1c 35 bf b4 a4 35
       8.171829e-07 5.1207184e-07 5.8219297e-07 1.2271556e-06
0000a0 04 3b 81 35 f9 11 98 35 92 3e 3a 35 ea a9 cb 34
       9.628425e-07 1.1330113e-06 6.938145e-07 3.7935325e-07
0000b0 fb fe d2 34 f8 17 a0 3c 3c 79 8e bc f2 ef bb 3a
       3.930107e-07 0.01954268 -0.017391793 0.0014338477
0000c0 26 a0 e6 bb f9 43 94 bd 91 96 de bc e8 f1 5e 3d
       -0.007038134 -0.07239527 -0.027171405 0.05442992
0000d0 3d 37 ad bc f3 31 04 bd 86 b2 56 b0 91 a8 9a 32
       -0.021144504 -0.032274198 -7.8106444e-10 1.8004615e-08
0000e0 f1 ec 8a 32 20 0d 03 b2 78 46 44 32 92 13 29 32
       1.6173063e-08 -7.628188e-09 1.1424724e-08 9.8415445e-09
0000f0 3b de eb af 88 aa 9b 32 e7 d6 88 32 25 6a 80 ba
       -4.2904155e-10 1.8121924e-08 1.593021e-08 -0.0009797259
000100 d9 d7 91 3a 66 6e b3 3a 02 95 f1 ba 2b ca 4c 39
       0.001112695 0.0013689518 -0.0018431249 0.0001953027
000110 61 ae d6 39 17 cd 97 ba d6 79 6b 3a cc 32 91 3a
       0.00040947183 -0.0011581507 0.00089826935 0.0011077761
000120 ce da 27 3a 5e 9c 41 ba e5 26 67 ba f1 bf 9e 3a
       0.0006403149 -0.0007385666 -0.00088177464 0.0012111646
000130 75 ee 09 b9 c0 c5 80 b9 bf fa 46 3a fe 1a 1c ba
       -0.0001315417 -0.00024561398 0.00075904647 -0.000595495
000140 82 4b 3a ba cc 2a 0e b2 42 ed c0 33 bc fb 92 33
       -0.00071065885 -8.275219e-09 8.983854e-08 6.844445e-08
000150 4e b9 4d b3 80 5a 51 33 6a f8 f2 32 41 ce 01 b2
       -4.7898816e-08 4.8743914e-08 2.8285474e-08 -7.555685e-09
000160 f3 cd bf 33 5b 80 8c 33 d8 ec 41 bc 81 4b 04 3c
       8.9315925e-08 6.542606e-08 -0.011836253 0.008074642
000170 b5 71 e3 39 32 2b bc ba a3 8c e0 3c d6 99 01 3c
       0.00043381532 -0.0014356135 0.02741081 0.0079102125
000180 d0 9d 6d bc 80 07 1d bb 1d ae 63 3b 19 16 25 32
       -0.014502957 -0.002396077 0.003474123 9.6092885e-09
000190 68 c3 ff b1 cf a8 33 b2 99 18 48 32 b3 a1 c1 b1
       -7.443692e-09 -1.0457554e-08 1.1647125e-08 -5.6354224e-09
0001a0 d5 9f 19 b2 b1 8c 07 32 fb 86 23 b2 e8 36 52 b2
       -8.942114e-09 7.890024e-09 -9.51854e-09 -1.2236093e-08
0001b0 ba 0f 0f 3a ab 27 50 b8 47 92 c7 b8 58 a4 39 3a
       0.00054573605 -4.9628008e-05 -9.516306e-05 0.0007081679
0001c0 c4 e9 01 39 b3 11 b8 38 2b 19 ff 39 ed 29 ce b8
       0.00012389483 8.7771004e-05 0.00048656142 -9.830655e-05
0001d0 d5 1d 09 b9 e7 1a c8 b9 5d e5 9c 37 24 df 3f 38
       -0.00013076451 -0.00038167016 1.8703455e-05 4.5745765e-05
0001e0 cf 22 01 ba 14 20 d0 b8 46 17 a0 b8 9c 45 b2 b9
       -0.00049261464 -9.924188e-05 -7.6337295e-05 -0.0003400267
0001f0 62 9e 5e 38 c2 47 91 38 15 bb 60 33 19 65 0a b3
       5.307643e-05 6.927505e-05 5.2324214e-08 -3.2222577e-08
000200 35 6c 30 b3 24 56 8a 33 2e 46 b7 b2 87 c6 08 b3
       -4.1076607e-08 6.441795e-08 -2.1335918e-08 -3.1845527e-08
000210 6a 03 3c 33 21 ee 36 b3 f3 de 57 b3 42 e8 74 3c
       4.3775266e-08 -4.2591754e-08 -5.026136e-08 0.014947953
000220 ef 7a 48 bb 68 f3 10 bd 96 08 96 3c 95 5f 18 3d
       -0.0030590852 -0.03538838 0.018314641 0.03720053
000230 90 b0 88 bc 42 27 82 bd 28 16 9c 3d 04 0e b2 3d
       -0.016685754 -0.06355144 0.076214135 0.086940795
000240 22 87 a1 32 08 fe 8d 31 e1 b8 89 31 d6 73 d9 32
       1.8804318e-08 4.13252e-09 4.008243e-09 2.5314801e-08
000250 21 a1 3e 32 f2 3a 3c 32 23 8f b6 32 eb d4 f3 31
       1.1096092e-08 1.0956443e-08 2.125268e-08 7.0964368e-09
000260 59 32 f3 31 fe d3 cd 3a 75 7d 5f b9 48 e3 eb b9
       7.0779547e-09 0.0015703437 -0.00021313674 -0.0004499203
000270 4e 16 25 3b ca 8b 4c 3a ad 24 10 3a a1 cc 0d 3b
       0.0025190297 0.00078028126 0.0005498629 0.002163686
000280 8e cf d9 39 e5 fc 45 39 9b 66 91 ba 67 40 b9 38
       0.00041544106 0.00018881595 -0.0011093201 8.833483e-05
000290 67 e4 7a 39 89 a2 e3 ba 17 89 15 ba 85 da df b9
       0.00023926944 -0.0017367165 -0.0005704327 -0.00042696684
0002a0 fd 0d c4 ba de 75 a9 b9 6f 66 3d b9 96 ff e4 33
       -0.0014957782 -0.0003232201 -0.00018062604 1.0663568e-07
0002b0 f5 45 ff 32 b0 af 17 33 c9 f9 1d 34 6a 42 9c 33
       2.971772e-08 3.5317214e-08 1.4712636e-07 7.276397e-08
0002c0 50 55 a8 33 3a e2 05 34 06 2a 59 33 86 e4 73 33
       7.838628e-08 1.2468891e-07 5.056247e-08 5.6785687e-08
0002d0 90 a9 74 bd 24 6f 42 bc e4 76 8f 3c da 24 99 3b
       -0.05973202 -0.011867318 0.017512746 0.0046735825
0002e0 03 21 99 3d ac df c3 3c df f1 f3 3d 91 2b b8 3d
       0.074769996 0.023910366 0.119113676 0.08992685
0002f0 e6 13 58 bd b1 53 b1 32 0d 7d 98 32 99 0d a0 32
       -0.05275335 2.064357e-08 1.7751995e-08 1.8632635e-08
000300 1d 24 1d 33 d8 d1 11 33 cd aa 12 33 9a 55 e3 32
       3.6587256e-08 3.3951295e-08 3.4148616e-08 2.6465205e-08
000310 e5 03 cd 32 7a f2 d0 32 2d 8b 94 3a 79 dc d4 39
       2.3866912e-08 2.4324653e-08 0.0011332982 0.00040600056
000320 42 b5 d2 39 71 f9 55 3b 51 90 19 3b 4e 72 1f 3b
       0.0004018937 0.00326499 0.0023431967 0.0024329606
000330 db bd f8 3a 19 d0 c1 3a ed aa 92 3a 36 fe 2c ba
       0.001897748 0.0014786749 0.0011189856 -0.00065991597
000340 d3 be 80 b9 46 dd 61 b9 4d e8 09 bb 6d cb de ba
       -0.00024556238 -0.00021540103 -0.0021043003 -0.0016997881
000350 2c 4d cf ba b9 55 a7 ba e7 ef 78 ba 89 59 5b ba
       -0.0015815846 -0.0012766636 -0.00094961975 -0.0008367529
000360 67 b0 19 34 83 92 fe 33 de 0d 01 34 21 e2 83 34
       1.431341e-07 1.1854447e-07 1.2019106e-07 2.4565182e-07
000370 c1 90 6e 34 41 8e 6b 34 e0 96 46 34 06 7c 2d 34
       2.2218138e-07 2.1937832e-07 1.8495075e-07 1.6157e-07
000380 e0 76 2c 34 d3 65 c4 3c 99 62 3e bd b4 cb 74 3c
       1.6061995e-07 0.023974335 -0.04648075 0.014941145
000390 89 ed 9b bc 30 3c d0 bd f7 26 4b bc 9c 66 a5 3b
       -0.019034164 -0.1016773 -0.012399427 0.0050476324
0003a0 9c dd a5 bc a0 84 3d bc 42 14 d0 31 c0 00 86 32
       -0.020247273 -0.011567265 6.0559e-09 1.5599994e-08
0003b0 f9 8e 54 32 38 f2 ae b1 93 c5 87 31 92 ce 62 30
       1.2372532e-08 -5.0916036e-09 3.9514787e-09 8.2511875e-10
0003c0 34 0d c6 31 b1 02 80 32 90 63 43 32 07 2c 89 3a
       5.7640595e-09 1.4902385e-08 1.1373132e-08 0.0010465392
0003d0 56 60 1a 3b 54 a8 3b 3b a8 31 31 ba ca eb 17 3a
       0.0023555956 0.0028634267 -0.00067594135 0.0005795328
0003e0 6b 6d 8e 3a 23 76 54 3a 82 e9 07 3b d5 21 26 3b
       0.0010866349 0.0008104762 0.0020738547 0.0025349755
0003f0 bb b5 1a ba fd 3c c3 ba 66 fb e8 ba 5d 7d 10 3a
       -0.0005901714 -0.0014895495 -0.0017775118 0.00055118446

bias f4 [32]
000000 c2 55 a7 3c 7b 3b 73 3c c9 fa 43 3b 3c a7 47 3c
       0.020426635 0.014845724 0.0029904118 0.012185868
000010 3b c4 a9 3c 7c 24 8a 3c 29 6e 2e 3c 94 70 01 3d
       0.020723453 0.0168631 0.010646381 0.031601503
000020 b3 8c 6c 3c 72 36 2a 3c d1 78 c3 3d cd bb a8 3d
       0.014437842 0.010388957 0.09544528 0.08238945
000030 68 7b 00 3c 6b 6f 6a 3d 79 6a 21 3d e5 ae ca 3c
       0.007841922 0.057235163 0.03940818 0.0247416
000040 84 0a ea a4 d0 c1 76 ad 6b bd 24 3c cd 7e 6b 3c
       -1.0149914e-16 -1.4026516e-11 0.010054926 0.014373493
000050 f8 c5 92 3d 4d fe 09 3d 66 c5 b9 3d da 76 67 3c
       0.07166666 0.033689786 0.09070854 0.0141274575
000060 52 3a 5a b8 8d 06 88 3d a6 d7 1c 3d 04 60 40 3c
       -5.2029565e-05 0.066418745 0.038291596 0.011741642
000070 2e 45 59 3d 41 6d 2a 3d 78 88 66 3c bd fe ef 3b
       0.05304449 0.0416081 0.014070623 0.0073240683

weight f4 [32, 32, 3, 3]
000000 c8 60 02 1e 91 ec df 9d 8f 67 d4 1d 96 74 30 1c
       6.9021566e-21 -5.9272212e-21 5.622301e-21 5.83842e-22
000010 99 b3 6f 9d 7a 22 be 1d 3f 97 d6 1d fd 12 c2 9d
       -3.1724236e-21 5.032823e-21 5.6801713e-21 -5.1371006e-21
000020 6a 2b e2 1d ca bc 13 9d f4 90 24 9e 36 e2 07 1e
       5.986659e-21 -1.955289e-21 -8.712063e-21 7.19362e-21
000030 af bc 84 9c bb 8d 2a 9e 6e ea 09 1e 96 6a 0e 9c
       -8.783801e-22 -9.029034e-21 7.3011985e-21 -4.712162e-22
000040 28 89 1d 9e fa 74 06 1e 78 44 25 1d 7a 60 7c 9c
       -8.339874e-21 7.118091e-21 2.1872966e-21 -8.35045e-22
000050 8a 21 04 9d 7a c7 a0 9b 62 45 e1 1b 94 7b b4 9c
       -1.7487394e-21 -2.6598688e-22 3.7267965e-22 -1.1943345e-21
000060 22 66 11 9c e4 e1 cc 1b 2e de c7 9c d9 e9 1c 1e
       -4.810848e-22 3.3894947e-22 -1.3226147e-21 8.30693e-21
000070 f5 82 38 9d 68 77 8c 1d ed 09 0e 1e e3 49 08 9d
       -2.44199e-21 3.7181155e-21 7.51947e-21 -1.8037649e-21
000080 65 e9 7e 1d 5f 97 b0 1d c6 d8 9e 1c 0a e6 31 1d
       3.3737282e-21 4.6743326e-21 1.0511598e-21 2.3544682e-21
000090 1d a3 c7 1d bd 2b 27 1e a1 cb 77 9d 9b 42 df 1d
       5.2843517e-21 8.849951e-21 -3.2795451e-21 5.9096477e-21
0000a0 7d 67 ff 1d 51 0d 71 9d a5 5b 91 1d 0e cd 1a 1e
       6.7604942e-21 -3.1902969e-21 3.847594e-21 8.1950964e-21
0000b0 4d a8 a7 9b f4 d3 f0 1d fe d0 a2 1d 5f e7 af 9d
       -2.7736594e-22 6.3746625e-21 4.3097136e-21 -4.6561346e-21
0000c0 f0 06 f9 1d 0e f9 d4 1d 5d 47 d9 9d ea f5 fb 1d
       6.5916924e-21 5.637345e-21 -5.751321e-21 6.6693416e-21
0000d0 79 b6 ee 1d 4b 92 ea 9d d3 9e 00 1b 44 b4 eb 9d
       6.3186748e-21 -6.2090548e-21 1.0639231e-22 -6.2390372e-21
0000e0 93 9d e8 9c 8b bd 89 9b 1c 7f da 9d e8 54 90 9a
       -1.5393204e-21 -2.2787238e-22 -5.7835548e-21 -5.969418e-23
0000f0 f8 a4 bc 1c 69 65 c0 9d 9c 15 57 9c 27 7c 99 9e
       1.248344e-21 -5.0926832e-21 -7.116546e-22 -1.6250853e-20
000100 9a 9c ac 9e 6f 72 c5 1d 68 e8 a5 9e 7e 34 a3 9e
       -1.8275977e-20 5.2263787e-21 -1.7566176e-20 -1.7280007e-20
000110 a3 0a fa 1d 94 b2 95 9e 98 dd b3 9e 43 a2 01 1e
       6.6185447e-21 -1.5849847e-20 -1.9044011e-20 6.862758e-21
000120 be dd 51 9e 47 5b 34 1d 1c 67 9a 9d 01 4b 27 9e
       -1.1110223e-20 2.386999e-21 -4.0870073e-21 -8.856417e-21
000130 1e da dc 1d c2 bb 98 9d a3 04 2c 9e 40 b9 d8 1d
       5.8459043e-21 -4.0428202e-21 -9.106563e-21 5.7366268e-21
000140 fe 5c 8b 9d de 02 89 a6 56 a3 4a 28 fe 37 9c a8
       -3.6889145e-21 -9.507062e-16 1.124867e-14 -1.7343762e-14
000150 f9 e2 c3 a6 d4 25 86 28 16 62 8c a8 e7 f6 10 a6
       -1.3592364e-15 1.4893394e-14 -1.558566e-14 -5.029465e-16
000160 64 9d 9b 28 e9 30 6b a8 5d d2 7d ac f3 63 1a ad
       1.7276714e-14 -1.3055726e-14 -3.6070238e-12 -8.77608e-12
000170 99 12 f3 ac 93 6d 71 ac 4b c2 13 ad 3d 6d d0 ac
       -6.90854e-12 -3.4308986e-12 -8.399124e-12 -5.9238434e-12
000180 18 1e 72 ac 0d dc 0f ad 0d 85 4d ad f4 6b 5d af
       -3.4406974e-12 -8.17747e-12 -1.1682444e-11 -2.0138186e-10
000190 11 17 1b b0 8c c9 1a 2f a3 4f 2d af 88 24 02 b0
       -5.642145e-10 1.4077822e-10 -1.5762551e-10 -4.734564e-10
0001a0 91 12 8d 2f 1f cd 63 af ef 3f 15 b0 e4 08 09 2f
       2.5660943e-10 -2.0718403e-10 -5.429674e-10 1.2463236e-10
0001b0 73 99 8a 1d 74 e9 27 9d 96 12 0d 1d 50 37 b2 1d
       3.668696e-21 -2.2222958e-21 1.8670803e-21 4.71734e-21
0001c0 5c 08 63 9d cf 86 23 1d 6f 77 c7 1d 93 55 4f 9d
       -3.0047522e-21 2.1642565e-21 5.2798353e-21 -2.7440463e-21
0001d0 63 4e 13 1d 42 52 8a 22 d5 01 f7 22 84 ae 70 24
       1.9495813e-21 3.749207e-18 6.6951424e-18 5.2189525e-17
0001e0 56 6e 92 22 80 54 99 22 04 1f 51 25 62 a0 a2 22
       3.96902e-18 4.15602e-18 1.8138369e-16 4.408e-18
0001f0 48 02 b8 22 ac d5 5b a4 95 ea 12 9f cf bc 12 9d
       4.9875715e-18 -4.7669042e-17 -3.1110744e-20 -1.942055e-21
000200 4f 9d bc 9d aa c9 ea 9e 86 85 f6 1d a1 48 ed 9d
       -4.992584e-21 -2.485912e-20 6.5253718e-21 -6.2808474e-21
000210 50 bf fd 9e ea bc 1c 1e bd c3 f9 9d 1a 60 ce 1d
       -2.6866542e-20 8.297638e-21 -6.611214e-21 5.4627113e-21
000220 40 9f a8 1d 3a e7 7a 9d 6b 55 23 1e 2a 88 a0 1c
       4.463389e-21 -3.3206766e-21 8.646812e-21 1.0623109e-21
000230 b8 9e fa 9c 73 d0 31 1e 8e 0b 77 1c 93 0a 15 9d
       -1.658464e-21 9.413408e-21 8.174038e-22 -1.9725453e-21
000240 91 d9 3d 85 2b 34 bf 05 08 d2 50 86 27 e8 44 05
       -8.926698e-36 1.7980717e-35 -3.927476e-35 9.2585154e-36
000250 20 ef 74 05 31 7b 14 05 4f 70 b8 84 4d c3 b9 05
       1.1516745e-35 6.981553e-36 -4.336133e-36 1.7469059e-35
000260 09 59 8b 84 ee 46 08 80 70 32 0a 80 73 c5 0c 00
       -3.276051e-36 -7.60129e-40 -9.36449e-40 1.172857e-39
000270 a8 c1 0a 80 11 89 00 80 73 88 0a 80 d2 25 0c 80
       -9.87826e-40 -4.917e-41 -9.67304e-40 -1.115593e-39
000280 c3 d4 05 00 8b df 0b 00 8f cc 4a 1d e3 f2 92 9d
       5.35502e-40 1.090383e-39 2.6840232e-21 -3.8897017e-21
000290 e9 af 9b 1b d1 64 fd 1c 8d f6 6c 9d 6b 43 17 1c
       2.5756278e-22 1.6768196e-21 -3.1361804e-21 5.0048845e-22
0002a0 b9 8f 87 1d 19 64 90 9d ff 93 3e 1d 67 63 c6 1e
       3.588281e-21 -3.821998e-21 2.5222803e-21 2.1005177e-20
0002b0 9f 89 ed 9c 1c c7 dc 9d 35 d1 bc 1c 3f 36 91 9a
       -1.5718919e-21 -5.843939e-21 1.2494875e-21 -6.0058234e-23
0002c0 42 bb 18 9e 3b ab b1 1e 9a 9a 71 9c 05 ed 0b 9e
       -8.085537e-21 1.8811423e-20 -7.994003e-22 -7.407613e-21
0002d0 57 18 cd 2a db d2 4c ac bd a7 82 ad 9f 0f 03 2b
       3.6432204e-13 -2.9107192e-12 -1.485378e-11 4.656223e-13
0002e0 e3 b2 52 ac 68 14 80 ad 24 92 10 2b 2a 2b 40 ac
       -2.9942097e-12 -1.4560977e-11 5.136189e-13 -2.7308802e-12
0002f0 41 ce 75 ad fc b7 8a 22 f5 0e 24 a3 b0 61 81 a5
       -1.3972435e-11 3.7599776e-18 -8.893625e-18 -2.2444128e-16
000300 1e 4a 8d 22 c5 e6 9b a2 4c 7c a2 a5 bc 1f a1 22
       3.82966e-18 -4.225717e-18 -2.8186747e-16 4.3672738e-18
000310 c2 68 07 a2 33 3b ce a5 9f 27 3b 2e e0 e6 4a ae
       -1.835137e-18 -3.5775419e-16 4.2554068e-11 -4.613454e-11
000320 02 cb cc af d0 5f 3d 2e 60 2b 6a ae 22 5a d2 af
       -3.725163e-10 4.3058723e-11 -5.3243965e-11 -3.826282e-10
000330 f2 70 75 2e 04 35 4a ae d6 30 cc af d7 81 54 9e
       5.5806866e-11 -4.597657e-11 -3.7142084e-10 -1.1250037e-20
000340 0d 24 63 9d 9f 28 99 9d 2a 14 ce 9d 22 7a 04 1d
       -3.0061838e-21 -4.0540764e-21 -5.4548595e-21 1.7533196e-21
000350 8f 86 04 1c 4e 0e ab 9d 83 55 1e 1d c5 d4 1c 1d
       4.384905e-22 -4.5278114e-21 2.0955334e-21 2.0756427e-21
000360 4c 9b 03 80 2f 83 09 00 ac 77 01 00 c0 ad 07 00
       -3.31217e-40 8.73579e-40 1.34766e-40 7.05178e-40
000370 60 09 03 80 8e f4 07 80 cb e4 0c 80 cc 6a 0d 00
       -2.7887e-40 -7.30578e-40 -1.184101e-39 1.232173e-39
000380 c7 36 0d 80 81 ea 7d 1e 35 27 9c 9e c4 a7 2e 20
       -1.213512e-39 1.3442203e-20 -1.6533358e-20 1.4793882e-19
000390 55 74 93 1e df 07 70 9e 52 a3 15 20 ca 64 84 1e
       1.5612344e-20 -1.2707122e-20 1.2674829e-19 1.4017729e-20
0003a0 a9 e4 b6 9e de ae 35 20 c9 56 61 ac 7f 18 27 ad
       -1.9364571e-20 1.5389155e-19 -3.2022599e-12 -9.49829e-12
0003b0 ad c6 16 2c b3 f0 5f ac 7f d5 05 ad de c8 c2 2c
       2.142657e-12 -3.182382e-12 -7.60758e-12 5.5361124e-12
0003c0 4e e8 94 ac 37 20 18 ad 6e 06 9c ab ed 2e f3 9d
       -4.232204e-12 -8.647353e-12 -1.1086251e-12 -6.4370085e-21
0003d0 08 3f 09 1d 90 26 e8 9c db 64 d4 9c 65 fc 09 9d
       1.8164385e-21 -1.536244e-21 -1.4055054e-21 -1.8262284e-21
0003e0 7a 08 eb 1b 8d e0 60 1b b7 a6 2c 9d 81 f5 0c 1c
       3.8882967e-22 1.8601402e-22 -2.28502e-21 4.663942e-22
0003f0 df 84 93 21 81 1f f8 a5 8c ae 4f a8 a3 57 e7 20
       9.996278e-19 -4.304249e-16 -1.1528657e-14 3.9190915e-19

bias f4 [32]
000000 46 70 08 b5 b5 6d 0d b8 e8 80 a0 3c ad bd 33 b5
       -5.082733e-07 -3.3719192e-05 0.019592717 -6.695871e-07
000010 75 53 40 3b 5b bb a4 af b0 fd 34 3b 07 71 9e b7
       0.002934662 -2.996455e-10 0.002761703 -1.88877e-05
000020 52 01 40 3b 19 1f 11 80 22 58 93 3b 71 af d7 30
       0.0029297662 -1.572359e-39 0.0044965902 1.5693172e-09
000030 54 b3 2e 30 f8 94 b5 3a ea 75 71 a1 da d1 49 3b
       6.355567e-10 0.00138536 -8.1810034e-19 0.0030795247
000040 fb 27 9e b5 8c 0d 67 b1 59 d1 85 ab 3f a4 02 80
       -1.1783553e-06 -3.3622625e-09 -9.508324e-13 -2.42591e-40
000050 0f 46 a2 3a 2b 8e 8c a4 f1 ec 68 aa 28 64 fa 38
       0.0012380498 -6.0956164e-17 -2.0687945e-13 0.000119395845
000060 ef 49 0d 00 b3 7d 0f 80 1e aa 8e b1 99 b2 36 b5
       1.220384e-39 -1.422625e-39 -4.152084e-09 -6.806018e-07
000070 6b 1e 1a 90 d9 63 cf 3b 84 77 55 37 b6 a5 88 b4
       -3.0394578e-29 0.0063290414 1.2723616e-05 -2.5452545e-07

weight f4 [32, 32, 3, 3]
000000 39 92 26 a3 68 1c 4d a2 bd fc e8 a4 f9 c9 c3 a2
       -9.029842e-18 -2.7797719e-18 -1.0104212e-16 -5.3068703e-18
000010 2a 4a de a2 1e c8 07 a5 7d 58 d2 23 d0 c5 a5 a2
       -6.0251745e-18 -1.1777186e-16 2.2805722e-17 -4.493278e-18
000020 6d 4c b0 a5 3d 3c 78 32 48 47 5b 31 18 8c 48 b3
       -3.058292e-16 1.44491965e-08 3.1909213e-09 -4.6693543e-08
000030 43 29 ab 32 67 06 de 31 1d 96 1d b3 0f af ae 32
       1.9925784e-08 6.4617782e-09 -3.669094e-08 2.0335873e-08
000040 fd f2 65 2f 6f d3 3f b3 a9 23 85 ba 33 cc bd bc
       2.0913755e-10 -4.466295e-08 -0.0010157722 -0.023168659
000050 61 d6 3d bc d2 e6 cc 37 5d 52 c6 bc 70 dd 24 bc
       -0.011586756 2.442618e-05 -0.024209196 -0.01006256
000060 6f f0 13 bb 9e 84 d1 bc f9 26 3a bc c9 ce 87 19
       -0.002257373 -0.025575932 -0.011361831 1.4042193e-23
000070 ae aa f8 19 52 4a 0e 9a b3 f7 0d 1a 83 c9 60 1a
       2.5711536e-23 -2.9424947e-23 2.9358206e-23 4.6484894e-23
000080 e2 9a 50 9a 94 a4 0a 1a 80 c7 e0 19 45 ab 65 9a
       -4.3138505e-23 2.8670676e-23 2.3241635e-23 -4.749444e-23
000090 8f 40 1e 3a ed d1 26 3a a0 65 79 ba 6a fe 7e 3a
       0.00060368417 0.0006363679 -0.00095137395 0.00097272417
0000a0 d0 3c 87 3a ef d2 42 ba 1c 8c 77 3a 67 92 19 3a
       0.0010317806 -0.0007431944 0.000944318 0.00058583025
0000b0 11 13 91 ba 6a e0 00 80 9c 4b 05 00 ce 2b 00 00
       -0.0011068304 -8.0505e-41 4.86301e-40 1.5714e-41
0000c0 ca ac 09 80 9f 22 05 00 23 29 0b 00 f4 e6 08 00
       -8.88505e-40 4.71597e-40 1.024948e-39 8.17534e-40
0000d0 19 b3 02 00 81 2b 09 00 9c e4 07 3c 04 cc 21 3d
       2.47919e-40 8.42126e-40 0.008294251 0.039501205
0000e0 67 ad 52 3c 05 84 13 3c bb 72 33 3d 2c 7e 3e 3c
       0.012858725 0.009003644 0.043810587 0.011626761
0000f0 db 60 1f 3c 74 d2 25 3d 6a 89 13 3c d0 3b 06 80
       0.009727682 0.040483907 0.00900493 -5.7247e-40
000100 d4 c9 04 80 d6 fb 06 80 6d bb 06 80 ba bd 01 80
       -4.39744e-40 -6.41355e-40 -6.18249e-40 -1.59897e-40
000110 b3 64 05 00 90 0b 07 80 87 b3 00 80 1f 60 02 80
       4.95302e-40 -6.46996e-40 -6.4402e-41 -2.18153e-40
000120 ad fb 41 bc 71 3e 0b 3d 3e 9f 2a 3d 3e 23 5f bc
       -0.011839789 0.033995096 0.04165577 -0.013619242
000130 24 f6 17 3d 63 62 24 3d 32 2e 93 bc 57 7d 15 3d
       0.037099972 0.04013289 -0.017966364 0.036496487
000140 e4 ea 1d 3d f7 bb 08 00 b3 87 05 00 0b 5c 05 00
       0.038554087 8.02113e-40 5.07857e-40 4.92196e-40
000150 4f 0f 05 00 82 7f 0a 80 0e 2c 07 00 8f 05 01 80
       4.64669e-40 -9.64096e-40 6.58652e-40 -9.383e-41
000160 d0 9b 02 80 a3 63 07 80 37 e8 98 3b 6f 36 a3 3c
       -2.39566e-40 -6.78591e-40 0.004666354 0.019923417
000170 a7 a1 e0 3a a1 54 aa 3b 75 a6 b7 3c ef cb 31 3a
       0.001713802 0.005198077 0.02241824 0.00067824026
000180 58 bf cb 3b fd 0e a5 3c 42 5a 45 ba ae b0 fa ae
       0.0062178783 0.020148749 -0.0007528403 -1.14000684e-10
000190 14 88 42 ae 12 14 fa ad 86 bd c7 ad 07 f3 89 2e
       -4.4231355e-11 -2.8430622e-11 -2.2707846e-11 6.273209e-11
0001a0 ec 3c 82 2e 2c 1c 02 af 11 18 3e ae 05 3f 54 ae
       5.9225375e-11 -1.183344e-10 -4.3222374e-11 -4.8259192e-11
0001b0 13 4b f3 2d d8 1b d8 2d 39 b3 d5 2d 9b a4 0d 2e
       2.7659241e-11 2.4568722e-11 2.4294887e-11 3.2205887e-11
0001c0 5b a2 fe 2d 2f 6a fa 2d f3 d8 d5 2d 63 fc b5 2d
       2.8948557e-11 2.8468864e-11 2.4311641e-11 2.06894e-11
0001d0 4e 52 b9 2d 49 67 27 ba 96 3f 18 ba e9 9c 2b 3a
       2.1068616e-11 -0.0006385935 -0.0005807815 0.0006546514
0001e0 ce 56 06 ba 5f 08 e5 b9 7f 4c 5a 3a 7a d2 51 ba
       -0.0005124629 -0.0004368452 0.0008327439 -0.0008004081
0001f0 ca 8e 10 ba 34 72 32 3a 0b 37 07 a3 9d 78 de a2
       -0.0005514441 0.0006807179 -7.3300205e-18 -6.0300925e-18
000200 1d 40 b1 22 9e 3e 10 a3 9c ce fb a2 4c ab 85 22
       4.804383e-18 -7.819515e-18 -6.8252443e-18 3.623109e-18
000210 55 50 14 a3 08 bd 01 a3 cd ab 5e 22 40 5f 60 ba
       -8.040107e-18 -7.033133e-18 3.017756e-18 -0.0008559115
000220 50 ac 53 ba a8 33 59 3a 1e 86 22 ba 28 a1 0c ba
       -0.0008074688 0.00082855904 -0.00061997946 -0.00053645903
000230 6c 86 97 3a 26 f8 89 ba 26 a7 46 ba 02 21 63 3a
       0.0011560447 -0.0010526225 -0.00075780076 0.00086642813
000240 36 aa f0 00 08 e4 d2 82 39 7c fd 02 57 7f 32 80
       2.2101579e-38 -3.098761e-37 3.724631e-37 -4.637456e-39
000250 7e ea a3 83 17 b3 98 03 9e 01 14 80 ea 1e 0b 83
       -9.634116e-37 8.974874e-37 -1.83729e-39 -4.0883916e-37
000260 84 e3 55 03 39 d1 28 ae e2 30 2e ae d1 68 05 ae
       6.285625e-37 -3.8384605e-11 -3.9606436e-11 -3.0333795e-11
000270 3f be 2b ae 46 bd 37 ae ed c9 09 ae ad c5 3b ae
       -3.904987e-11 -4.177749e-11 -3.132954e-11 -4.269445e-11
000280 8e 62 48 ae 88 1e 1d ae d5 39 08 80 ca 8c 03 00
       -4.556227e-11 -3.5724784e-11 -7.5543e-40 3.26012e-40
000290 e8 8c 06 80 5b 7d 07 80 05 e6 01 00 a4 e4 09 00
       -6.0156e-40 -6.87818e-40 1.74351e-40 9.0854e-40
0002a0 17 95 01 80 f5 f8 01 80 f9 87 08 00 cf 8b 0b 00
       -1.45319e-40 -1.81144e-40 7.83462e-40 1.060344e-39
0002b0 2e 74 0c 80 ad 7e 09 00 fc c3 09 00 f1 b0 08 80
       -1.143703e-39 8.71962e-40 8.96825e-40 -7.98159e-40
0002c0 07 67 09 80 20 49 09 00 3a f5 0c 80 5e 49 08 80
       -8.63479e-40 8.52752e-40 -1.189997e-39 -7.61003e-40
0002d0 60 fc 48 ba ec d5 13 ba 4c e3 58 3a 87 ae 2b ba
       -0.00076670013 -0.0005639482 0.0008273616 -0.0006549139
0002e0 60 29 cc b9 84 28 85 3a fa 71 7f ba a9 df 04 ba
       -0.0003894074 0.0010159169 -0.0009744462 -0.00050687284
0002f0 b7 66 5d 3a f2 f6 02 00 b0 15 02 80 70 36 03 00
       0.00084457867 2.72258e-40 -1.91451e-40 2.95035e-40
000300 f9 a8 01 00 6b 19 02 80 11 e4 01 00 bd f4 01 00
       1.52451e-40 -1.92789e-40 1.7365e-40 1.79631e-40
000310 c1 0a 01 80 07 03 01 00 9d f1 08 00 b4 7c 03 00
       -9.5693e-41 9.2922e-41 8.21358e-40 3.20242e-40
000320 70 b8 08 80 51 4b 08 00 c5 d9 02 80 c5 7b 02 80
       -8.00848e-40 7.61702e-40 -2.61792e-40 -2.28071e-40
000330 c0 64 02 80 82 f9 00 00 ba b9 05 80 94 5c da b7
       -2.19813e-40 8.9507e-41 -5.25804e-40 -2.6030735e-05
000340 50 dc 80 b7 b8 18 ab 37 4e 4f 8f b7 28 ee 41 b6
       -1.536138e-05 2.0396299e-05 -1.7083858e-05 -2.8897866e-06
000350 84 7b 01 38 d6 9e fd b7 1d d7 5b b7 e8 6d a4 37
       3.087103e-05 -3.0233914e-05 -1.3103502e-05 1.9601503e-05
000360 74 92 07 00 a7 f6 03 00 71 19 05 00 58 7d 03 80
       6.95386e-40 3.63989e-40 4.68304e-40 -3.20471e-40
000370 9f f8 08 80 92 7f 09 00 94 f6 0a 80 fc e9 04 80
       -8.23872e-40 8.72283e-40 -1.00681e-39 -4.5128e-40
000380 07 6a 03 80 8f e9 00 00 64 df 07 80 be 8f 02 80
       -3.13542e-40 8.3785e-41 -7.22986e-40 -2.35236e-40
000390 b0 9e 04 00 e5 05 01 00 16 02 09 00 4e 0b 07 80
       4.24268e-40 9.395e-41 8.27268e-40 -6.46904e-40
0003a0 76 be 02 00 71 05 06 00 56 c6 06 80 47 55 05 80
       2.51996e-40 5.52965e-40 -6.22163e-40 -4.89769e-40
0003b0 7a 8a 03 80 9b 7c 02 00 3d 19 02 80 2e 8e 00 80
       -3.25183e-40 2.28371e-40 -1.92725e-40 -5.1004e-41
0003c0 ec 7e 03 00 8e b9 07 80 f2 2d 04 80 b9 33 4e 34
       3.21037e-40 -7.09413e-40 -3.83824e-40 1.9204062e-07
0003d0 5f 16 36 34 dc 18 08 34 ce 58 5b 34 eb 8f 40 34
       1.695821e-07 1.2675031e-07 2.0428271e-07 1.793375e-07
0003e0 3c 0e 12 34 cf 60 5b 34 54 89 3e 34 cc b0 10 34
       1.3602488e-07 2.0431183e-07 1.7745089e-07 1.3475363e-07
0003f0 78 71 e6 8b 24 7e 1c 8d 91 ab ee 8c 3b ee 11 8c
       -8.8763506e-32 -4.822305e-31 -3.6772964e-31 -1.1242084e-31

bias f4 [32]
000000 2d 95 e7 bc 25 a8 f3 ba a5 2c 46 bb 1b cb 2f bc
       -0.028269375 -0.001858954 -0.0030239013 -0.010729576
000010 79 00 2c 3a 3f 31 11 bc ac c2 67 39 6d b2 d6 ba
       0.000656135 -0.008861839 0.00022102398 -0.0016380079
000020 47 19 50 bc d9 f9 94 bb 1c 43 8a bc 0d d3 15 bd
       -0.012701339 -0.0045463857 -0.016877703 -0.036578227
000030 7f 34 dc 3b 5d d7 bf bb 42 1f 22 bd ff cc 5d 3c
       0.006720125 -0.0058545307 -0.03958059 0.013537644
000040 4f c9 10 38 4d 9d 3c bb db 9a 25 bc 2c 0a f6 bb
       3.451976e-05 -0.0028780282 -0.010107721 -0.007508537
000050 17 c2 1f bc a5 f1 94 ba 0b 2a 0c 3d a8 f5 9f bb
       -0.0097508645 -0.001136352 0.034219783 -0.0048815794
000060 e6 96 a3 bc f3 fc 68 3c 32 56 98 bc a0 69 2a bb
       -0.019969415 0.014220464 -0.018595789 -0.0026002899
000070 2d 67 2f bc 6e 07 f8 bc 88 4c 7b 3b 60 90 af 3b
       -0.010705751 -0.03027698 0.0038345177 0.005357787

weight f4 [32, 32, 3, 3]
000000 f0 d5 86 bb f5 cd 08 bc cd 8a 0c 3a da 7a 64 bb
       -0.004114859 -0.008349885 0.0005361259 -0.0034863264
000010 27 59 0e bc d7 66 7b 3a de e0 82 bb 7b c9 0d bc
       -0.008688248 0.00095902145 -0.0039940914 -0.008653994
000020 23 fe 37 3a 3c 5d 2a 3b dd 07 0c 3b b7 30 b3 ba
       0.00070187653 0.0025995513 0.0021366992 -0.0013671134
000030 08 64 16 3b d3 6a 1a 3b ba 03 c1 ba 27 32 1c 3b
       0.0022947807 0.0023562207 -0.0014725842 0.0023833604
000040 d4 1b 14 3b 47 59 c9 ba 39 6a 0d ba 2a 69 d4 b9
       0.0022599595 -0.001536169 -0.00053945516 -0.00040514144
000050 16 09 1b 3a 98 bb ee b9 d8 9d 09 ba ec 61 34 3a
       0.00059141347 -0.00045534666 -0.0005249656 0.00068810466
000060 32 83 e2 b9 af 99 f9 b9 9a 69 49 3a e2 b5 e0 ba
       -0.00043203827 -0.00047607484 0.00076832774 -0.0017144049
000070 56 20 f0 ba 07 99 ba 3a 38 b4 bd ba 5a df 0a bb
       -0.0018320184 0.001423628 -0.0014473265 -0.0021190257
000080 fd 20 9c 3a 75 df cf ba 10 38 fe ba 24 b7 85 3a
       0.0011911687 -0.0015859442 -0.001939537 0.0010201675
000090 9d e2 21 39 af b7 70 bb 46 85 75 ba ee a5 e2 b8
       0.00015438577 -0.0036730578 -0.00093658676 -0.000108074266
0000a0 f9 ef 7b bb 02 fd 8d ba 72 ac dd b9 39 29 70 bb
       -0.0038442595 -0.0010832848 -0.00042280887 -0.0036645664
0000b0 5b b4 81 ba 8e a8 05 3b d6 d6 70 3b a9 be 61 39
       -0.0009895669 0.0020394656 0.0036749146 0.00021528699
0000c0 84 09 c2 3a 75 72 83 3b 15 11 66 b9 1e 00 c4 3a
       0.0014803861 0.004011447 -0.00021940873 0.0014953648
0000d0 01 13 89 3b a5 80 95 b9 01 34 9d 3a ec 82 67 b9
       0.0041831736 -0.00028515342 0.0011993648 -0.00022078649
0000e0 f2 5c db ba b7 79 9f 3a 52 a5 db b9 21 63 d6 ba
       -0.0016736074 0.0012167011 -0.00041894108 -0.0016356447
0000f0 24 97 ce 3a 4d 70 f3 b9 af a0 c8 ba 31 37 c1 3a
       0.0015761596 -0.00046432242 -0.0015306677 0.001474118
000100 f5 91 14 bc cd 4f b2 bb df d1 df 3a 1d 65 19 bc
       -0.009068002 -0.005441642 0.0017076096 -0.009362486
000110 a7 22 b2 bb fd c7 18 3b 39 30 10 bc cc 66 c0 bb
       -0.00543626 0.0023312562 -0.00880056 -0.0058716293
000120 71 2f a2 3a a1 07 2e bb 25 06 3f bb f6 0f da 3a
       0.0012373758 -0.002655484 -0.002914795 0.0016636837
000130 4c e8 20 bb ae 1a 2f bb 46 c2 14 3b 22 d0 11 bb
       -0.0024552522 -0.0026718783 0.0022698804 -0.00222493
000140 5f 3a 44 bb b9 1f 05 bb 37 99 09 b9 d1 85 13 3b
       -0.0029942018 -0.0020313098 -0.00013122415 0.002251018
000150 dd c5 f3 ba 6a 1a e8 b9 97 95 14 3b 7c 76 f3 ba
       -0.0018598397 -0.00044270168 0.002267217 -0.001857474
000160 9a 60 a9 b9 78 f5 27 3b c3 ee 19 ba 6c ef 20 bb
       -0.00032306166 0.0025628489 -0.0005872065 -0.002455677
000170 90 ce 67 3a 84 70 8e ba dd 31 44 bb 90 25 dd 38
       0.0008842731 -0.0010867273 -0.0029936947 0.00010545098
000180 cf 06 54 ba 3a 6c 19 bb ff cf 3e 3a 6d 50 84 3a
       -0.0008088173 -0.0023410455 0.00072789186 0.001009477
000190 44 bf 3c bb 09 04 af ba ec 46 45 3a 57 a0 51 bb
       -0.0028800527 -0.0013352643 0.0007525522 -0.003198644
0001a0 1c 13 c5 ba 45 1e 93 3a d8 0c 36 bb 76 f3 b6 ba
       -0.0015035602 0.0011224231 -0.0027778652 -0.0013958055
0001b0 96 9a 66 b9 bf 8d 9a 38 fb bf 70 3a 37 81 51 b9
       -0.00021992097 7.3696945e-05 0.0009183881 -0.0001997993
0001c0 4f 04 1e b9 44 01 37 3a 27 c2 c0 b8 c8 87 97 38
       -0.0001506966 0.00069810846 -9.191437e-05 7.225532e-05
0001d0 92 10 4a 3a 5b dc d5 ba c0 4e bb bb 0b e9 ed b9
       0.00077081576 -0.0016316281 -0.005716175 -0.00045377793
0001e0 0b 44 dd ba dd 62 d7 bb 12 a6 30 ba e1 d9 bc ba
       -0.001688124 -0.0065730647 -0.00067386136 -0.0014408195
0001f0 53 ef c9 bb 82 7f e2 b8 b4 20 87 3a 98 e0 1f bc
       -0.006162563 -0.0001080027 0.0010309429 -0.009758137
000200 f7 e3 e4 bb 72 e2 e3 3a f9 b8 21 bc 0a 4a c8 bb
       -0.0069851833 0.0017386212 -0.009870761 -0.006112342
000210 fc a3 27 3b fd 1f 1e bc 09 1a d9 bb fc eb cf ba
       0.002557992 -0.009651181 -0.006625418 -0.0015863176
000220 65 d4 24 bb e6 c4 f2 3a 97 f3 d8 ba e9 45 4a bb
       -0.002515101 0.0018521815 -0.0016552088 -0.0030864424
000230 b9 a4 e3 3a 6f 7a cf ba 72 54 31 bb 24 42 08 3b
       0.0017367817 -0.0015829335 -0.002705839 0.0020791376
000240 81 c4 e9 b7 8c 1b 07 37 a9 e0 1a 38 a7 8f e2 b7
       -2.7867269e-05 8.053041e-06 3.6925692e-05 -2.7008193e-05
000250 cd a6 d3 36 39 7c 0b 38 09 1b 15 b8 57 46 c5 36
       6.307708e-06 3.3255874e-05 -3.5549547e-05 5.879246e-06
000260 9d 54 2c 38 0e a4 db b8 52 3c 0d b9 b8 53 99 b8
       4.1086798e-05 -0.00010473291 -0.00013469279 -7.311202e-05
000270 ec 43 97 b8 80 66 c2 b8 b3 a3 49 b8 01 3b b8 b8
       -7.2128925e-05 -9.269733e-05 -4.807459e-05 -8.784794e-05
000280 94 84 e4 b8 32 03 87 b8 05 e4 24 b9 ac a4 9d ba
       -0.00010896582 -6.437897e-05 -0.00015725203 -0.0012027225
000290 42 28 9f 39 33 f9 5b b9 44 34 b3 ba cc 1b a8 39
       0.00030356838 -0.00020978301 -0.0013672193 0.00032064167
0002a0 86 46 2e ba 1c d5 c5 ba af 7d a0 39 75 a7 a9 bb
       -0.0006648082 -0.0015093419 0.0003061122 -0.005177433
0002b0 fb e7 51 bc 66 21 93 39 2f fc 7c bb bf f0 58 bc
       -0.012811656 0.0002806291 -0.0038602462 -0.013240992
0002c0 68 54 74 3a ea ba 8a bb b5 88 55 bc a9 94 28 3a
       0.0009320439 -0.0042337077 -0.013033082 0.00064308435
0002d0 17 61 d5 3a 96 f2 a5 3b fc 64 ef 3a c1 54 93 3a
       0.0016279545 0.005064319 0.0018264349 0.0011240469
0002e0 b4 bb a1 3b dd 78 c2 3a eb 3e d0 3a 5b 38 a8 3b
       0.004935706 0.0014837045 0.0015887892 0.005133671
0002f0 2b fb f7 3a 9b e6 aa 3a 23 f6 b4 ba 85 f5 6f b9
       0.0018919458 0.0013038696 -0.0013806265 -0.0002288428
000300 c3 4c 77 3a 6d 7c c8 ba 64 35 18 ba 90 c1 3a 3a
       0.00094337406 -0.0015295871 -0.00058062957 0.000712418
000310 c3 c9 9a ba 00 53 f7 b9 91 ba e0 3a ed 29 08 3c
       -0.0011809397 -0.0004717335 0.0017145445 0.008310777
000320 fa 1b c9 3b 65 46 6d 3a 15 c9 fe 3b 42 71 b1 3b
       0.0061373683 0.0009051322 0.0077754357 0.0054151127
000330 4b 14 ba 3a 24 40 0b 3c a4 70 cb 3b b1 e8 81 3a
       0.0014196722 0.008499179 0.006208496 0.0009911266
000340 7a a2 39 bb e4 74 ee ba ae db aa 3a f6 03 41 bb
       -0.0028325603 -0.0018192795 0.001303544 -0.0029451824
000350 09 09 f4 ba c5 91 e2 3a 7d c4 2b bb d0 9e 10 bb
       -0.0018618415 0.0017285874 -0.0026209645 -0.0022067316
000360 d4 99 3e b9 2a 2d 7f b9 d6 51 ef b9 87 67 ac b8
       -0.00018177117 -0.0002433552 -0.00045646605 -8.2208826e-05
000370 15 d6 07 b9 f2 ec ab b9 22 82 3d b9 43 2d 7e b9
       -0.00012954355 -0.000327922 -0.00018072923 -0.00024240189
000380 57 16 f9 b9 f7 dc 9c 3b 28 63 17 3c 88 8d 2d 3b
       -0.00047509625 0.0047870832 0.009239949 0.0026482064
000390 bc 13 8a 3b 1d 45 15 3c 37 62 2d 3b 67 fd 9b 3b
       0.0042137783 0.009110716 0.0026456246 0.0047604325
0003a0 0a f8 14 3c 66 a1 42 3b 16 58 42 3a bb c0 1f bb
       0.00909234 0.0029698252 0.00074136385 -0.002437635
0003b0 f7 cf 9c ba 44 bc 2a 3a a6 1c 30 bb 47 ec 9f ba
       -0.0011963834 0.0006513039 -0.0026872545 -0.0012201153
0003c0 b0 ba 26 3a b8 a5 25 bb 71 76 8d ba 8a 9e 40 bb
       0.0006360216 -0.0025275778 -0.0010792745 -0.0029391372
0003d0 f0 54 b6 ba c5 ec 3d 3b e3 9d 37 bb 37 2b e8 ba
       -0.0013910811 0.0028980237 -0.0028017692 -0.0017713074
0003e0 8b 4a 42 3b 12 32 42 bb 6c d9 d0 ba 38 7e 5b 3b
       0.0029646482 -0.0029631895 -0.0015933937 0.003349198
0003f0 09 2e 7c 3b f1 33 e8 3b 9b f7 5c 3a e5 54 54 3b
       0.0038479588 0.00708627 0.000842923 0.0032399234

bias f4 [32]
000000 6a 6a 2d 3c f4 b5 00 80 57 b9 6c 91 72 33 10 35
       0.010584453 -6.5272e-41 -1.867423e-28 5.3719043e-07
000010 77 c3 a8 b9 b4 ec 0b 00 da 7a 9b 9d 1c 71 01 80
       -0.0003218909 1.095104e-39 -4.1155184e-21 -1.32411e-40
000020 a8 ce 08 80 16 b7 8a a8 6b 0e bc 36 8f e4 4a 2f
       -8.08818e-40 -1.5400479e-14 5.604515e-06 1.8452993e-10
000030 c9 14 a0 ba 45 07 58 ac 9a 9c aa 3c 74 fa 32 3d
       -0.0012213226 -3.0699482e-12 0.020826627 0.043695882
000040 72 77 1e 3c 3d 7e 4a 83 c3 f0 f2 3b 51 36 41 9a
       0.009672033 -5.950738e-37 0.007413955 -3.995534e-23
000050 06 52 96 8b be cc 0b 80 22 59 02 80 e1 1b 06 3c
       -5.7901313e-32 -1.083638e-39 -2.15646e-40 0.008185358
000060 0f fa 0a 80 50 e7 08 80 7a 5a 1e 2f c9 fb 2a 38
       -1.008059e-39 -8.17663e-40 1.440216e-10 4.076565e-05
000070 f1 80 d5 3c cd b0 56 b5 75 a6 b8 9d f2 88 0c 00
       0.02606246 -7.997849e-07 -4.8876507e-21 1.151153e-39

weight f4 [32, 32, 3, 3]
000000 00 62 32 39 df 08 05 bc 82 96 87 bb 7b 6c de 39
       0.0001701191 -0.008119791 -0.004137815 0.00042423964
000010 7c db 11 bc 85 a3 74 bb ce bc 81 b9 85 db 18 bc
       -0.008902427 -0.003732891 -0.00024745468 -0.009329681
000020 13 fb 95 bb 33 96 07 80 1e 87 01 00 8f 2e 04 80
       -0.0045770495 -6.9673e-40 1.40306e-40 -3.84044e-40
000030 01 3e 07 80 c7 0a 00 80 3d b7 04 00 b7 3e 01 00
       -6.65091e-40 -3.866e-42 4.33075e-40 1.14333e-40
000040 a1 3e 04 00 0c 4d 0c 80 af ba 07 80 a1 f9 00 00
       3.89809e-40 -1.129665e-39 -7.09818e-40 8.955e-41
000050 fd c8 08 80 c4 60 08 80 ec 7c 08 80 54 12 08 80
       -8.06785e-40 -7.69397e-40 -7.79497e-40 -7.41259e-40
000060 2b 3a 07 80 d5 f5 02 00 99 d2 08 80 79 e2 1a b4
       -6.63715e-40 2.71859e-40 -8.10232e-40 -1.4424758e-07
000070 03 fa ab b3 01 f8 2c 34 38 34 01 b4 be f1 0c b3
       -8.008285e-08 1.6108972e-07 -1.2033058e-07 -3.2816153e-08
000080 e4 c9 5c 34 6f 02 59 b4 8c 2c bc b3 da 51 1f 34
       2.0562544e-07 -2.0210585e-07 -8.762535e-08 1.4837806e-07
000090 49 d0 02 00 1a 7b 01 00 bc 87 03 00 21 72 00 80
       2.5839e-40 1.35996e-40 3.24199e-40 -4.0942e-41
0000a0 3e d8 01 00 f7 84 02 00 e4 3d 01 80 0c ed 03 80
       1.69409e-40 2.3137e-40 -1.14038e-40 -3.60543e-40
0000b0 33 6c 03 80 17 48 06 00 27 17 02 00 9d 15 05 80
       -3.14321e-40 5.76874e-40 1.91976e-40 -4.66931e-40
0000c0 df de 02 80 38 48 05 80 fa 61 02 80 07 44 05 80
       -2.63622e-40 -4.85085e-40 -2.18818e-40 -4.83581e-40
0000d0 00 09 09 80 46 18 08 80 97 a8 94 14 24 4e 99 14
       -8.29748e-40 -7.43392e-40 1.5010678e-26 1.5479873e-26
0000e0 e5 61 64 14 ec b2 7f 14 dd da 89 14 b8 fd f7 92
       1.1530365e-26 1.2909496e-26 1.3919791e-26 -1.5650438e-27
0000f0 60 28 8d 14 44 b6 8f 14 da dd a1 93 56 9a 0c 00
       1.4253287e-26 1.4511201e-26 -4.0860876e-27 1.157391e-39
000100 95 d4 02 80 67 ad 09 00 3d c6 09 80 7b e5 0a 80
       -2.59931e-40 8.88725e-40 -8.97634e-40 -1.000677e-39
000110 17 a8 05 00 19 d7 06 80 61 ef 04 80 c4 45 0a 80
       5.19477e-40 -6.28175e-40 -4.53215e-40 -9.43382e-40
000120 f6 85 0b 00 14 86 00 80 5d 69 00 00 4a 0c 01 80
       1.058247e-39 -4.8098e-41 3.7797e-41 -9.6244e-41
000130 c0 70 04 80 55 19 06 00 fa e2 02 00 fe 56 05 00
       -4.07789e-40 5.601e-40 2.65095e-40 4.90384e-40
000140 78 b2 0d 00 e6 b2 0c 80 f9 2d 07 80 3a 31 00 80
       1.257884e-39 -1.166203e-39 -6.5934e-40 -1.7659e-41
000150 e7 f8 06 00 0b ce 05 00 8f 6f 09 00 3c e2 0a 80
       6.40302e-40 5.33092e-40 8.66539e-40 -9.99513e-40
000160 cc a7 0a 00 a5 9d 05 80 88 8b a8 36 8f 0b 8b 36
       9.78549e-40 -5.1573e-40 5.0230337e-06 4.1438684e-06
000170 26 22 ce b6 bc 89 d8 36 8b ee b0 36 ad 68 c2 b6
       -6.143254e-06 6.453336e-06 5.272979e-06 -5.7938364e-06
000180 2c ec ef 36 90 97 84 36 f9 a3 e2 b6 b6 87 81 ae
       7.150249e-06 3.9515508e-06 -6.754414e-06 -5.890348e-11
000190 86 1d 4f ae 7a 47 99 2e d8 4d 31 ae e4 9d 98 ad
       -4.7092573e-11 6.970331e-11 -4.031428e-11 -1.7350517e-11
0001a0 dc 73 d6 2e cd ce b3 ae ba 99 58 ae f1 11 8c 2e
       9.752174e-11 -8.176713e-11 -4.924925e-11 6.36965e-11
0001b0 f4 fa 92 ba 71 0e 01 ba c6 03 00 3b 3b 68 ab ba
       -0.0011213706 -0.00049231114 0.00195335 -0.0013077328
0001c0 50 5e 36 ba 35 36 f6 3a 18 7a e3 ba a7 28 1c ba
       -0.00069568027 0.0018784466 -0.0017355112 -0.00059569854
0001d0 1e 53 03 3b 4c 49 ad 87 75 d3 c1 06 74 e1 14 07
       0.0020038555 -2.6073227e-34 7.290924e-35 1.1200537e-34
0001e0 6d 38 b9 87 1c b5 fc 06 87 0d e7 06 e2 89 02 88
       -2.786887e-34 9.505798e-35 8.691242e-35 -3.9282532e-34
0001f0 cc ab f0 07 b4 6a c2 87 f1 fa c8 bb d5 24 fd 3c
       3.621216e-34 -2.925259e-34 -0.00613343 0.030901352
000200 0b f2 db 3c 45 69 bc bb bc 7a 19 3d d9 1b e5 3c
       0.026848814 -0.005749854 0.037470564 0.02796738
000210 ba fd 1b bc 27 8a 0b 3d cb ba d1 3c 5b fb 17 3c
       -0.009520942 0.0340673 0.025601765 0.009276236
000220 8e 09 39 3d 4b 8c 43 3c 88 9e 77 3c 31 7a 69 3d
       0.045175128 0.011935304 0.01511348 0.057001296
000230 51 e7 7b 3c 78 08 56 3c 61 28 48 3d 12 67 18 3c
       0.015374974 0.013063543 0.048866633 0.009301918
000240 dd 83 31 3b 98 bf 1c 3c b1 2f c0 b9 3a f0 82 3b
       0.0027086653 0.009567164 -0.00036656627 0.0039959224
000250 13 9c 44 3c cd 35 b0 b8 b1 de 83 3b 32 8e 26 3c
       0.012000102 -8.402355e-05 0.0040243496 0.010165738
000260 a7 46 9f ba 80 0b f6 80 07 87 b3 81 0c 0d 1c 82
       -0.0012151793 -2.2595657e-38 -6.594797e-38 -1.1464814e-37
000270 81 52 9f 80 c3 96 96 81 cf 40 16 82 41 6e e1 80
       -1.4631441e-38 -5.531763e-38 -1.1038859e-37 -2.0702538e-38
000280 12 12 a9 81 f1 25 20 82 c6 28 c4 3a ab 66 de bb
       -6.2106725e-38 -1.1765832e-37 0.0014965765 -0.0067871413
000290 a2 19 aa bb ce 4e e4 3a 5c 96 f9 bb b5 07 a2 bb
       -0.005191044 0.0017418505 -0.007616801 -0.0049447664
0002a0 d6 29 c1 3a 7f 9d 01 bc 06 12 b7 bb f1 f4 00 00
       0.00147372 -0.007911085 -0.0055868654 8.7868e-41
0002b0 c1 ee 09 00 ce fa 05 00 55 c6 09 80 aa 94 0a 80
       9.12168e-40 5.49149e-40 -8.97668e-40 -9.71686e-40
0002c0 c6 88 0a 80 ad 03 05 80 91 d4 04 00 b0 c3 00 80
       -9.6742e-40 -4.60496e-40 4.43596e-40 -7.02e-41
0002d0 9c ea 00 80 c1 eb 07 80 9a 1e 0b 80 24 84 00 00
       -8.4162e-41 -7.27421e-40 -1.021168e-39 4.7403e-41
0002e0 4e ad 0b 00 65 ab 0a 00 de d3 0a 80 96 d3 04 80
       1.07236e-39 9.7984e-40 -9.94359e-40 -4.43245e-40
0002f0 63 56 0a 80 5f ef 2e 80 58 48 1f 80 97 62 25 80
       -9.49345e-40 -4.310303e-39 -2.872852e-39 -3.433281e-39
000300 03 d3 2b 80 d0 b3 21 80 c6 9f 2b 80 14 c2 28 80
       -4.024623e-39 -3.095076e-39 -4.006242e-39 -3.743042e-39
000310 ed 2a 19 80 11 71 24 80 2b 2b 09 00 74 24 08 80
       -2.311286e-39 -3.346638e-39 8.42005e-40 -7.47761e-40
000320 de aa 09 80 92 be 04 80 23 6b 04 00 be a0 01 80
       -8.87815e-40 -4.35706e-40 4.05775e-40 -1.49499e-40
000330 54 6e 03 00 c6 90 04 80 e5 cb 03 00 57 f9 4c 3a
       3.15085e-40 -4.19277e-40 3.4865e-40 0.0007819137
000340 41 1c 9e bb 14 40 42 bb dc 55 8f 3a c2 a8 ac bb
       -0.0048251455 -0.0029640244 0.0010935622 -0.005269141
000350 d8 7c 2b bb 6e b4 21 3a 7c 03 b9 bb e5 ff 53 bb
       -0.0026166942 0.0006168549 -0.0056461673 -0.003234857
000360 eb b3 0c 80 9a 23 0b 00 d3 b1 0b 00 e6 56 07 80
       -1.166568e-39 1.022962e-39 1.073982e-39 -6.74022e-40
000370 dc 10 08 80 c8 76 08 80 42 ed 02 00 4e 54 0b 00
       -7.40732e-40 -7.77295e-40 2.68783e-40 1.040433e-39
000380 ce 2f 07 80 6e 1e 00 00 bb b6 0c 00 9a 55 04 00
       -6.59998e-40 1.0916e-41 1.167577e-39 3.9805e-40
000390 25 8e 00 00 7e 8f 06 80 11 57 0b 00 11 93 06 00
       5.0992e-41 -6.02488e-40 1.041424e-39 6.0377e-40
0003a0 00 fe 06 00 55 db 05 00 85 e8 ce ac 25 12 83 2b
       6.42131e-40 5.37859e-40 -5.880687e-12 9.313146e-13
0003b0 80 72 8d 29 1b 61 d9 2b be f8 2d 2d 7b 60 0d 2d
       6.2815204e-14 1.544573e-12 9.889143e-12 8.036345e-12
0003c0 a9 43 03 ad f6 1e 7f 2a 57 05 a0 ab bb a1 17 38
       -7.4615114e-12 2.2659291e-13 -1.1370166e-12 3.615183e-05
0003d0 ea bf dc 37 66 98 54 b8 a4 f8 4a 38 4f d8 17 38
       2.631541e-05 -5.068667e-05 4.8392118e-05 3.620266e-05
0003e0 1e 6e 44 b8 d2 50 5e 38 83 49 cc 37 59 27 69 b8
       -4.6832596e-05 5.3004194e-05 2.4352927e-05 -5.5588174e-05
0003f0 90 d2 f1 bb 51 8a ec bc a2 2e 09 bc ab 21 01 bc
       -0.0073798373 -0.028874548 -0.008372935 -0.007881562
