result/PanNet/WV3exp0/PanNet_pgcu.pkl (torch, 640861 bytes, 88 tensors)

weight f4 [4, 1, 3, 3]
-0.19932015 0.24861744 0.031097334 -0.07647022 -0.15325424 -0.17428307 -0.26741457 -0.046853855
-0.060267065 -0.18334727 0.26440814 0.2255119 -0.24159981 0.2931083 -0.240607 -0.15522215
0.341732 -0.30778784 -0.22830792 -0.36663026 -0.05681024 0.3340419 -0.15697734 -0.037278634
-0.08706091 0.31144884 -0.06458415 -0.2657335 0.21233651 0.110960305 0.3428323 -0.1696048
0.11217045 -0.009669536 -0.12177073 -0.13617715
00000000: 951a 4cbe 9295 7e3e d6bf fe3c 6b9c 9cbd
00000010: aeee 1cbe 4377 32be 90ea 88be d4e9 3fbd
00000020: 99da 76bd 63bf 3bbe 8160 873e 97ec 663e
00000030: f165 77be 4b12 963e ae61 76be 8ef2 1ebe
00000040: 7ff7 ae3e 5e96 9dbe 8dc9 69be f6b6 bbbe
00000050: dbb1 68bd 8a07 ab3e abbe 20be 7bb1 18bd
00000060: fe4c b2bd 3976 9f3e b244 84bd 390e 88be
00000070: be6e 593e 283f e33d b787 af3e e1ac 2dbe
00000080: 9fb9 e53d f96c 1ebc ef62 f9bd 0672 0bbe

bias f4 [4]
0.31284505 0.28648248 0.03416405 -0.016891545
00000000: 3a2d a03e d5ad 923e 9aef 0b3d 2360 8abc

weight f4 [4, 4, 3, 3]
-0.08770116 -0.10324547 0.15933646 0.1424765 0.13194022 -0.02084632 0.040706784 0.019319717
-0.07976448 -0.032905154 0.13668169 -0.14361888 -0.11236025 0.06099829 -0.027562605 0.083766736
0.059117302 0.06191744 -0.093779124 0.13940154 0.032950487 -0.12061774 0.04573234 0.13577466
-0.02986478 -0.14800704 -0.1398385 0.14716929 -0.08691368 -0.032584548 -0.11889675 0.11829611
0.107150294 0.11517186 0.111676194 0.029515944 0.04069586 -0.01642633 -0.0015273495 -0.071000665
-0.049675643 -0.095625296 0.055669397 0.11332838 -0.114459656 0.023174053 0.07015556 -0.00834039
0.12183129 -0.11512692 0.071612775 -0.03261416 -0.10120451 -0.086719796 0.03509505 0.048231486
-0.0678038 0.026898213 -0.11726592 -0.093419544 -0.058965832 -0.04781874 0.07697732 0.048265822
0.044991165 0.11935066 -0.0990976 0.1517483 -0.11028301 0.17144082 0.06977981 0.061285436
-0.20030336 -0.12459564 0.017020188 0.046941012 -0.124529526 -0.027681068 0.013677593 0.08904845
-0.08598996 -0.033241514 -0.16612574 0.13512163 0.051831983 0.091633745 -0.08986096 -0.10537062
-0.001710374 -0.025638152 0.04715854 0.07438625 0.07901279 -0.09759699 -0.018288672 -0.057653513
0.025535362 0.19648884 0.082230195 0.1074867 0.099786945 -0.04750665 -0.11428751 0.079229906
0.08542364 0.08981303 0.0066933767 0.08578876 -0.020193152 -0.017139584 0.17474777 -0.08902745
-0.10664095 0.16442671 -0.017060935 0.16381928 0.07224495 -0.11123319 0.065317556 -0.04396418
-0.1430573 0.11695648 0.15690777 -0.072677724 0.12636879 0.1488089 0.09681287 -0.13910979
-0.14699958 -0.18036422 -0.1340958 -0.0832904 0.100552484 -0.048971754 -0.045561492 -0.04451846
-0.08646044 0.09210644 0.112333804 0.136175 0.12479967 0.11129573 0.027782846 -0.107888125
00000000: aa9c b3bd 5c72 d3bd 1929 233e 5ce5 113e
00000010: 561b 073e e7c5 aabc 28bc 263d 6244 9e3c
00000020: 8f5b a3bd 8ec7 06bd 49f6 0b3e d410 13be
00000030: 211d e6bd 58d9 793d f9ca e1bc e58d ab3d
00000040: fc24 723d 249d 7d3d 450f c0bd 47bf 0e3e
00000050: 17f7 063d 6f06 f7bd d651 3b3d 8308 0b3e
00000060: fca6 f4bc 288f 17be d331 0fbe 8cb3 163e
00000070: cdff b1bd 6077 05bd 2480 f3bd 3b45 f23d
00000080: 9d71 db3d 39df eb3d 7db6 e43d 6ccb f13c
00000090: b4b0 263d 8390 86bc 5831 c8ba cc68 91bd
000000a0: b078 4bbd 32d7 c3bd 9805 643d b618 e83d
000000b0: d369 eabd 83d7 bd3c b8ad 8f3d 22a6 08bc
000000c0: af82 f93d aac7 ebbd b8a9 923d 6d96 05bd
000000d0: 4f44 cfbd 269a b1bd d4bf 0f3d 618e 453d
000000e0: b8dc 8abd a459 dc3c 1d29 f0bd bf52 bfbd
000000f0: 2886 71bd 95dd 43bd 49a6 9d3d 62b2 453d
00000100: a848 383d 1e6e f43d aff3 cabd e863 1b3e
00000110: 0fdc e1bd 2f8e 2f3e b8e8 8e3d 7006 7b3d
00000120: 531c 4dbe 002c ffbd ec6d 8b3c 3845 403d
00000130: 5609 ffbd 68c3 e2bc fc17 603c 095f b63d
00000140: 811b b0bd 4128 08bd de1c 2abe 535d 0a3e
00000150: c64d 543d 79aa bb3d 0609 b8bd 8dcc d7bd
00000160: a12e e0ba 1a07 d2bc 5029 413d d157 983d
00000170: 75d1 a13d eee0 c7bd 20d2 95bc 1726 6cbd
00000180: 892f d13c 5f34 493e 4e68 a83d fd21 dc3d
00000190: 195d cc3d 5596 42bd 920f eabd 4a43 a23d
000001a0: 97f2 ae3d e5ef b73d 1d54 db3b 04b2 af3d
000001b0: 1c6c a5bc 5068 8cbc 14f1 323e 0654 b6bd
000001c0: 9266 dabd 7a5f 283e 60c3 8bbc 3ec0 273e
000001d0: 29f5 933d 3ace e3bd 36c5 853d c913 34bd
000001e0: 9d7d 12be e186 ef3d 6eac 203e 0fd8 94bd
000001f0: d266 013e 5c61 183e d345 c63d cc72 0ebe
00000200: 0f87 16be 66b1 38be 6950 09be 2894 aabd
00000210: 76ee cd3d 9b96 48bd b09e 3abd fd58 36bd
00000220: 2c12 b1bd 4da2 bc3d 440f e63d 7671 0b3e
00000230: f896 ff3d 04ef e33d da98 e33c 73f4 dcbd

bias f4 [4]
-0.13771655 0.073949106 -0.00082872907 -0.12618268
00000000: 9105 0dbe a172 973d 113f 59ba 0836 01be

weight f4 [128, 8, 3, 3]
0.014451622 -0.024690464 -0.024475003 -0.017548533 -0.008800972 -0.020788906 -0.027835356 -0.007835104
-0.0034997466 -0.012572928 -0.08817267 0.064700775 -0.043080866 0.009845669 -0.03956737 0.018953875
0.014670797 0.036973286 0.016599536 0.030716587 0.047739826 -0.017807608 0.014284864 0.08745679
-0.036330484 0.024519702 0.021756543 -0.0057840995 0.029418914 0.019967059 0.02805519 -0.0063022682
0.011307743 0.012909067 -0.04776314 -0.027935935 0.06073751 0.055675283 0.079438575 0.04106338
-0.09601243 -0.010454173 -0.06439508 -0.054725315 -0.021045053 -0.015997736 0.0682485 0.10457663
0.02851119 -0.013834233 -0.05823892 0.1096178 -0.030161094 -0.08997462 -0.07262939 -0.04771421
-0.08698842 0.050797842 0.04961279 0.002400241 -0.060355183 0.054526523 -0.075503916 -0.033360813
-0.010056267 0.0018842807 -0.026646862 0.0024832608 -0.019246344 0.047822412 -0.0010369639 -0.009853591
-0.006352927 0.028904334 -0.011788305 -0.024439763 0.003338602 0.010687807 0.013583616 0.034009527
-0.031344395 -0.041815605 0.1000559 0.04175561 -0.053617902 0.100651264 0.012342743 0.086791575
0.04486028 0.092943534 -0.07459643 -0.002307306 -0.023924544 0.04508756 -0.056641057 0.112121925
0.03792302 -0.008292222 0.0020219134 -0.057267997 0.042815965 -0.008109114 -0.065973476 -0.018057443
0.034161627 -0.05027473 0.049780473 0.016310042 -0.028322684 0.0072044106 -0.04490648 -0.022386217
0.023172114 -0.04944413 0.10331849 -0.095614254 0.012532588 0.054932028 -0.05431556 -0.110403985
-0.023450896 0.09627411 0.013762466 0.1072669 -0.07951693 -0.032799162 -0.006521016 -0.022523383
-0.06291904 -0.0054242127 -0.0764408 0.014751438 0.013762984 0.03460225 -0.058062196 -0.04635668
-0.0039338563 0.0145404395 -0.05931518 0.030703181 -0.046271928 0.033849914 0.0017202895 -0.0077212807
-0.0020745667 -0.026363606 0.02931949 -0.04717318 -0.061409757 -0.010435344 -0.0542495 0.011674895
-0.008126604 -0.06658166 0.09403491 0.053747065 -0.013579619 -0.06730193 0.0381064 -0.06727188
-0.060567908 0.025231589 0.08231028 -0.005681283 0.059171632 0.07257824 0.042626057 -0.022763241
0.036069676 0.07396214 0.048688196 0.013750988 -0.008619318 0.022432765 -0.043964785 0.0009875067
-0.020775288 0.03614144 -0.032694973 -0.010157745 0.018961819 -0.058440875 0.06735342 -0.06951755
-0.04384455 0.0116040725 -0.02442311 0.070514 0.08981459 0.09714188 -0.061608512 -0.088744126
0.041975435 -0.090178676 -0.0017393621 0.067747384 0.0772355 -0.10167407 -0.05477317 -0.06471253
-0.056894317 -0.08820667 0.06647459 -0.008690275 0.030725708 -0.0242451 0.010584416 0.03536698
0.036407024 -0.0017125431 0.050442055 -0.0007426948 -0.034455236 0.019314198 -0.0036426801 0.04402874
0.07842269 0.059591588 0.04803556 0.075179555 0.032211628 0.012218535 0.031524964 0.064444974
0.051493198 -0.076334916 0.04378646 0.02573011 -0.012765304 -0.012520554 -0.043343488 0.0063200635
0.025321025 0.058696464 -0.06412616 -0.057810094 0.0780934 0.08436477 -0.030934505 -0.02899947
0.099487394 0.059000056 -0.07554732 0.011008707 -0.0012336285 -0.053425863 -0.04934567 -0.0054806317
-0.09382132 -0.0012296883 0.027589146 0.024995105 0.067649074 0.02384523 0.03349132 0.0391716
00000000: 7fc6 6c3c a843 cabc cd7f c8bc f1c1 8fbc
00000010: f431 10bc 7f4d aabc f906 e4bc cf5e 00bc
00000020: 015c 65bb affe 4dbc df93 b4bd d781 843d
00000030: 9075 30bd bb4f 213c 6511 22bd 2845 9b3c
00000040: c85d 703c 4d71 173d c0fb 873c 5aa1 fb3c
00000050: d68a 433d 43e1 91bc 100b 6a3c 8c1c b33d
00000060: 46cf 14bd 8bdd c83c c73a b23c 8b88 bdbb
00000070: efff f03c f591 a33c ffd3 e53c 4283 cebb
00000080: 1d44 393c 8d80 533c 48a3 43bd e7d9 e4bc
00000090: e5c7 783d c40b 643d b1b0 a23d 1332 283d
000000a0: 2aa2 c4bd fb47 2bbc 91e1 83bd a727 60bd
000000b0: ad66 acbc af0d 83bc dfc5 8b3d 462c d63d
000000c0: 4d90 e93c fba8 62bc ef8b 6ebd 4c7f e03d
000000d0: 6614 f7bc 9d44 b8bd b8be 94bd fa6f 43bd
000000e0: fc26 b2bd 6611 503d c836 4b3d 5d4d 1d3b
000000f0: ff36 77bd 3457 5f3d cca1 9abd 59a5 08bd
00000100: 0ac3 24bc f8f9 f63a 854a dabc 34be 223b
00000110: 82aa 9dbc 6fe1 433d bcea 87ba f570 21bc
00000120: 372c d0bb c8c8 ec3c bc23 41bc e635 c8bc
00000130: 72cc 5a3b e91b 2f3c d18d 5e3c 934d 0b3d
00000140: fb62 00bd d746 2bbd 1cea cc3d ee07 2b3d
00000150: 729e 5bbd 4022 ce3d 3739 4a3c c8bf b13d
00000160: 6abf 373d 2e59 be3d 03c6 98bd 2c36 17bb
00000170: 68fd c3bc bcad 383d 7400 68bd 2ea0 e53d
00000180: 2b55 1b3d 1adc 07bc 1482 043b d991 6abd
00000190: cb5f 2f3d 17dc 04bc 1a1d 87bd 34ed 93bc
000001a0: 10ed 0b3d e0ec 4dbd 9ce6 4b3d a39c 853c
000001b0: f904 e8bc fa12 ec3b dbef 37bd 4d63 b7bc
000001c0: 72d3 bd3c ee85 4abd a598 d33d 68d1 c3bd
000001d0: 7c55 4d3c 6800 613d fe79 5ebd 7c1b e2bd
000001e0: 181c c0bc 5c2b c53d f77b 613c c0ae db3d
000001f0: c6d9 a2bd 6a58 06bd 3fae d5bb f582 b8bc
00000200: b3db 80bd 98bd b1bb ff8c 9cbd 04b0 713c
00000210: 247e 613c 17bb 0d3d a0d2 6dbd 81e0 3dbd
00000220: 94e7 80bb 063b 6e3c 79f4 72bd 3d85 fb3c
00000230: a287 3dbd 35a6 0a3d 567b e13a cc02 fdbb
00000240: 74f5 07bb 7df8 d7bc 6d2f f03c aa38 41bd
00000250: cc88 7bbd 01f9 2abc b934 5ebd 0f48 3f3c
00000260: 7325 05bc f75b 88bd 6095 c03d e225 5c3d
00000270: 0d7d 5ebc 98d5 89bd 7515 1c3d d7c5 89bd
00000280: 0e16 78bd 7ab2 ce3c 4b92 a83d 0e2a babb
00000290: f45d 723d e6a3 943d a998 2e3d fa79 babc
000002a0: ccbd 133d 7679 973d 466d 473d d34b 613c
000002b0: 0a38 0dbc ebc4 b73c 6b14 34bd 3a6f 813a
000002c0: f030 aabc 0c09 143d 2aeb 05bd ac6c 26bc
000002d0: d155 9b3c b35f 6fbd 97f0 893d 385f 8ebd
000002e0: 5896 33bd 021f 3e3c f912 c8bc a569 903d
000002f0: b6f0 b73d 52f2 c63d 3559 7cbd 7bbf b5bd
00000300: 6fee 2b3d 99af b8bd 4ffb e3ba 24bf 8a3d
00000310: a52d 9e3d 7f3a d0bd d559 60bd 0188 84bd
00000320: 040a 69bd b3a5 b4bd d423 883d a861 0ebc
00000330: 7bb4 fb3c a99d c6bc 426a 2d3c f7dc 103d
00000340: 881f 153d 6977 e0ba 549c 4e3d 68b1 42ba
00000350: ef20 0dbd cf38 9e3c 08ba 6ebb 7b57 343d
00000360: 139c a03d 4f16 743d efc0 443d bdf7 993d
00000370: 57f0 033d 4030 483c 5220 013d bafb 833d
00000380: 88ea 523d 7b55 9cbd 6e59 333d f4c7 d23c
00000390: 9125 51bc 0223 4dbc f188 31bd 8918 cf3b
000003a0: 0a6e cf3c b46b 703d 9454 83bd 47ca 6cbd
000003b0: 6fef 9f3d 70c7 ac3d 5c6a fdbc 4c90 edbc
000003c0: 0cc0 cb3d 0baa 713d 8eb8 9abd dd5d 343c
000003d0: b4b1 a1ba 14d5 5abd af1e 4abd df96 b3bb
000003e0: 6425 c0bd 7e2d a1ba a202 e23c 89c2 cc3c
000003f0: 998b 8a3d 1257 c33c 322e 093d 6672 203d

bias f4 [128]
-0.04900904 0.000731301 -0.024553396 -0.01864973 -0.02182471 -0.098280475 -0.06753929 -0.08295938
-0.11488693 0.086595476 -0.11321474 0.03710988 0.055382196 -0.08086866 0.052286368 -0.033449303
0.077216774 0.040335167 -0.085394196 -0.09793975 -0.10910803 0.09236369 -0.08306201 -0.02593293
0.0034290978 0.016509648 -0.069739066 0.083239235 0.010764791 0.0357892 0.012112538 -0.008160233
0.05392132 0.008131177 0.10841652 0.10408828 0.05430902 -0.06585131 0.047020774 -0.09624058
-0.0785624 0.09747276 0.008300781 -0.11135923 0.089793794 -0.08180643 0.05808626 -0.10993635
-0.031392355 -0.037059605 0.01600645 0.041675232 -0.040981892 -0.108969934 0.049385767 -0.059607025
0.04688119 -0.03667732 0.07630324 -0.066514604 -0.018455936 -0.006552078 -0.07296773 -0.060695156
-0.06723869 0.033540048 0.04814935 -0.06480745 0.06430207 -0.009294 0.084565304 0.0051024375
0.04700038 -0.0130707985 -0.08561502 0.027095998 -0.05366081 -0.0027447566 0.004518778 -0.06624796
0.0847382 -0.02736936 0.00061674503 -0.01627829 0.11098598 0.034706015 -0.09822517 0.038975846
0.052015465 -0.0514868 0.094454 -0.09693482 0.08319142 -0.037530936 -0.035291124 0.06651792
-0.08279283 -0.07225686 -0.008950643 0.06904218 0.049165107 -0.050811477 0.004593766 -0.0022200805
-0.09270158 -0.0892853 0.09246331 -0.018084833 -0.017371612 0.08627417 0.00089588657 0.03949991
-0.042345703 0.06377867 -0.056239337 -0.046480257 -0.032591645 0.051600877 -0.0020651247 0.045345508
0.02240952 -0.10344058 0.06918769 -0.090247184 -0.07021819 -0.027756097 0.00016458602 -0.085961506
00000000: b4bd 48bd c8b4 3f3a 3424 c9bc 52c7 98bc
00000010: bcc9 b2bc 4647 c9bd 0a52 8abd 9be6 a9bd
00000020: d749 ebbd f858 b13d 21dd e7bd 8800 183d
00000030: 71d8 623d 789e a5bd 3b2a 563d 2302 09bd
00000040: d423 9e3d 7d36 253d 27e3 aebd a394 c8bd
00000050: 0874 dfbd 2d29 bd3d 6a1c aabd 4c71 d4bc
00000060: b7ba 603b 3e3f 873c 5bd3 8ebd 5579 aa3d
00000070: ce5e 303c b297 123d ab73 463c 7fb2 05bc
00000080: 9adc 5c3d a138 053c 7b09 de3d 3c2c d53d
00000090: 2373 5e3d 0ddd 86bd db98 403d c819 c5bd
000000a0: 53e5 a0bd cc9f c73d 0000 083c 4f10 e4bd
000000b0: cfe5 b73d 218a a7bd dceb 6d3d 4f26 e1bd
000000c0: 4595 00bd d0cb 17bd f51f 833c a6b3 2a3d
000000d0: a1dc 27bd a12b dfbd bb48 4a3d 7f26 74bd
000000e0: 7e06 403d f53a 16bd e044 9c3d cf38 88bd
000000f0: e730 97bc d0b2 d6bb 1b70 95bd 7c9b 78bd
00000100: 70b4 89bd 4a61 093d 4138 453d c5b9 84bd
00000110: ceb0 833d dd45 18bc 9330 ad3d 5932 a73b
00000120: 7883 403d e726 56bc ed56 afbd 6df8 dd3c
00000130: 70cb 5bbd 60e1 33bb 4212 943b 03ad 87bd
00000140: 398b ad3d b535 e0bc 0fad 213a 0c5a 85bc
00000150: 9e4c e33d e527 0e3d 472a c9bd 23a5 1f3d
00000160: 2b0e 553d d3e3 52bd 1971 c13d c385 c6bd
00000170: 4360 aa3d 0aba 19bd 6d8d 10bd 8c3a 883d
00000180: 4a8f a9bd 68fb 93bd b8a5 12bc fd65 8d3d
00000190: 5a61 493d b21f 50bd 4d87 963b c57e 11bb
000001a0: 53da bdbd 36db b6bd 675d bd3d a526 94bc
000001b0: e94e 8ebc 83b0 b03d eed9 6a3a a8ca 213d
000001c0: b072 2dbd 649e 823d 385b 66bd 1562 3ebd
000001d0: d17e 05bd 715b 533d 0b57 07bb 36bc 393d
000001e0: 2b94 b73c a8d8 d3bd 47b2 8d3d 84d3 b8bd
000001f0: 8ece 8fbd c160 e3bc b994 2c39 960c b0bd

weight f4 [4, 1, 3, 3]
-0.035962988 0.07806665 0.2647958 0.094900824 0.2622758 0.059629455 0.09254263 -0.24544917
0.26851228 0.082640454 0.19764781 -0.12389053 0.21579942 -0.17987281 -0.15379119 -0.22730021
0.025824465 -0.22136204 -0.0056021055 -0.09660942 -0.15113166 0.26960224 -0.017078264 -0.21199933
-0.090026364 -0.026649626 -0.023687838 0.17465098 -0.18981297 0.17545852 0.28739765 0.19874357
0.24862398 2.4289708e-05 -0.19044863 -0.021715455
00000000: ed4d 13bd 68e1 9f3d 5193 873e 5d5b c23d
00000010: 0349 863e 043e 743d fe86 bd3d 0757 7bbe
00000020: 717a 893e 663f a93d 3064 4a3e 51ba fdbd
00000030: 86fa 5c3e 9430 38be 707b 1dbe 63c1 68be
00000040: d48d d33c bbac 62be de91 b7bb 29db c5bd
00000050: 42c2 1abe 4e09 8a3e b7e7 8bbc 5a16 59be
00000060: be5f b8bd 5150 dabc ff0c c2bc b5d7 323e
00000070: 555e 42be 66ab 333e c925 933e 6f83 4b3e
00000080: 4997 7e3e c0c1 cb37 f704 43be 9ce4 b1bc

bias f4 [4]
-0.27095905 -0.013231355 0.036792617 0.3043091
00000000: 25bb 8abe 53c8 58bc dbb3 163d 67ce 9b3e

weight f4 [4, 4, 3, 3]
-0.052228253 0.04636547 0.07051346 0.08256043 0.0068531255 0.056327514 0.0053957133 -0.08514729
-0.06113445 0.15735173 -0.0897607 0.11818626 0.1250999 0.089006566 0.0154802315 0.12721308
0.015253791 -0.079359345 -0.054553542 0.081055336 0.118105374 0.08912524 0.0038181785 0.12983494
0.004702228 0.14420848 0.028877122 -0.03809133 -0.1668915 0.0764872 -0.03303739 -0.14007449
0.08835608 -0.17090942 -0.06133835 0.041910324 0.05088251 -0.004266542 -0.023900643 0.06397788
-0.02611848 0.019430764 0.025721315 0.015645763 0.012853947 -0.012394684 0.0026610545 -0.04610598
0.015938956 -0.06300777 -0.005583896 0.023933085 -0.00023218893 -0.0057245083 -0.05095074 -0.0414147
-0.020343354 -0.07906111 -0.03812784 -0.031475052 -0.07687006 -0.057826757 -0.039546914 -0.06594735
0.0050633317 0.085332386 -0.12160561 0.081915215 -0.037202016 0.093145296 -0.08292392 0.018719673
0.01110163 0.027350929 0.044311255 -0.013353972 0.0020757385 0.0028207768 0.08835862 0.02166644
-0.030868942 0.08241839 0.07236231 0.016409852 0.021980574 -0.019042555 0.069492124 -0.055450194
0.05106406 0.07511546 0.041437246 0.019750642 0.016946957 0.008856794 0.011543439 -0.022858279
0.018256105 0.062480778 -0.004983919 -0.019470586 -0.087805845 0.06539375 -0.07156404 -0.001267191
-0.095181316 -0.122325815 0.017665885 0.042013668 0.03997638 -0.07766048 -0.09135923 -0.047114953
-0.0823495 -0.0641198 -0.11789516 -0.10927564 0.031175328 -0.019824794 -0.10431293 0.12525289
-0.07362405 0.02215 0.09842356 0.086384796 0.024706092 0.042549614 0.05258963 0.1303897
0.15231687 0.04924043 0.065091185 0.14132853 0.11819402 0.11109158 0.08012111 0.058077216
-0.035996508 -0.049207844 0.120344214 -0.0003706404 -0.03071083 -0.110255435 0.13528687 -0.13718487
00000000: 4bed 55bd b8e9 3d3d 5c69 903d 7115 a93d
00000010: 2f90 e03b aeb7 663d 86ce b03b b461 aebd
00000020: 1e68 7abd d020 213e 75d4 b7bd a30b f23d
00000030: 301a 003e 1349 b63d cca0 7d3c 2544 023e
00000040: 09eb 793c 2787 a2bd 8973 5fbd 5700 a63d
00000050: 3be1 f13d 4b87 b63d 683a 7a3b 73f3 043e
00000060: 2615 9a3b 63ab 133e b78f ec3c a805 1cbd
00000070: 9be5 2abe 52a5 9c3d 3752 07bd b06f 0fbe
00000080: 08f4 b43d e102 2fbe ec3d 7bbd 29aa 2b3d
00000090: 2e6a 503d 59ce 8bbb 48cb c3bc d606 833d
000000a0: 6cf6 d5bc 442d 9f3c 82b5 d23c 8b2b 803c
000000b0: 5c99 523c 1313 4bbc 1665 2e3b a0d9 3cbd
000000c0: 6a92 823c 380a 81bd 1df9 b6bb 510f c43c
000000d0: be77 73b9 a894 bbbb b9b1 50bd 76a2 29bd
000000e0: 1ba7 a6bc cbea a1bd f02b 1cbd fceb 00bd
000000f0: 0d6e 9dbd c0db 6cbd f2fb 21bd 670f 87bd
00000100: 4eea a53b bfc2 ae3d 5d0c f9bd 2ac3 a73d
00000110: 2461 18bd f6c2 be3d 04d4 a9bd 005a 993c
00000120: 9ce3 353c 0e0f e03c b87f 353d 9eca 5abc
00000130: 1d09 083b c8dc 383b 5df5 b43d d17d b13c
00000140: dde0 fcbc f9ca a83d b132 943d f46d 863c
00000150: 9b10 b43c 22ff 9bbc e351 8e3d be1f 63bd
00000160: 8c28 513d 22d6 993d 1aba 293d 19cc a13c
00000170: 58d4 8a3c 161c 113c b120 3d3c 4941 bbbc
00000180: d48d 953c d8eb 7f3d 2550 a3bb c780 9fbc
00000190: 8dd3 b3bd 29ed 853d 2b90 92bd e017 a6ba
000001a0: 6cee c2bd f585 fabd 0cb8 903c 8616 2c3d
000001b0: 46be 233d 750c 9fbd 8c1a bbbd 9cfb 40bd
000001c0: dba6 a8bd 3e51 83bd 0573 f1bd e8cb dfbd
000001d0: 6763 ff3c 9b67 a2bc 04a2 d5bd 4b42 003e
000001e0: 35c8 96bd eb73 b53c 4b92 c93d 83ea b03d
000001f0: 6e64 ca3c 8148 2e3d 3968 573d e184 053e
00000200: f4f8 1b3e 55b0 493d 874e 853d 6db8 103e
00000210: b50f f23d fb83 e33d 8916 a43d 60e2 6d3d
00000220: 1371 13bd 2a8e 49bd 0777 f63d 8352 c2b9
00000230: 4795 fbbc 9acd e1bd a488 0a3e 317a 0cbe

bias f4 [4]
-0.10126481 0.013965789 -0.114774324 0.010028746
00000000: ed63 cfbd c4d0 643c cd0e ebbd 9c4f 243c

weight f4 [4, 4, 3, 3]
-0.07611124 0.07335312 0.09363361 0.03248842 -0.11302819 0.14462808 0.054178253 0.016955696
0.10005679 -0.08310706 0.003495219 -0.06351386 0.051837053 0.09804545 -0.047053393 -0.105041265
0.00945972 0.10506429 0.06986166 -0.06222384 0.07308697 -0.052750494 0.12960933 -0.06918364
0.09585579 -0.1214801 0.13031009 0.022268921 0.087864056 0.08754143 0.035361513 0.08991114
0.052018546 0.024918579 0.107210934 0.05215849 -0.10907698 -0.06536941 0.07372748 -0.11941211
-0.088676676 0.07744722 -0.12393807 -0.15640104 -0.089496516 0.09015058 0.054587852 0.06962523
0.049579613 -0.031187037 0.038676582 -0.06700931 -0.012893357 -0.05512318 -0.0136664575 -0.094418235
-0.13428602 -0.08573916 -0.12868187 -0.10037459 0.060938813 0.021372618 -0.10921384 -0.04444467
-0.069720924 -0.07822951 -0.011278005 -0.07601208 -0.08381696 0.030847944 0.015923023 -0.023910915
0.15380108 -0.07959032 0.08832045 0.14201002 0.02001553 0.07718667 0.16462843 0.11465306
0.17515527 0.08037835 0.015878769 0.059161942 -0.01195636 0.10231214 -0.042212654 0.093697004
0.11550497 -0.10382606 0.07411723 -0.029616972 0.0335884 0.084054016 -0.07438072 -0.12888713
-0.028548006 -0.06000003 -0.05849214 -0.004828391 0.07381295 -0.0028891093 -0.024017846 0.022853758
-0.00021735499 -0.0014268875 0.07741922 0.059352376 0.05773058 0.119158 0.12241042 -0.10272726
-0.047078412 -0.07846739 0.008141513 -0.010697456 -0.038267717 -0.04458502 -0.015477893 0.009859949
0.06316264 -0.018323949 -0.09605955 -0.06601452 -0.09382469 -0.12521787 -0.029135926 -0.114272214
-0.032831337 -0.09942948 -0.11598158 -0.033909284 0.047267497 -0.005594274 0.063454665 0.058455225
0.049035147 0.056961846 0.13088173 0.11625629 0.07416608 0.09836687 0.11236032 0.08172865
00000000: 36e0 9bbd 293a 963d fac2 bf3d 9412 053d
00000010: 537b e7bd 6219 143e 04ea 5d3d ace6 8a3c
00000020: 93ea cc3d 0934 aabd 0b10 653b 8e13 82bd
00000030: 1753 543d 0ecc c83d 0fbb 40bd e01f d7bd
00000040: f1fc 1a3c f22b d73d a113 8f3d 6dde 7ebd
00000050: 9fae 953d e710 58bd 4fb8 043e 27b0 8dbd
00000060: 0a50 c43d 8fca f8bd 0270 053e 506d b63c
00000070: 12f2 b33d ec48 b33d 3cd7 103d 5523 b83d
00000080: 6611 553d 0c22 cc3c 6891 db3d 24a4 553d
00000090: c063 dfbd 66e0 85bd 6ffe 963d 568e f4bd
000000a0: 1e9c b5bd a69c 9e3d 3ed3 fdbd 9827 20be
000000b0: f349 b7bd dea0 b83d 8397 5f3d ac97 8e3d
000000c0: fe13 4b3d f57b ffbc 566b 1e3d 2d3c 89bd
000000d0: a93e 53bc d8c8 61bd 47e9 5fbc 595e c1bd
000000e0: 4682 09be 0398 afbd 2ec5 03be 3191 cdbd
000000f0: fa9a 793d a115 af3c 81ab dfbd 9d0b 36bd
00000100: d8c9 8ebd cb36 a0bd 62c7 38bc 39ac 9bbd
00000110: 3aa8 abbd d4b4 fc3c 0071 823c d3e0 c3bc
00000120: 087e 1d3e 4000 a3bd 5ae1 b43d 136b 113e
00000130: 9cf7 a33c 0b14 9e3d 5b94 283e 39cf ea3d
00000140: e75b 333e 689d a43d 3114 823c cb53 723d
00000150: 9ce4 43bc 0789 d13d 2de7 2cbd 37e4 bf3d
00000160: df8d ec3d c2a2 d4bd c6ca 973d 4b9f f2bc
00000170: fd93 093d 8324 ac3d eb54 98bd fdfa 03be
00000180: 82dd e9bc 97c2 75bd 7495 6fbd 7b37 9ebb
00000190: 3e2b 973d 3657 3dbb 13c1 c4bc ce37 bb3c
000001a0: c9e9 63b9 6606 bbba f88d 9e3d 7a1b 733d
000001b0: e776 6c3d 1c09 f43d 50b2 fa3d ab62 d2bd
000001c0: 4bd5 40bd 83b3 a0bd fb63 053c 6244 2fbc
000001d0: 9cbe 1cbd c89e 36bd fd96 7dbc a08b 213c
000001e0: 6a5b 813d 1b1c 96bc dfba c4bd 9f32 87bd
000001f0: 2927 c0bd 1d39 00be 77ae eebc 8d07 eabd
00000200: 277a 06bd afa1 cbbd c087 edbd 76e4 0abd
00000210: 909b 413d 2c50 b7bb 85f4 813d bf6e 6f3d
00000220: 14d9 483d d350 693d dc05 063e c717 ee3d
00000230: 63e4 973d 9274 c93d 2b1d e63d 5a61 a73d

bias f4 [4]
0.06433491 0.15158167 -0.09442475 0.17446528
00000000: 05c2 833d 3a38 1b3e c361 c1bd 07a7 323e

weight f4 [4, 4, 3, 3]
0.11135249 -0.09352971 0.019824853 0.09032909 0.04796509 -0.022566997 -0.0008710827 -0.058945708
0.023756284 0.02697314 0.056250706 0.025461214 -0.07138089 -0.00651778 -0.038973313 0.05714966
-0.07368329 -0.056717187 -0.11646134 -0.054925572 0.10534113 0.107835405 0.016278265 0.031789456
0.016364735 -0.07605803 0.04732135 0.15556683 0.046448603 0.036429767 0.013400797 0.0034110558
-0.0037652422 0.046367005 0.13264124 0.14916827 0.04410865 0.07268947 -0.056135617 -0.1044846
-0.020739214 -0.0582947 -0.06043741 0.10513374 -0.069476314 0.016732644 -0.002686411 -0.012390825
0.12634811 0.0867546 -0.085954145 0.05189838 0.06039422 0.035000887 -0.0023166377 0.05611028
0.036295213 0.056820802 0.061174236 -0.06288403 0.012405021 0.056437586 0.12798452 0.020912766
0.07668891 0.06762129 0.041347895 -0.09146655 0.15910363 -0.07985213 -0.097821526 0.14925383
0.08978864 0.10116702 -0.069474936 0.059451547 -0.051078077 0.049470987 -0.06699068 -0.07666589
0.06928152 -0.0020767516 -0.078889236 0.030078076 0.0037635695 0.090278715 -0.042576276 0.09766254
-0.06731308 0.00011638441 -0.10590851 0.030038798 -0.08943304 -0.0031192387 0.05969215 0.05916441
0.043409355 -0.10265602 0.08053143 -0.061029326 -0.042165615 -0.05519476 -0.017387584 -0.10822276
-0.00013665068 0.060182072 -0.11719747 0.0036488716 0.06860198 -0.034780543 0.060160603 -0.008644558
0.10867392 -0.056962658 0.0061053666 0.033546515 -0.05019247 -0.043499954 0.023002347 -0.08221231
-0.068789095 -0.0828341 -0.039950382 0.10456264 -0.11268371 0.0127262175 0.010240348 -0.0113692405
0.099994995 -0.047475003 0.03412397 0.054327752 0.08438858 0.095442414 0.075391784 -0.059337374
0.004983268 0.05807146 -0.08486488 -0.05057106 0.05523496 -0.093675055 0.1051253 -0.07313703
00000000: c60c e43d 818c bfbd bb67 a23c 75fe b83d
00000010: 0b77 443d 6cde b8bc 5f59 64ba 0e71 71bd
00000020: 8a9c c23c c6f6 dc3c 2467 663d 0994 d03c
00000030: 2530 92bd 1a93 d5bb 7ba2 1fbd c315 6a3d
00000040: 44e7 96bd 4850 68bd 4883 eebd a3f9 60bd
00000050: 17bd d73d cfd8 dc3d ff59 853c a935 023d
00000060: 560f 863c 50c4 9bbd 08d4 413d e94c 1f3e
00000070: e440 3e3d 6137 153d 048f 5b3c 058c 5f3b
00000080: 48c2 76bb 54eb 3d3d 1bd3 073e 91bf 183e
00000090: 46ab 343d 38de 943d 76ee 65bd 06fc d5bd
000000a0: 49e5 a9bc 6cc6 6ebd 388d 77bd 5c50 d73d
000000b0: 9949 8ebd e612 893c 7f0e 30bb e302 4bbc
000000c0: 6661 013e 65ac b13d ba08 b0bd 6593 543d
000000d0: ee5f 773d 175d 0f3d bbd2 17bb e5d3 653d
000000e0: 4aaa 143d eebc 683d d691 7a3d 58c9 80bd
000000f0: 6e3e 4b3c 192b 673d 600e 033e 4051 ab3c
00000100: 130f 9d3d 087d 8a3d 695c 293d d152 bbbd
00000110: 10ec 223e 8389 a3bd a756 c8bd ffd5 183e
00000120: 1be3 b73d a830 cf3d e048 8ebd 7783 733d
00000130: 3f37 51bd 17a2 4a3d 6932 89bd 0203 9dbd
00000140: 78e3 8d3d 1c1a 08bb ae90 a1bd 4c66 f63c
00000150: 38a6 763b 0ce4 b83d 7664 2ebd 4c03 c83d
00000160: 71db 89bd 6813 f438 90e6 d8bd ed13 f63c
00000170: ab28 b7bd 246c 4cbb c27f 743d 6156 723d
00000180: 02ce 313d 523d d2bd aaed a43d e3f9 79bd
00000190: dab5 2cbd e713 62bd 6870 8ebc e5a3 ddbd
000001a0: e349 0fb9 7a81 763d 3a05 f0bd e821 6f3b
000001b0: 327f 8c3d 0b76 0ebd f76a 763d e7a1 0dbc
000001c0: 6f90 de3d ad51 69bd 870f c83b 1268 093d
000001d0: 9f96 4dbd 022d 32bd 6b6f bc3c ed5e a8bd
000001e0: 4ce1 8cbd eda4 a9bd 03a3 23bd f024 d63d
000001f0: b8c6 e6bd a081 503c 22c7 273c 0d46 3abc
00000200: 2dca cc3d 2675 42bd 93c5 0b3d c786 5e3d
00000210: ebd3 ac3d 5077 c33d 0267 9a3d bf0b 73bd
00000220: af4a a33b 57dc 6d3d a3cd adbd 9a23 4fbd
00000230: 0e3e 623d b5d8 bfbd ef4b d73d dec8 95bd

bias f4 [4]
0.15230821 0.028599095 -0.031677987 0.052867103
00000000: aff6 1b3e a648 ea3c c7c0 01bd 2d8b 583d

weight f4 [4, 4, 3, 3]
-0.0032844148 -0.10686167 -0.11909974 -0.10568134 -0.06058989 -0.11253937 0.071149796 -0.08212256
0.016423687 0.03790578 0.0680136 -0.05635039 -0.14410403 0.08445753 -0.10130797 0.015844425
0.017227968 0.001573018 -0.02360798 0.0133201135 -0.019120265 0.056403026 0.051055413 0.011249955
-0.03353625 0.052376937 0.021472324 0.0032782506 -0.09312167 -0.024115443 0.027960436 -0.040288683
-0.038446568 -0.049328584 0.019932419 0.009453148 -0.010247488 -0.019664763 0.14074157 -0.084321305
-0.13906571 0.02947685 -0.035983235 0.06352837 0.12869243 0.025883408 0.08810307 -0.05253823
0.051337086 0.11747943 -0.07719936 -0.01578692 0.08039164 0.109959826 0.04515611 0.0059379046
-0.036960993 -0.070158765 -0.042188544 0.06437949 -0.007587386 0.037284244 0.028240673 -0.036044784
0.0075586713 0.07734981 0.0099436315 0.098755054 -0.08833655 -0.059987936 -0.10046802 0.07688576
-0.065111525 -0.11674111 -0.045986045 -0.031075204 0.14271355 -0.025934966 -0.113793716 0.09493878
-0.012240243 0.023888731 -0.09612022 0.0153644495 0.11112183 0.07979961 -0.036385644 -0.005767957
0.043708075 0.08075178 0.006628597 -0.010626493 0.009668034 -0.018169867 -0.010291239 -0.070480146
0.06972409 -0.009214971 -0.055515826 0.038583968 0.060883787 -0.0040029204 0.035199337 0.035491858
-0.016973156 0.011681784 0.009026653 0.0940733 -0.0020845905 -0.078410394 0.01542156 -0.11639243
0.094228335 0.09962903 0.12988956 0.16743228 0.15211768 0.09775376 0.039525185 -0.05795533
-0.057925433 0.15807979 0.121842444 0.15182655 0.07792109 -0.07567892 -0.11944297 -0.091863826
-0.09840464 -0.109380275 0.03828297 0.0392854 -0.087700665 -0.040082317 -0.035368733 -0.037957415
0.057376318 0.016345197 -0.08320071 0.04855576 0.03301912 -0.07091458 0.030303765 -0.113965236
00000000: 563f 57bb 4bda dabd 91ea f3bd 756f d8bd
00000010: 1b2d 78bd 0b7b e6bd fcb6 913d df2f a8bd
00000020: f88a 863c 1743 1b3d b74a 8b3d abcf 66bd
00000030: 0290 13be 12f8 ac3d 8e7a cfbd 2bcc 813c
00000040: ab21 8d3c ba2d ce3a 8665 c1bc 9b3c 5a3c
00000050: 1aa2 9cbc dc06 673d 7b1f 513d bb51 383c
00000060: 4f5d 09bd 3389 563d bae6 af3c ebd7 563b
00000070: 93b6 bebd c08d c5bc 490d e53c bf05 25bd
00000080: 267a 1dbd c50c 4abd 5049 a33c 60e1 1a3c
00000090: 14e5 27bc ff17 a1bc 8f1e 103e a6b0 acbd
000000a0: 3e67 0ebe 6f79 f13c 2863 13bd 291b 823d
000000b0: f3c7 033e 7109 d43c 626f b43d 5432 57bd
000000c0: d646 523d 0e99 f03d b31a 9ebd 9253 81bc
000000d0: 5fa4 a43d 9e32 e13d 9df5 383d c192 c23b
000000e0: 6964 17bd 66af 8fbd e5cd 2cbd 65d9 833d
000000f0: 9b9f f8bb 5db7 183d fc58 e73c b2a3 13bd
00000100: bbae f73b 9469 9e3d 9dea 223c 1740 ca3d
00000110: cbe9 b4bd e9b5 75bd 2dc2 cdbd 4876 9d3d
00000120: 3159 85bd f715 efbd dd5b 3cbd 6d91 febc
00000130: 8023 123e 9175 d4bc ae0c e9bd 436f c23d
00000140: 4d8b 48bc 4db2 c33c aeda c4bd 2cbb 7b3c
00000150: d893 e33d fa6d a33d 1d09 15bd 2101 bdbb
00000160: 3d07 333d 3061 a53d b434 d93b be1a 2ebc
00000170: ac66 1e3c f9d8 94bc 969c 28bc e557 90bd
00000180: 81cb 8e3d 64fa 16bc 9064 63bd 390a 1e3d
00000190: 4761 793d ee2a 83bb 2e2d 103d e95f 113d
000001a0: 4a0b 8bbc f464 3f3c 87e4 133c 81a9 c03d
000001b0: a09d 08bb a195 a0bd b6aa 7c3c 285f eebd
000001c0: c9fa c03d 4e0a cc3d c501 053e 5e73 2b3e
000001d0: bdc4 1b3e 2033 c83d 29e5 213d 9162 6dbd
000001e0: 3843 6dbd abdf 213e 8888 f93d 6b78 1b3e
000001f0: 1895 9f3d 8dfd 9abd 849e f4bd 1a23 bcbd
00000200: 5f88 c9bd c402 e0bd 9bce 1c3d bae9 203d
00000210: 689c b3bd 5b2d 24bd cede 10bd 3c79 1bbd
00000220: 6e03 6b3d 5de6 853c 2265 aabd 68e2 463d
00000230: 0f3f 073d aa3b 91bd 9a3f f83c 9b66 e9bd

bias f4 [4]
-0.014926566 -0.15022475 -0.09992701 -0.069078065
00000000: 8e8e 74bc 84d4 19be 88a6 ccbd cd78 8dbd

weight f4 [128, 8, 3, 3]
-0.034231085 0.020713707 -0.03327543 -0.06858576 -0.027540797 0.059443902 0.035647877 0.06216006
-0.021823933 -0.0038891248 -0.009272093 -0.011040329 0.007219596 0.004402852 -0.012129963 0.0032069043
0.005863902 0.00775306 -0.00047870245 -0.0038712493 -0.000969504 -0.0006372804 0.0009931297 -0.015430749
-0.00054024963 0.01708974 -0.0038735238 -0.07648784 0.047666475 0.016208882 0.02038326 0.009797471
-0.030622419 -0.045135707 -0.039793473 -0.00722743 -0.00052605243 0.0074941698 -0.0017766022 -0.008766051
0.0062603788 0.0139939 0.012140584 0.00954765 -0.007066246 0.060468387 0.007035324 0.08867088
0.06103324 -0.053288117 -0.011467923 0.019332413 -0.060405992 0.016832173 0.03874017 0.027722785
-0.048577413 0.02143275 0.077805415 -0.010581442 0.0043045906 -0.003436591 0.038460452 -0.008131929
0.029494561 0.073106 0.026277728 -0.07240638 -0.058195025 -0.06542895 0.010544554 -0.023396352
-0.0078158425 -0.04622185 -0.0066665546 -0.08684034 -0.035695303 0.06343741 -0.05913781 -0.093754426
-0.007975209 -0.00037411196 0.007838621 -0.02765428 0.0025931676 -0.014937148 0.007775695 -0.0034214424
0.0035711909 0.005955052 0.00087454915 -0.0017118646 0.005319626 -0.025341198 -0.035840318 0.011674481
-0.008854101 -0.009627282 0.008333324 0.02778372 0.026732946 0.096837364 -0.014585591 -0.030586978
-0.0715873 -0.0581109 -0.06859545 -0.045846533 -0.0021589792 -0.00036956716 -0.0129872495 -0.007966399
-0.012177776 0.0046107923 -0.0062266407 -0.0023442665 0.015232273 -0.016849404 0.0035335317 -0.044266474
0.0521951 -0.00022756777 0.092164986 0.013825999 -0.044360414 -0.036690015 0.006686528 -0.059279397
-0.05574129 -0.06482048 -0.0077552055 -0.08423428 -0.0348529 0.04824973 0.005243149 0.032123506
0.0757425 0.089198396 -0.07726584 -0.00015133494 -0.010286456 0.073962666 -0.019564994 0.0029253033
0.0107080415 0.029761083 -0.07651447 -0.015197028 -0.03838899 -0.02101769 0.057305783 -0.024387075
0.0071297837 0.0014386993 0.006525395 0.019087832 -0.0031466119 0.008273264 0.01437725 -0.010710445
0.009557635 0.0128005985 0.0010565507 -0.0036488273 -0.0040750913 -0.0010599521 0.000631257 0.007796718
-0.01690336 0.0085077975 0.018089492 0.042123433 -0.043726444 0.034713037 -0.042768408 -0.02390168
0.034658834 0.010200858 -0.059509583 -0.029764358 -0.0027727464 -0.002479761 -0.0013603609 0.01032573
-0.026025256 0.010758696 0.040462315 -0.03483751 -0.0030652385 0.043567836 0.054351706 0.055768076
0.059216693 0.06276965 -0.033599924 0.009253758 0.040932573 -0.0764322 0.0007048174 -0.03740106
-0.03898425 0.020454355 0.050310105 0.0019944021 0.027505757 0.023129031 0.04928757 -0.03906429
0.06120215 0.08869339 0.08588075 -0.04402116 -0.01983827 0.026782257 0.02199155 -0.03190984
-0.028936721 0.081461385 0.018734017 0.084077455 -0.07373467 -0.06977616 -0.03549583 -0.0129877115
-0.073073134 -0.0021915638 0.014154369 0.004325277 -0.0035852753 -0.017016398 0.017873581 0.009423641
0.0023328795 0.0056831515 0.0072420132 0.038417973 0.022477772 0.029683566 -0.04289891 -0.07779937
0.0029371846 0.01430658 -0.034330957 -0.009851518 0.025172401 0.08995166 -0.008804268 0.023809
-0.087731645 0.0319259 -0.031487964 0.03451986 0.0055644624 0.011809669 0.022639535 -0.023015374
00000000: e535 0cbd cbaf a93c d14b 08bd b176 8cbd
00000010: 3d9d e1bc 737b 733d 8203 123d 8c9b 7e3d
00000020: 1bc8 b2bc b0e0 7ebb fae9 17bc 7fe2 34bc
00000030: 5c92 ec3b cd45 903b c1bc 46bc ed2a 523b
00000040: fa25 c03b 620d fe3b 5bfa fab9 c9b4 7dbb
00000050: 5026 7eba 2a0f 27ba e72b 823a 41d1 7cbc
00000060: 8a9f 0dba c8ff 8b3c f2da 7dbb a8a5 9cbd
00000070: ec3d 433d 7dc8 843c cbfa a63c 9285 203c
00000080: dedb fabc 38e0 38bd 7bfe 22bd 14d4 ecbb
00000090: c8e6 09ba a791 f53b e1dc e8ba 7c9f 0fbc
000000a0: dd23 cd3b ac46 653c 4de9 463c bf6d 1c3c
000000b0: f88b e7bb b3ad 773d 9388 e63b 1499 b53d
000000c0: fefd 793d a444 5abd f5e3 3bbc 025f 9e3c
000000d0: 466c 77bd a0e3 893c 03ae 1e3d e51a e33c
000000e0: 1cf9 46bd bc93 af3c 7258 9f3d c95d 2dbc
000000f0: 860d 8d3b 6e38 61bb b588 1d3d c83b 05bc
00000100: 949e f13c 99b8 953d 6444 d73c cc49 94bd
00000110: e85d 6ebd 9dff 85bd 11c3 2c3c b5a9 bfbc
00000120: 050e 00bc 1f53 3dbd 1d73 dabb 59d9 b1bd
00000130: 3d35 12bd 79eb 813d 7d3a 72bd 5202 c0bd
00000140: 73aa 02bc 7524 c4b9 8f6d 003c 3b8b e2bc
00000150: 22f2 293b f1ba 74bc 42cb fe3b 473a 60bb
00000160: a40a 6a3b 9922 c33b 0042 653a a560 e0ba
00000170: 4250 ae3b 5898 cfbc 4ccd 12bd 5346 3f3c
00000180: cb10 11bc bfbb 1dbc 7f88 083c af9a e33c
00000190: 0dff da3c ab52 c63d 67f8 6ebc 8b91 fabc
000001a0: 5d9c 92bd b205 6ebd c57b 8cbd 93c9 3bbd
000001b0: a97d 0dbb 77c2 c1b9 79c8 54bc 8085 02bc
000001c0: 4b85 47bc 2116 973b d908 ccbb 44a2 19bb
000001d0: c990 793c c307 8abc d392 673b c350 35bd
000001e0: 87ca 553d 429f 6eb9 ffc0 bc3d 7186 623c
000001f0: 44b3 35bd 4548 16bd aa1a db3b f4ce 72bd
00000200: fb50 64bd 9ac0 84bd 611f febb 0683 acbd
00000210: eac1 0ebd 82a1 453d b9ce ab3b f093 033d
00000220: e21e 9b3d a6ad b63d 8d3d 9ebd aaaf 1eb9
00000230: 8688 28bc bd79 973d c446 a0bc 72b6 3f3b
00000240: c870 2f3c 84cd f33c 9eb3 9cbd f5fc 78bc
00000250: c63d 1dbd 4a2d acbc 78b9 6a3d 67c7 c7bc
00000260: f6a0 e93b bd92 bc3a fbd2 d53b 165e 9c3c
00000270: 6337 4ebb 968c 073c 8f8e 6b3c dd7a 2fbc
00000280: a097 1c3c 9ab9 513c f57b 8a3a 2a21 6fbb
00000290: 5888 85bb 17ee 8aba f17a 253a 9c7b ff3b
000002a0: ea78 8abc 4a64 0b3c 6a30 943c 9f89 2c3d
000002b0: 801a 33bd 422f 0e3d ed2d 2fbd 75cd c3bc
000002c0: 6cf6 0d3d 8021 273c 52c0 73bd 62d4 f3bc
000002d0: f7b6 35bb 7c83 22bb 234e b2ba 402d 293c
000002e0: eb32 d5bc 3e45 303c d0bb 253d c7b1 0ebd
000002f0: 2be2 48bb 3074 323d e59f 5e3d 116d 643d
00000300: 348d 723d 608d 803d 13a0 09bd 139d 173c
00000310: eaa8 273d 7c88 9cbd 7fc3 383a db31 19bd
00000320: f3ad 1fbd e48f a73c f811 4e3d 84b4 023b
00000330: c153 e13c 1879 bd3c c3e1 493d e001 20bd
00000340: 1baf 7a3d e1a4 b53d 3fe2 af3d 884f 34bd
00000350: de83 a2bc 7766 db3c a027 b43c e4b3 02bd
00000360: b40c edbc 3ad5 a63d 1578 993c cd30 ac3d
00000370: 3402 97bd cee6 8ebd 1364 11bd 69ca 54bc
00000380: 5ea7 95bd 57a0 0fbb bae7 673c 0ebb 8d3b
00000390: f0f6 6abb f965 8bbc 9e6b 923c 9d65 1a3c
000003a0: 39e3 183b bb39 ba3b 694e ed3b 2a5c 1d3d
000003b0: 4e23 b83c f32a f33c c4b6 2fbd 4755 9fbd
000003c0: c87d 403b 2566 6a3c 9e9e 0cbd 4368 21bc
000003d0: 5a36 ce3c 9338 b83d c73f 10bc 180b c33c
000003e0: a6ac b3bd bcc4 023d 86f9 00bd b264 0d3d
000003f0: 1856 b63b 587d 413c 8c76 b93c bd8a bcbc

bias f4 [128]
0.016678762 -0.01995042 -0.028250804 -0.032411333 -0.0014782103 0.040064692 0.07692753 0.06870026
0.009364664 0.029469093 -0.080382854 -0.030698609 0.0061390894 -0.0315907 0.04823388 0.053229086
-0.01961161 0.05323071 0.08359957 0.08561082 0.10825065 -0.08054648 0.050281074 0.08540647
-0.047670387 0.022118326 0.0071746083 0.027004892 -0.098141834 -0.05083466 -0.02863295 0.08529446
0.022285974 -0.03882423 0.07821097 -0.029527249 0.0028551552 -0.02135996 0.07054605 0.026452953
0.0035412346 -0.07076342 0.074188374 -0.011755755 0.08965505 0.031455882 0.0063974126 0.05424256
0.07057684 -0.05757335 0.077137046 0.04992377 -0.05773525 -0.021649824 -0.10193659 0.081799544
0.034865227 0.09430692 0.042641353 -0.04920189 -0.06679602 0.0160832 -0.0001215904 0.031561125
-0.04503979 -0.0066669555 -0.06674536 0.037184685 -0.041706316 0.084181614 -0.03990575 -0.01805775
0.06661974 0.06980104 -0.07486138 0.0023155964 -0.027240945 0.013356754 -0.08004067 0.024235155
0.03501247 -0.05784045 -0.01673635 0.057983454 0.05245008 0.08550623 0.041417625 -0.086572126
-0.11443758 -0.0658492 0.110369004 -0.0073483195 -0.09095859 0.03129088 -0.06975695 0.05301044
0.080163285 0.08282714 0.024293864 0.016936833 -0.041921936 -0.017779175 0.049242478 0.036458388
-0.11243833 0.07973548 -0.018398646 0.055432245 0.10497527 -0.055945307 0.022389095 0.040064972
-0.09170831 0.004460654 0.094588555 0.015883533 0.08472785 -0.045954637 -0.01699002 0.07606828
-0.01641693 0.08893503 -0.07107393 -0.045975637 -0.044690315 0.04866985 0.07514282 0.062123634
00000000: e6a1 883c 106f a3bc 3b6e e7bc bfc1 04bd
00000010: 82c0 c1ba e01a 243d 2e8c 9d3d b9b2 8c3d
00000020: 3f6e 193c 2b69 f13c c49f a4bd a67b fbbc
00000030: 6a2a c93b 4065 01bd e490 453d be06 5a3d
00000040: 87a8 a0bc 7208 5a3d 4036 ab3d ba54 af3d
00000050: 84b2 dd3d 8ef5 a4bd 87f3 4d3d 96e9 ae3d
00000060: 0642 43bd 7e31 b53c fa18 eb3b 5d39 dd3c
00000070: 96fe c8bd 0138 50bd a68f eabc ddae ae3d
00000080: 1391 b63c 2806 1fbd 132d a03d 21e3 f1bc
00000090: 8e1d 3b3b 15fb aebc 737a 903d ddb3 d83c
000000a0: 0f14 683b 69ec 90bd 13f0 973d 369b 40bc
000000b0: 119d b73d e2d7 003d 63a1 d13b 722d 5e3d
000000c0: 978a 903d 08d2 6bbd 07fa 9d3d de7c 4c3d
000000d0: cc7b 6cbd f95a b1bc 22c4 d0bd 8586 a73d
000000e0: d7ce 0e3d fd23 c13d b3a8 2e3d ec87 49bd
000000f0: 5acc 88bd eac0 833c 59fe feb8 3d46 013d
00000100: a57b 38bd 7a76 dabb cbb1 88bd f84e 183d
00000110: 3ed4 2abd 6967 ac3d 3674 23bd d9ed 93bc
00000120: ee6f 883d d9f3 8e3d ec50 99bd 43c1 173b
00000130: 6728 dfbc 49d6 5a3c 5dec a3bd ce88 c63c
00000140: 3c69 0f3d 1cea 6cbd ab1a 89bc 0f80 6d3d
00000150: e5d5 563d e41d af3d 87a5 293d ba4c b1bd
00000160: 405e eabd f2db 86bd 2509 e23d 2cca f0bb
00000170: 7f48 babd de2a 003d bbdc 8ebd 7a21 593d
00000180: a62c a43d 47a1 a93d ed03 c73c 1dbf 8a3c
00000190: 56b6 2bbd a2a5 91bc 7bb2 493d 6455 153d
000001a0: 1146 e6bd 5b4c a33d c2b8 96bc ec0c 633d
000001b0: 46fd d63d e826 65bd 5669 b73c 2b1b 243d
000001c0: 91d1 bbbd ae2a 923b a5b7 c13d 2f1e 823c
000001d0: cc85 ad3d ee3a 3cbd a82e 8bbc b0c9 9b3d
000001e0: cc7c 86bc 9223 b63d 358f 91bd f350 3cbd
000001f0: 310d 37bd 095a 473d 7be4 993d 5a75 7e3d

weight f4 [4, 1, 3, 3]
0.32435784 -0.18839183 0.18387285 0.23654503 0.13112862 0.014415691 -0.15571918 0.08109544
-0.23133785 -0.12735577 0.072323576 -0.07554006 -0.17492388 -0.09479976 -0.14863947 -0.25768277
0.032907303 0.050492793 0.09048526 0.105506524 -0.17878726 -0.31821203 0.24128246 0.25869358
-0.09973753 0.19058453 -0.23963034 -0.2838758 0.2300201 0.025082763 0.144397 -0.22558239
-0.21814242 0.19172807 0.129046 0.15081142
00000000: 3b12 a63e cae9 40be 2a49 3c3e dc38 723e
00000010: 9546 063e ca2f 6c3c d974 1fbe 5e15 a63d
00000020: d4e3 6cbe 8d69 02be 621e 943d bfb4 9abd
00000030: 3f1f 33be 6026 c2bd f234 18be ffee 83be
00000040: cfc9 063d 88d1 4e3d 5650 b93d ce13 d83d
00000050: 0214 37be b0ec a2be c012 773e 7c73 843e
00000060: 3143 ccbd 9728 433e a861 75be 2b58 91be
00000070: 648a 6b3e 5e7a cd3c cfdc 133e 12ff 66be
00000080: ba60 5fbe 5d54 443e a224 043e 4f6e 1a3e

bias f4 [4]
0.009567296 -0.35218877 -0.40326133 -0.37177518
00000000: 26c0 1c3c 1652 b4be 4578 cebe 5159 bebe

weight f4 [4, 4, 3, 3]
-0.08108948 -0.16558024 -0.01668007 -0.16620208 -0.041339364 0.029661667 -0.0056453426 -0.083064795
-0.061475325 -0.0061963 0.11367443 0.16767667 -0.04455683 -0.03614515 0.120094836 -0.06081017
-0.016057653 0.16655536 0.16164255 0.09281098 0.16197523 0.19071789 0.17235616 0.0060183387
-0.039066188 0.18463747 0.20290159 0.12246671 0.058864914 0.07805896 0.11930871 0.1936185
-0.08177552 0.042783283 0.017828885 0.07460763 -0.0061476897 -0.06673121 0.19101617 -0.09685527
0.10729077 0.16316362 -0.00742964 0.17650357 0.16691379 0.11612671 -0.087216996 0.06749161
-0.06670672 -0.044814628 -0.14582457 -0.11289157 -0.04676289 0.06546259 -0.04841403 0.09072664
-0.042868417 -0.16411825 -0.14940968 -0.0031674008 -0.07399872 -0.01059395 -0.052149527 -0.084363855
-0.07086405 -0.1935107 -0.12445528 0.056518972 -0.1761613 0.056844544 -0.1867061 -0.039009035
0.072856754 -0.053746305 -0.08463751 0.044563968 0.1729126 0.05383212 -0.119531654 0.06082843
0.074750766 0.050907817 -0.0713913 -0.167757 -0.05424392 0.1211316 -0.075677045 -0.13778864
0.033348728 -0.119347095 -0.031980045 -0.13781823 -0.042502485 0.10582349 -0.014687413 -0.01946168
0.042725947 -0.20386252 -0.19522531 0.02912845 -0.11338916 -0.031728115 -0.09101255 -0.09826037
0.0755432 -0.08002979 0.03605736 0.075756915 -0.020524055 -0.048923112 -0.018257897 -0.084178425
0.0772779 -0.085508205 -0.123854846 -0.09483401 -0.1185236 0.06101998 0.13459991 -0.044641107
0.14062193 0.15965365 0.042286955 0.07773298 -0.012394732 0.16654073 0.06303476 0.15113154
0.15985693 0.09106757 -0.07693195 -0.046722203 -0.018714426 -0.058052078 0.1592052 0.010730217
0.20696855 -0.039388068 0.082861915 -0.027887799 0.04643388 0.15280649 0.07474391 -0.025371833
00000000: 3e12 a6bd de8d 29be a4a4 88bc e130 2abe
00000010: 7753 29bd 06fd f23c 91fc b8bb e01d aabd
00000020: 8dcd 7bbd 550a cbbb 24ce e83d 6fb3 2b3e
00000030: 3981 36bd f00c 14bd 48f4 f53d 1614 79bd
00000040: 578b 83bc 7d8d 2a3e a085 253e af13 be3d
00000050: d6dc 253e 8d4b 433e 227e 303e 7c35 c53b
00000060: de03 20bd 9b11 3d3e 6fc5 4f3e d4cf fa3d
00000070: 561c 713d 60dd 9f3d 2058 f43d ee43 463e
00000080: ed79 a7bd 863d 2f3d e20d 923c e3cb 983d
00000090: 8f72 c9bb 5faa 88bd be99 433e 0e5c c6bd
000000a0: 43bb db3d 5d14 273e 5674 f3bb 5abd 343e
000000b0: 73eb 2a3e d7d3 ed3d d39e b2bd 0b39 8a3d
000000c0: 889d 88bd 8b8f 37bd 0953 15be b233 e7bd
000000d0: 728a 3fbd 4011 863d ca4d 46bd e3ce b93d
000000e0: cb96 2fbd 9d0e 28be dafe 18be 2b94 4fbb
000000f0: a48c 97bd 3f92 2dbc be9a 55bd f5c6 acbd
00000100: 2c21 91bd ab27 46be 69e2 febd 7080 673d
00000110: a163 34be d3d5 683d e22f 3fbe f0c7 1fbd
00000120: ec35 953d 1625 5cbd 6e56 adbd b588 363d
00000130: 0010 313e 127f 5c3d 03cd f4bd 3b27 793d
00000140: ee16 993d b784 503d 9a35 92bd 7ec8 2bbe
00000150: df2e 5ebd d813 f83d 91fc 9abd 7718 0dbe
00000160: ad98 083d 406c f4bd 82fd 02bd 3920 0dbe
00000170: 1617 2ebd fcb9 d83d 7aa3 70bc 1a6e 9fbc
00000180: 6701 2f3d 56c1 50be 25e9 47be ca9e ee3c
00000190: 9338 e8bd 57f5 01bd ca64 babd bc3c c9bd
000001a0: 65b6 9a3d a9e6 a3bd e2b0 133d 7126 9b3d
000001b0: 1022 a8bc 9a63 48bd 9691 95bc bd65 acbd
000001c0: e043 9e3d ed1e afbd 9ca7 fdbd 5538 c2bd
000001d0: 80bc f2bd 16f0 793d 8fd4 093e 98d9 36bd
000001e0: 32ff 0f3e 3f7c 233e 1635 2d3d 7832 9f3d
000001f0: 4613 4bbc a789 2a3e 5e18 813d 3ac2 1a3e
00000200: 89b1 233e a281 ba3d 808e 9dbd c85f 3fbd
00000210: ff4e 99bc 04c8 6dbd b006 233e cbcd 2f3c
00000220: 90ef 533e 6255 21bd 82b3 a93d f474 e4bc
00000230: 7431 3e3d 4e79 1c3e 5613 993d 97d8 cfbc

bias f4 [4]
-0.12171211 0.09359527 0.114364676 -0.03741451
00000000: 3344 f9bd e0ae bf3d 0738 ea3d f53f 19bd

weight f4 [4, 4, 3, 3]
-0.078053966 0.043175228 0.026104532 0.013021801 0.08741578 0.1124625 -0.12908939 0.04420732
0.109650664 0.013478142 -0.18188554 -0.07223393 -0.08406392 0.002992434 0.05143117 -0.018945388
-0.016258769 -0.06863793 -0.065720566 -0.033027224 -0.0107088415 -0.09654869 0.0086034145 0.09670313
-0.10502653 -0.18957017 -0.09801286 0.09714793 -0.13676709 0.1549351 -0.099291295 -0.046158083
-0.0028978481 -0.067552425 0.07416378 0.11891438 -0.088374384 -0.09149499 -0.032048825 -0.030717347
-0.086367026 -0.07008914 -0.08488833 -0.11198194 0.045099434 0.08327994 -0.07347987 0.03954378
0.009250973 0.095401116 -0.05498831 0.054906104 0.10330947 -0.021089915 0.10539704 0.19870658
-0.062078778 -0.041285463 0.083224766 -0.064912915 0.109008454 -0.08054175 0.177768 -0.06489437
-0.18977533 -0.1256814 -0.115819484 -0.053037617 -0.044829957 0.045567613 -0.16267274 0.058873583
0.023371795 -0.030134631 0.21497248 0.14490676 0.16165859 0.16078255 -0.04027333 0.048601463
0.16081792 0.004205203 -0.18402508 0.0461414 -0.05156332 0.030216396 -0.17931423 -0.21325245
-0.20493764 -0.14114681 -0.15342973 -0.08425389 0.0028701727 -0.011181044 -0.15599427 -0.09099819
-0.004937748 0.047851134 0.00071054505 0.14610294 -0.018010402 0.09640867 0.03344312 0.0014592594
-0.0017670983 0.059372846 0.10000851 0.120216 -0.10650842 -0.19744648 0.0014476667 0.03783378
-0.00906335 0.08456055 0.08192843 -0.1401357 0.0011747717 0.08876538 0.015310964 0.13262826
-0.017208211 0.06613142 0.005904719 0.17240752 0.008399323 0.08870429 0.109793775 0.0064635794
0.18536176 -0.044007882 0.057522852 0.104197 0.058434833 -0.016086325 0.021842698 0.050424647
-0.064102836 0.04979795 -0.17820056 0.08714842 -0.17689756 0.045154948 -0.19396235 -0.07525867
00000000: c2da 9fbd 82d8 303d 2cd9 d53c 6459 553c
00000010: 0b07 b33d bd52 e63d 0230 04be bc12 353d
00000020: 8790 e03d 6dd3 5c3c 3440 3abe 62ef 93bd
00000030: b429 acbd b61c 443b 7ea9 523d 5c33 9bbc
00000040: 1c31 85bc 0b92 8cbd 8198 86bd 8e47 07bd
00000050: 2374 2fbc 52bb c5bd 56f5 0c3c 4a0c c63d
00000060: 2618 d7bd af1e 42be f7ba c8bd 7ef5 c63d
00000070: ac0c 0cbe 4fa7 1e3e 3c59 cbbd 4210 3dbd
00000080: d3e9 3dbb ed58 8abd 2ee3 973d 6289 f33d
00000090: a1fd b4bd ba61 bbbd a145 03bd f2a2 fbbc
000000a0: 32e1 b0bd e58a 8fbd efd9 adbd ca56 e5bd
000000b0: 2fba 383d ac8e aa3d 9d7c 96bd a9f8 213d
000000c0: 6591 173c a961 c33d 6c3b 61bd 39e5 603d
000000d0: ea93 d33d c2c4 acbc 67da d73d bd79 4b3e
000000e0: 5146 7ebd f21a 29bd bf71 aa3d 10f1 84bd
000000f0: d33f df3d 13f3 a4bd d108 363e 57e7 84bd
00000100: 7754 42be a0b2 00be c432 edbd f93d 59bd
00000110: 9e9f 37bd 1ba5 3a3d af93 26be 6d25 713d
00000120: 3576 bf3c e7dc f6bc bf21 5c3e 7062 143e
00000130: d489 253e 2ea4 243e a6f5 24bd 5412 473d
00000140: 74ad 243e cdcb 893b 1271 3cbe c4fe 3c3d
00000150: 0f34 53bd 6088 f73c 269e 37be da5e 5abe
00000160: 2cdb 51be ca88 10be af1c 1dbe 4e8d acbd
00000170: 8219 3c3b b330 37bc f6bc 1fbe 425d babd
00000180: d5cc a1bb 8dff 433d df43 3a3a 029c 153e
00000190: 8d8a 93bc e971 c53d a7fb 083d 9f44 bf3a
000001a0: fb9d e7ba f130 733d 43d1 cc3d ce33 f63d
000001b0: 1621 dabd 692f 4abe a2bf bd3a 98f7 1a3d
000001c0: 727e 14bc 152e ad3d 18ca a73d bc7f 0fbe
000001d0: ccfa 993a a0ca b53d d6da 7a3c b4cf 073e
000001e0: 3cf8 8cbc e96f 873d 5f7c c13b 998b 303e
000001f0: 509d 093c 98aa b53d 8fdb e03d 6fcc d33b
00000200: 79cf 3d3e 9c41 34bd 159d 6b3d 3d65 d53d
00000210: 5d59 6f3d 78c7 83bc 75ef b23c 138a 4e3d
00000220: 5948 83bd eff8 4b3d 357a 36be df7a b23d
00000230: a224 35be 65f4 383d 119e 46be 3821 9abd

bias f4 [4]
-0.05085888 0.14581789 -0.19766745 0.08904733
00000000: 6751 50bd 4951 153e 5669 4abe 725e b63d
