result/PanNet/WV3exp0/PanNet.pkl (torch, 394897 bytes, 28 tensors)

weight f4 [4, 4, 3, 3]
0.16834287 0.12077683 0.12678768 0.050357893 0.095515974 0.083380446 0.018725082 0.14761434
0.101302095 -0.0121224215 0.20311745 0.1305882 0.14825124 0.3580356 0.25416735 0.111886755
0.28537583 0.17735812 0.06369627 0.076180056 0.07177564 0.019701965 0.043370847 0.015389754
0.044314437 0.07628021 0.032365847 0.031793997 -0.003741708 -0.073491685 -0.036508348 -0.0072743497
-0.03900254 -0.05314452 -0.08358583 -0.08046568 -0.06543102 -0.038744483 -0.002925538 -0.070195384
0.09929853 0.1286404 -0.047479838 0.1626643 0.110709764 -0.00663199 -0.07511544 -0.053296804
-0.04662825 -0.1901777 -0.16363214 -0.0009025844 -0.2291336 -0.18278904 -0.03907582 -0.08998178
-0.100001894 0.028388558 0.09053767 0.053573895 -0.005506114 0.033285815 -0.010132308 -0.024883425
-0.053024888 -0.08061436 0.034975782 0.099763274 0.11722415 0.0218437 0.13339852 0.20083329
-0.060581416 0.0025763554 0.008003384 -0.10633094 0.037081413 0.12586242 -0.09460393 0.16033055
0.1971293 -0.0056513213 0.01579679 0.00560027 -0.0039186208 -0.108973235 -0.14407359 -0.030396853
-0.21043456 -0.18102325 0.031154584 -0.0032095206 -0.008912019 0.06767518 0.08972255 0.0841976
0.06569869 0.06612495 0.03342137 -0.0049676923 -0.022832116 -0.02116454 0.05304251 0.17731641
0.16945611 0.014362733 0.15717024 0.16401343 -0.032308973 -0.1420357 -0.10150985 -0.058740456
-0.2086837 -0.22453581 0.005735211 -0.20160857 -0.1281047 -0.047360614 -0.153211 -0.123844884
-0.117728375 -0.15488026 -0.044704903 -0.05072725 -0.02455046 0.011968139 0.018722339 -0.028593834
-0.046947356 -0.018534126 -0.09179877 -0.11378508 0.025245536 -0.031223902 -0.019648235 -0.01610035
-0.09175066 -0.08221213 0.0023014715 -0.0980215 -0.0795202 -0.053947672 -0.11904039 -0.07510244
00000000: 1362 2c3e d859 f73d a1d4 013e 1444 4e3d
00000010: e19d c33d 5ec3 aa3d 5865 993c 3728 173e
00000020: 7977 cf3d 1f9d 46bc 05fe 4f3e eab8 053e
00000030: 2ccf 173e 7150 b73e 3922 823e e224 e53d
00000040: c81c 923e 5e9d 353e 3173 823d 4a04 9c3d
00000050: 1bff 923d 0466 a13c a1a5 313d 4f25 7c3c
00000060: 0e83 353d cc38 9c3d 0d92 043d 6c3a 023d
00000070: 7137 75bb cf82 96bd c789 15bd ab5d eebb
00000080: 21c1 1fbd 11ae 59bd 0c2f abbd 31cb a4bd
00000090: b300 86bd 89b2 1ebd 62ba 3fbb 99c2 8fbd
000000a0: 075d cb3d 4fba 033e 387a 42bd 7891 263e
000000b0: cdbb e23d 2a51 d9bb 20d6 99bd c04d 5abd
000000c0: 44fd 3ebd f1bd 42be 2f8f 27be 6a9b 6cba
000000d0: 00a2 6abe 0d2d 3bbe f80d 20bd 5e48 b8bd
000000e0: cbcd ccbd 1f8f e83c d06b b93d 4d70 5b3d
000000f0: a26c b4bb b556 083d fb01 26bc 53d8 cbbc
00000100: a030 59bd 2419 a5bd c442 0f3d b050 cc3d
00000110: 3713 f03d 8ff1 b23c 9f99 083e 3ea7 4d3e
00000120: 3824 78bd 12d8 283b a020 033c 09c4 d9bd
00000130: aee2 173d 14e2 003e b5bf c1bd b12d 243e
00000140: 43dc 493e b82e b9bb 4568 813c 7882 b73b
00000150: c667 80bb 5c2d dfbd 0788 13be d202 f9bc
00000160: 287c 57be 295e 39be e637 ff3c d256 52bb
00000170: b803 12bc 4999 8a3d 75c0 b73d cb6f ac3d
00000180: 098d 863d 856c 873d d9e4 083d 06c8 a2bb
00000190: 6b0a bbbc 4261 adbc 1a43 593d 6f92 353e
000001a0: e785 2d3e ab51 6b3c 3cf1 203e 23f3 273e
000001b0: 6a56 04bd ce71 11be 65e4 cfbd d599 70bd
000001c0: 2eb1 55be b7ec 65be 70ee bb3b 7a72 4ebe
000001d0: e12d 03be 34fd 41bd 58e3 1cbe 63a2 fdbd
000001e0: 931b f1bd ee98 1ebe 7d1c 37bd 60c7 4fbd
000001f0: 0c1e c9bc 0316 443c 975f 993c 9e3d eabc
00000200: df4b 40bd e1d4 97bc fe00 bcbd 2708 e9bd
00000210: bacf ce3c 45c9 ffbc 56f5 a0bc e2e4 83bc
00000220: c5e7 bbbd d55e a8bd 49d4 163b 7fbf c8bd
00000230: 7ddb a2bd 3cf8 5cbd 73cb f3bd 4fcf 99bd

bias f4 [4]
-0.040754836 -0.032598346 0.07570869 -0.018002123
00000000: 8bee 26bd d885 05bd 280d 9b3d 3079 93bc

weight f4 [4, 4, 3, 3]
-0.082713835 -0.17264535 -0.11836636 -0.21285379 -0.2381221 -0.25092256 -0.20006216 -0.12910928
-0.051773325 -0.11051547 -0.06221841 -0.035848767 -0.12753198 -0.18829834 -0.050315216 -0.09042845
-0.09930935 -0.095622025 0.06342636 0.07710501 0.04723997 0.03744547 0.08230904 0.050365604
0.011987441 0.0105488105 0.031504985 -0.048245896 -0.04088742 0.0022790472 -0.065555245 0.036638502
0.036236245 0.044654485 0.06612376 0.048700213 -0.066347174 0.08096686 0.0016009373 0.094825216
-0.08392104 0.033050984 -0.027931578 0.022104016 0.10943757 0.10991806 -0.00049307256 -0.095833644
-0.0091283275 -0.007916213 -0.051298615 0.0077768746 -0.02132668 -0.067938894 0.0014176136 -0.022245876
-0.044164423 -0.008973038 -0.016468152 -0.044694394 0.038600847 0.033998813 0.026153943 0.18793634
0.2801257 0.20111853 0.20744058 0.35002378 0.25057256 0.14873497 0.28745523 0.1738411
0.10446657 0.060299627 -0.09917428 -0.12661663 -0.028980762 -0.038337167 -0.059791666 -0.061750177
-0.13443479 0.004223964 -0.05029174 -0.17032121 0.07848576 -0.15282415 -0.15080607 0.056208387
0.045524176 -0.029353535 0.075007744 -0.024100251 -0.020505274 0.038655657 -0.020241795 -0.07059838
0.05291957 0.032210205 -0.027160894 0.13915958 0.08233048 -0.019809294 -0.043844946 -0.0357969
-0.078769006 -0.016316727 0.005062207 0.08415764 -0.029418405 -0.11288774 -0.09262449 -0.016941333
-0.15788458 -0.10244348 -0.031522945 -0.13551325 -0.110069595 -0.07402394 -0.14078884 -0.07936867
-0.099349014 -0.12525514 -0.09851172 -0.024964796 -0.096461155 -0.03854375 -0.06365697 -0.026501272
-0.015203774 0.032354176 0.090557694 0.07999317 0.015563674 0.05962975 0.07176511 -0.04123349
-0.10687453 -0.06767961 -0.09463296 -0.15055946 -0.12507808 -0.082664356 -0.11718388 -0.113716744
00000000: df65 a9bd f1c9 30be 106a f2bd 58f6 59be
00000010: 48d6 73be ec78 80be 18dd 4cbe 3935 04be
00000020: 4410 54bd ef55 e2bd bbd8 7ebd 28d6 12bd
00000030: be97 02be 48d1 40be 5417 4ebd 8d32 b9bd
00000040: b362 cbbd 7bd5 c3bd aee5 813d 3be9 9d3d
00000050: b37e 413d 6c60 193d a491 a83d 2a4c 4e3d
00000060: f966 443c ebd4 2c3c 5f0b 013d 7d9d 45bd
00000070: 9179 27bd 115c 153b d441 86bd 4112 163d
00000080: 756c 143d 9fe7 363d e56b 873d e079 473d
00000090: 07e1 87bd f4d1 a53d 8bd6 d13a b933 c23d
000000a0: cbde abbd 7860 073d c4d0 e4bc 7b13 b53c
000000b0: ce20 e03d b81c e13d 8a41 01ba 6e44 c4bd
000000c0: fb8e 15bc 01b3 01bc 7f1e 52bd 27d5 fe3b
000000d0: 4ab5 aebc 8c23 8bbd 38cf b93a fc3c b6bc
000000e0: c1e5 34bd a603 13bc 38e8 86bc 7811 37bd
000000f0: ec1b 1e3d 5742 0b3d cb40 d63c 6272 403e
00000100: a36c 8f3e 04f2 4d3e 4e6b 543e 5136 b33e
00000110: 0c4b 803e fb4d 183e 552d 933e 6703 323e
00000120: 92f2 d53d befc 763d e31b cbbd caa7 01be
00000130: 1069 edbc 6f07 1dbd 1be8 74bd c1ed 7cbd
00000140: 46a9 09be 2e69 8a3b b6fe 4dbd af68 2ebe
00000150: 24bd a03d ef7d 1cbe e86c 1abe c43a 663d
00000160: 8f77 3a3d d376 f0bc a99d 993d e46d c5bc
00000170: adfa a7bc 6555 1e3d 1fd2 a5bc e295 90bd
00000180: 31c2 583d d9ee 033d 8680 debc d97f 0e3e
00000190: e29c a83d 1a47 a2bc c296 33bd c59f 12bd
000001a0: a551 a1bd a8aa 85bc dfe0 a53b d75a ac3d
000001b0: defe f0bc b031 e7bd e9b1 bdbd 8dc8 8abc
000001c0: 7fac 21be e3cd d1bd 341e 01bd fcc3 0abe
000001d0: 2b6c e1bd dd99 97bd f32a 10be 0b8c a2bd
000001e0: 7f77 cbbd e242 00be 83c0 c9bd f982 ccbc
000001f0: 6d8d c5bd 0de0 1dbd 965e 82bd 3219 d9bc
00000200: 4019 79bc d085 043d 5076 b93d 76d3 a33d
00000210: c8fe 7e3c 533e 743d 96f9 923d 73e4 28bd
00000220: 09e1 dabd 9b9b 8abd edce c1bd 422c 1abe
00000230: 7814 00be ee4b a9bd 1afe efbd 53e4 e8bd

bias f4 [4]
-0.073838435 -0.08870375 -0.15280288 -0.07769569
00000000: 9b38 97bd 50aa b5bd 5c78 1cbe eb1e 9fbd

weight f4 [32, 5, 3, 3]
-0.2507586 -0.022024723 -0.0561579 -0.17373748 0.03737842 -0.0005063363 -0.14737499 -0.051241305
-0.08078193 0.043603938 -0.13429727 -0.11161228 0.087472305 -0.04978276 0.0045557646 -0.0734074
-0.15030019 -0.015452955 -0.14335832 -0.11402424 0.035935123 -0.027331412 -0.13128842 -0.005052525
0.0791406 -0.04929144 -0.03526563 0.09465069 -0.046277504 -0.051229518 -0.073708914 0.0606261
-0.07069172 -0.13655053 -0.064581566 0.08546587 -0.04030564 -0.1240031 -0.15246804 0.066368155
-0.029344864 -0.14061463 0.071855985 -0.13894713 0.0037025819 0.17877927 0.0066232313 -0.01910633
0.194727 0.118438505 -0.12806904 0.08774031 -0.1303292 -0.02914081 0.027465219 0.13666673
0.055804882 -0.02721689 0.03378925 0.101550885 0.1170416 0.06735604 0.13257124 0.08097861
-0.11080358 0.09295111 0.11151753 0.015591143 0.06201726 0.016269395 -0.05449776 0.10310561
-0.050425645 0.05509375 -0.08413216 -0.10781573 -0.08822785 0.083287045 -0.12774463 0.035502777
0.038660564 -0.11216346 -0.008404638 -0.0855138 -0.069383316 -0.113797486 -0.08592301 0.010231471
0.10611121 0.023241345 0.097351246 0.105365574 -0.028406365 -0.08205541 -0.016955957 0.059802487
0.07077918 -0.06844015 -0.053861108 -0.036549114 -0.04483916 -0.025040397 0.050436273 0.0068301037
0.06793652 -0.056299884 0.029931515 0.11218577 0.1122137 0.007440359 -0.055329755 -0.053021066
0.08354439 0.043974563 -0.042971157 -0.10932597 -0.11696536 -0.11448637 0.011511002 -0.044059206
-0.084503196 0.096850425 -0.055314388 0.018163025 0.07935116 -0.13823809 0.02273513 0.10840269
0.08206013 -0.10989274 -0.027473165 -0.13179414 -0.09618819 -0.05800801 -0.115980424 3.11577e-40
1.64274e-40 1.2254e-40 4.26952e-40 -5.359e-41 -2.93733e-40 -6.25187e-40 3.50587e-40 -5.14494e-40
3.54156e-40 -5.62146e-40 -3.85e-43 2.47953e-40 -3.68467e-40 3.65725e-40 -6.22607e-40 7.01302e-40
2.2638e-41 3.23668e-40 6.17648e-40 -4.33895e-40 -2.74846e-40 7.04151e-40 -5.49994e-40 2.11867e-40
-8.0614e-41 -6.67695e-40 -2.85756e-40 7.0252e-40 -7.135e-40 -6.76508e-40 -5.18378e-40 6.82347e-40
-4.9023e-41 -7.06064e-40 4.46901e-40 -3.53273e-40 -1.00093e-40 -6.69431e-40 -7.20281e-40 -4.43166e-40
6.5679e-41 5.80863e-40 -7.40117e-40 -2.54479e-40 -0.045254443 0.035968523 -0.01671121 0.1222167
0.054505285 -0.08125626 -0.0505858 -0.15031737 0.012210874 -0.0076920474 -0.0075472277 -0.007065796
-0.003822204 -0.0112660695 -0.0050482494 0.004836013 0.0023763583 0.015564941 -0.009012024 -0.022467725
-0.013302563 -0.0015188007 -0.0056591686 -0.00404257 0.0008229222 -0.005240345 0.003166684 -0.022204095
0.0014392401 -0.019751463 -0.037717454 -0.0066992617 0.004114435 -0.0040195505 -0.043340202 -0.04444534
-0.010069481 -0.0149468845 0.0047413474 -0.011781203 0.003626087 0.0027645598 0.00578792 0.029393133
0.006044003 0.19124359 -0.06671088 0.07701274 0.24904016 -0.06493429 0.107104205 0.095263705
0.041057996 0.05681944 0.09232448 0.0470459 -0.029951343 -0.04919885 0.053064927 -0.0030646464
0.09592975 -0.031547934 0.059087425 0.044968195 -0.033818077 -0.07584006 0.0047795107 0.12296945
0.066867374 0.09554788 -0.08715413 0.10847425 0.104827136 -0.046726264 -0.056662396 0.008865923
00000000: 6e63 80be 316d b4bc d305 66bd 3de8 31be
00000010: 1d1a 193d a7bb 04ba 78e9 16be 67e2 51bd
00000020: ff70 a5bd 0b9a 323d 3985 09be fb94 e4bd
00000030: ae24 b33d 02e9 4bbd 8648 953b 9e56 96bd
00000040: 4be8 19be 642e 7dbc 86cc 12be 8a85 e9bd
00000050: b530 133d 20e6 dfbc 7970 06be a78f a5bb
00000060: 7814 a23d d2e5 49bd b172 10bd 39d8 c13d
00000070: 7b8d 3dbd 0bd6 51bd b3f4 96bd 1353 783d
00000080: d2c6 90bd e7d3 0bbe 5743 84bd bb08 af3d
00000090: 8717 25bd 56f5 fdbd 9520 1cbe 07ec 873d
000000a0: a464 f0bc 48fd 0fbe 3b29 933d 2848 0ebe
000000b0: 04a7 723b ea11 373e b107 d93b e184 9cbc
000000c0: 8466 473e e38f f23d 8824 03be 31b1 b33d
000000d0: 0575 05be b5b8 eebc bdfe e03c 5df2 0b3e
000000e0: a993 643d f5f5 debc 9966 0a3d e9f9 cf3d
000000f0: 82b3 ef3d f7f1 893d c1c0 073e 1dd8 a53d
00000100: fdec e2bd 275d be3d 4e63 e43d fe71 7f3c
00000110: cf05 7e3d 6547 853c 0b39 5fbd 0929 d33d
00000120: 1f8b 4ebd fca9 613d 7b4d acbd 7ece dcbd
00000130: ceb0 b4bd 6692 aa3d 7dcf 02be 5c6b 113d
00000140: 8a5a 1e3d f5b5 e5bd 9bb3 09bc dc21 afbd
00000150: d718 8ebd a80e e9bd 67f8 afbd e6a1 273c
00000160: d650 d93d a264 be3c 1760 c73d e8c9 d73d
00000170: 77b4 e8bc ab0c a8bd 38e7 8abc 74f3 743d
00000180: adf4 903d 592a 8cbd 779d 5cbd 86b4 15bd
00000190: 44a9 37bd 8521 cdbc 4496 4e3d 10cf df3b
000001a0: 4d22 8b3d b59a 66bd f032 f53c a7c1 e53d
000001b0: 4cd0 e53d 41ce f33b 74a1 62bd 9e2c 59bd
000001c0: 5219 ab3d ac1e 343d 8602 30bd 4be6 dfbd
000001d0: 898b efbd d477 eabd a498 3c3c 6d77 34bd
000001e0: 0310 adbd 8459 c63d 5791 62bd a0ca 943c
000001f0: dc82 a23d 498e 0dbe 063f ba3c 3b02 de3d
00000200: 240f a83d 720f e1bd 670f e1bc 0bf5 06be
00000210: 50fe c4bd cf99 6dbd 2587 edbd 8d64 0300
00000220: eec9 0100 9755 0100 2ba6 0400 6395 0080
00000230: cf32 0380 c4ce 0680 4bd1 0300 339a 0580
00000240: 3edb 0300 091f 0680 1301 0080 31b3 0200
00000250: 2303 0480 7efb 0300 93c7 0680 f2a2 0700
00000260: 1b3f 0000 4186 0300 c0b9 0600 86b9 0480
00000270: 29fe 0280 e3aa 0700 29fd 0580 994e 0200
00000280: b8e0 0080 4345 0780 921c 0380 57a6 0700
00000290: f3c4 0780 d45d 0780 07a5 0580 1b6e 0700
000002a0: a888 0080 38b0 0780 c7dd 0400 c8d8 0380
000002b0: 0517 0180 1a4a 0780 dad7 0780 5ed3 0480
000002c0: 16b7 0000 3653 0600 250f 0880 62c5 0280
000002d0: b95c 39bd bb53 133d f3e5 88bc c04c fa3d
000002e0: ef40 5f3d af69 a6bd 0e33 4fbd ccec 19be
000002f0: 1e10 483c 920d fcbb bc4e f7bb 3188 e7bb
00000300: f17d 7abb 5295 38bc c96b a5bb 6b77 9e3b
00000310: adbc 1b3b 1804 7f3c 2ba7 13bc 3c0e b8bc
00000320: fef2 59bc 7f12 c7ba 8c70 b9bb 8977 84bb
00000330: 60b9 573a 33b7 abbb 2488 4f3b 5de5 b5bc
00000340: e2a4 bc3a d2cd a1bc 9e7d 1abd 7b85 dbbb
00000350: 62d2 863b 6fb6 83bb 7f85 31bd 510c 36bd
00000360: 77fa 24bc c7e3 74bc 4e5d 9b3b f205 41bc
00000370: a5a3 6d3b 9e2d 353b 98a8 bd3b dec9 f03c
00000380: c60c c63b 5cd5 433e b79f 88bd dbb8 9d3d
00000390: 6204 7f3e 45fc 84bd 7359 db3d 9e19 c33d
000003a0: 6e2c 283d 80bb 683d 9e14 bd3d 34b3 403d
000003b0: 855c f5bc bc84 49bd 9c5a 593d 3cd8 48bb
000003c0: d176 c43d 6838 01bd a805 723d 9230 383d
000003d0: d384 0abd 0952 9bbd 719d 9c3b 68d7 fb3d
000003e0: c3f1 883d 9bae c33d dd7d b2bd bf27 de3d
000003f0: 9caf d63d 0a64 3fbd d416 68bd 6042 113c

bias f4 [32]
-0.051507756 0.10971897 -0.0072177397 -1.9800385e-11 -0.032634683 0.13759476 0.07751144 -0.024383198
0.0707384 0.047246613 0.06105158 -0.0016240843 0.012232187 -0.026657019 -0.0091232415 -0.03157965
-3.455877e-26 0.04337246 -6.3313483e-25 0.13018446 -2.2597524e-08 0.010367065 0.0110986205 0.09288959
-0.06769501 -4.4587687e-19 -1.850722e-07 0.054859914 -0.0044713495 -0.006003271 -0.0027403755 -0.11043754
00000000: ccf9 52bd 57b4 e03d ca82 ecbb 812a aead
00000010: f2ab 05bd a4e5 0c3e 51be 9e3d 46bf c7bc
00000020: 4bdf 903d aa85 413d 3911 7a3d 3adf d4ba
00000030: 8369 483c d25f dabc a679 15bc aa59 01bd
00000040: 7220 2b95 52a7 313d 1cf2 4397 134f 053e
00000050: 7b1c c2b2 9fda 293c fdd6 353c e63c be3d
00000060: aea3 8abd 8199 03a1 42b8 46b4 cab4 603d
00000070: 6684 92bb 16b7 c4bb df97 33bb 142d e2bd

weight f4 [32, 32, 3, 3]
-0.021209951 0.02476582 -0.023951318 -0.014324297 0.027712805 0.0020197548 0.0064792833 0.038839523
-0.0013030514 0.010359763 -0.027329788 0.009576788 -0.022566978 -0.019944113 -0.012328163 0.0121649075
-0.031166269 0.0021557985 -0.011582597 -0.022086313 0.0076797064 -0.0074295676 0.0015634764 -0.004036153
-0.028249742 -0.018678166 -0.00022212003 6.7775e-40 5.60455e-40 4.10607e-40 -9.93497e-40 2.35078e-40
-8.0683e-40 7.92953e-40 -3.41002e-40 -8.22956e-40 0.011378215 0.0042941836 -0.00030433713 -0.007676162
-0.0027157015 0.004135947 0.00024341735 0.004156644 0.00077640964 -0.0037902703 -0.046130843 0.0072556348
0.02133613 -0.050437253 0.026697814 0.0048570386 -0.03375245 0.017183002 -0.027175372 0.010572363
-0.04252308 -0.0027822251 -0.0039361636 -0.03220615 0.007955494 0.009036848 -0.023644878 0.0260255
-0.01882337 0.00043165335 0.002721555 0.013791147 0.011079495 0.039202668 -0.02280538 0.011366942
0.03179164 -0.031559985 0.011584357 0.05694945 0.010786585 -0.0034604508 0.026202 -0.011762968
0.011596925 -0.036474388 0.021472374 -0.007612353 0.013506672 0.002090547 0.0014854626 -0.03931507
0.011370245 -0.008301909 0.0015002001 0.023381418 0.005831823 0.00071819505 0.009931856 0.022486541
0.03631086 0.014458655 0.01539332 0.0038297358 0.0022307057 0.010359011 -0.0072441567 -0.0012738283
0.003929175 0.0067316145 0.00034523915 0.017180493 0.0027487045 -0.003134383 0.005439591 -0.003262329
0.013916335 0.013390066 0.004172503 -0.0074963197 0.0022785412 0.020805001 0.029690843 -0.011963537
0.04104097 -0.019176899 0.024786366 0.06771326 0.014437269 0.008817382 0.018891228 0.013652863
-0.014548358 -0.013807636 0.036685787 -0.012438009 0.0128236525 -2.2628525e-05 -0.014752683 -0.06918547
-0.042040683 -0.0027736153 -0.0681143 -0.00244079 -0.020101296 -0.031721037 -0.067677476 0.020555684
8.0158e-40 -9.476e-42 -2.04754e-40 -1.178363e-39 -3.60501e-40 7.70741e-40 9.91943e-40 9.51273e-40
-3.49698e-40 0.027014833 -0.04344623 0.010315009 0.043509737 0.0007722863 0.012038478 -0.01967413
-0.052477185 0.009778516 -2.50622e-40 5.497e-41 9.37635e-40 -3.28083e-40 5.16845e-40 -7.36485e-40
7.6788e-40 1.87078e-40 -1.80236e-40 0.019900419 -0.011846158 0.003035238 -0.0049846796 0.0044283313
0.0041157496 0.015890045 0.01593902 -0.008379233 -1.070701e-39 8.27646e-40 -7.7494e-40 4.39321e-40
-1.160513e-39 1.41217e-40 -9.08103e-40 5.31438e-40 2.8065e-40 0.008506273 -0.008467581 0.006292919
0.004016996 -0.008498823 0.00874551 -0.0012045053 0.0008615587 0.0031144011 0.0891191 -0.048576426
0.034933332 -0.0074740136 0.02035357 0.010410154 0.09228305 -0.051105227 0.047125418 0.022137308
-0.02600341 0.0038310671 -0.005161697 0.022587063 -0.006469963 0.019356655 -0.0041243844 0.014250354
-0.05534547 -0.0037400436 -0.0054306113 -0.024687124 -0.00015342295 0.004522409 -0.037314728 -0.012430166
-0.006882561 3.63488e-40 -4.06622e-40 7.18314e-40 -9.16322e-40 3.053e-41 5.78019e-40 1.22104e-40
9.96898e-40 4.70913e-40 -1.89957e-40 6.38872e-40 -9.5184e-40 -9.77319e-40 6.76524e-40 -8.68435e-40
-4.26159e-40 -3.29192e-40 7.7031e-41 0.0019053123 -0.033925027 -0.009815203 0.0059643276 0.023314938
-0.00499987 0.035319533 -0.06084385 0.029859768 6.11272e-40 -1.037307e-39 8.3446e-41 6.08532e-40
00000000: 7ec0 adbc b0e1 ca3c 8e35 c4bc 75b0 6abc
00000010: f705 e33c dd5d 043b 2b50 d43b 3116 1f3d
00000020: 26cb aaba ffbb 293c b8e2 dfbc f6e7 1c3c
00000030: 62de b8bc d661 a3bc 10fc 49bc 524f 473c
00000040: 6750 ffbc 4c48 0d3b efc4 3dbc 5bee b4bc
00000050: 0ca6 fb3b bb73 f3bb 90ed cc3a b541 84bb
00000060: 016c e7bc f402 99bc e4e8 68b9 4b61 0700
00000070: 521a 0600 9b78 0400 77d1 0a80 4d8f 0200
00000080: 1dc9 0880 6ea2 0800 93b6 0380 11f6 0880
00000090: b16b 3a3c 39b6 8c3b 708f 9fb9 5088 fbbb
000000a0: e9f9 31bb d786 873b d93d 7f39 7534 883b
000000b0: f887 4b3a 2f66 78bb b2f3 3cbd adc0 ed3b
000000c0: 1cc9 ae3c 4b97 4ebd 60b5 da3c cb27 9f3b
000000d0: 0240 0abd 5ec3 8c3c e39e debc b437 2d3c
000000e0: ae2c 2ebd fe55 36bb effa 80bb 99ea 03bd
000000f0: c357 023c 4a0f 143c e7b2 c1bc 6e33 d53c
00000100: 7833 9abc 884f e239 1e5c 323b 43f4 613c
00000110: c586 353c fa92 203d 59d2 babc 693c 3a3c
00000120: f337 023d 0b45 01bd 51cc 3d3c d443 693d
00000130: 37ba 303c bbc8 62bb 94a5 d63c 77b9 40bc
00000140: 0701 3e3c 2b66 15bd d5e6 af3c 0c71 f9bb
00000150: 174b 5d3c 8f01 093b dbb3 c23a d708 21bd
00000160: 444a 3a3c bb04 08bc 5da2 c43a 638a bf3c
00000170: e118 bf3b 4145 3c3a 39b9 223c b235 b83c
00000180: b2ba 143d ffe3 6c3c 4334 7c3c 4efc 7a3b
00000190: 0831 123b d7b8 293c 6460 edbb 96f6 a6ba
000001a0: 4fc0 803b e094 dc3b 3701 b539 1bbe 8c3c
000001b0: 9c23 343b 386a 4dbb 993e b23b cccc 55bb
000001c0: 5701 643c 0262 5b3c 7eb9 883b b0a3 f5bb
000001d0: 9453 153b 406f aa3c 363a f33c b602 44bc
000001e0: 931a 283d df18 9dbc c70c cb3c 40ad 8a3d
000001f0: 4c8a 6c3c c876 103c c7c1 9a3c 42b0 5f3c
00000200: 3c5c 6ebc 6c39 62bc d643 163d cac8 4bbc
00000210: 4c1a 523c 63d2 bdb7 3db5 71bc 1db1 8dbd
00000220: da32 2cbd 8bc5 35bb 837f 8bbd a9f5 1fbb
00000230: 79ab a4bc ebed 01bd 7d9a 8abd 6564 a83c
00000240: 7bba 0800 6a1a 0080 c53a 0280 ccd4 0c80
00000250: eeec 0380 8364 0800 22cd 0a00 c35b 0a00
00000260: d1ce 0380 364e dd3c adf4 31bd 4900 293c
00000270: 4437 323d 4273 4a3a 093d 453c a42b a1bc
00000280: 51f2 56bd 1236 203c a2ba 0280 3c99 0000
00000290: bf35 0a00 9092 0380 c1a0 0500 0505 0880
000002a0: 895c 0800 7f09 0200 6df6 0180 3406 a33c
000002b0: 6316 42bc d8ea 463b 8656 a3bb 891b 913b
000002c0: 69dd 863b d72b 823c 8c92 823c 0d49 09bc
000002d0: aea8 0b80 2403 0900 3870 0880 a6c8 0400
000002e0: 0aa3 0c80 a889 0100 6ce3 0980 6fc9 0500
000002f0: 570e 0300 e55d 0b3c 9cbb 0abc d534 ce3b
00000300: 01a1 833b a63e 0bbc 5449 0f3c 7ee0 9dba
00000310: 3ada 613a fb1a 4c3b 1384 b63d 13f8 46bd
00000320: 4116 0f3d 92e8 f4bb 88bc a63c 5a8f 2a3c
00000330: e5fe bc3d b753 51bd 9506 413d 4d59 b53c
00000340: 1a05 d5bc a412 7b3b 7423 a9bb 8108 b93c
00000350: fc01 d4bb d991 9e3c d825 87bb 517a 693c
00000360: eeb1 62bd 851b 75bb 45f3 b1bb a73c cabc
00000370: 29e0 20b9 b730 943b 54d7 18bd e5a7 4bbc
00000380: 1b87 e1bb 42f5 0300 7f6d 0480 5ed2 0700
00000390: 55fa 0980 1b55 0000 484b 0600 6054 0100
000003a0: f2da 0a00 b720 0500 8611 0280 eaf4 0600
000003b0: 585d 0a80 5ea4 0a80 e05d 0700 d874 0980
000003c0: f5a3 0480 a795 0380 bbd6 0000 acbb f93a
000003d0: f8f4 0abd f2cf 20bc 6870 c33b f8fe be3c
000003e0: f3d5 a3bb 37ab 103d 6737 79bd 799c f43c
000003f0: faa7 0600 974b 0b80 9de8 0000 57a0 0600

bias f4 [32]
0.05863779 -0.03946923 -0.0065324823 -5.1102825e-07 0.021957386 0.0010161401 -0.014906393 -0.023011217
-0.0080193095 -2.5280202e-05 -3.4036384e-07 0.036772914 0.048171055 0.0026180765 0.053251415 -0.005768306
0.05745797 -0.00038312795 -1.554818e-20 -0.02118226 -7.866325e-08 0.047183145 -1.1151002e-21 -0.0009923435
0.01283274 -0.0013650613 -0.013816998 -0.013365557 -4.757451e-07 0.0111413235 0.03000444 0.022634786
00000000: 2e2e 703d 7daa 21bd 6f0e d6bb 982d 09b5
00000010: fadf b33c 0130 853a f239 74bc 0582 bcbc
00000020: 6c63 03bc d210 d4b7 40bb b6b4 329f 163d
00000030: 034f 453d 0994 2b3b 281e 5a3d 0f04 bdbb
00000040: 0c59 6b3d 90de c8b9 31d9 929e 6b86 adbc
00000050: 94ed a8b3 1d43 413d 5982 a89c 8611 82ba
00000060: 6a40 523c dbeb b2ba b160 62bc 36fb 5abc
00000070: e969 ffb4 198a 363c dfcb f53c 966c b93c

weight f4 [32, 32, 3, 3]
-0.008808405 0.0351107 -0.03487424 -0.042238507 0.04338503 -0.025246458 -0.02618083 -0.0024378027
-0.038261462 -0.017227428 0.0018428349 -0.011180412 -0.003773343 -0.00797831 -0.014582345 -0.008354159
0.0014671744 -0.013125502 -0.022911383 0.04378219 0.034171067 -0.026004933 -0.0031994889 0.03185761
-0.0025804397 0.0017834165 -0.010364098 -1.55128e-40 2.756e-42 1.97217e-40 -6.51143e-40 -6.0014e-40
6.65722e-40 -1.5989e-40 -5.57155e-40 4.18185e-40 -0.034696016 -0.02378013 -0.027985346 -0.031805187
-0.020269843 -0.027279174 -0.0064181895 -0.0016920016 -0.0013687023 -0.010802395 0.013302626 0.014496385
-0.021396983 0.010644556 0.0056260712 -0.030893352 0.009234446 0.0069284895 0.019483814 -0.007857267
0.0026501236 0.009461682 0.02838095 0.003119182 -0.0003441447 -0.00013924493 0.006391683 0.005881142
-0.011051154 -0.00589205 0.018019127 -0.021712933 0.026254322 -0.025709638 0.032001376 0.029600749
4.4144233e-08 1.09134454e-07 2.0450585e-08 -3.4021053e-08 1.5131948e-07 1.1612345e-07 2.4773561e-08 -5.020114e-08
-1.0034983e-07 -2.17596e-40 7.3477e-41 -1.18251e-40 -4.99477e-40 -8.188e-40 4.25003e-40 7.20668e-40
3.13639e-40 -2.15667e-40 3.1809e-40 -2.83455e-40 5.361e-41 3.59297e-40 -2.46676e-40 -5.0554e-40
-7.12576e-40 5.33459e-40 -8.8065e-41 -0.038300205 0.0009938976 0.020538574 -0.004580814 0.01048638
-0.00057303155 -0.0077983243 -0.0015484717 -0.060303956 0.027937183 0.042478118 0.022269864 0.03607749
-0.034699064 -0.020323362 0.015002348 -0.0019657854 -0.039983653 -0.011805317 -0.0621446 0.016601928
-0.05092607 0.025054706 0.017916553 -0.011581955 -0.015146684 0.010535021 -0.029979784 0.02886275
0.009856501 -0.02220094 0.010085278 -0.014802522 -0.03529013 0.01993316 -0.034275938 0.010050018
0.0016867067 0.0041170176 -0.00025610343 0.0032643531 0.015129867 0.014811614 0.010953528 0.009843595
-0.035749357 -0.0050352137 -0.0010622997 -0.006692684 -0.061485972 -0.040747367 -0.0073918505 -0.054299183
-0.0377979 -3.041807e-13 -3.4572722e-13 -2.0513386e-13 -4.2310095e-13 -3.6180068e-13 -2.108079e-13 -3.057701e-13
-3.3368856e-13 -1.2797306e-13 1.724709e-20 1.7450023e-20 1.7154582e-20 1.6716039e-20 1.7672741e-20 1.7241452e-20
1.7201245e-20 1.5790902e-20 1.5313178e-20 -0.023334546 -0.009948333 -0.037317593 -0.04357153 0.0005299725
-0.027847512 -0.036038212 -0.014848313 -0.02211149 -8.51678e-40 1.29172e-40 8.02788e-40 -7.78526e-40
-4.56783e-40 -2.7684e-40 -8.00776e-40 -7.89567e-40 -4.4266e-41 -0.0010617728 -0.033456102 -0.018467916
-0.016613964 -0.00015927207 0.0062498255 -0.03662801 -0.015393836 -0.011296155 -3.87804e-40 -6.13128e-40
2.5773e-40 -8.49358e-40 -4.6493e-40 7.10024e-40 8.18877e-40 -8.19216e-40 -8.2336e-41 0.012047385
-0.04787002 -0.006089617 -0.031565484 -0.03615389 -0.056090962 0.011398942 -0.04319541 -0.058431588
0.0058036176 0.026116798 -0.0145657435 -0.006841337 0.015082091 -0.021194406 -0.0047054966 0.028797392
-0.021658301 -1.6737312e-21 8.618844e-21 1.625781e-20 2.4411934e-21 1.9780895e-21 8.918177e-22 -1.4915573e-21
4.757733e-20 -5.119641e-20 -0.00754927 -0.017427566 0.030280942 0.026404027 0.009142257 0.013137538
0.0086801285 -0.008316898 0.018872855 0.019907728 0.025742818 0.013859512 0.023250649 0.015349143
0.020557916 0.01254496 0.023315288 0.0075434116 3.99493e-40 -4.54343e-40 7.3141e-40 6.48032e-40
00000000: 2151 10bc 3dd0 0f3d 4bd8 0ebd 4902 2dbd
00000010: 80b4 313d a9d1 cebc 2e79 d6bc 8bc3 1fbb
00000020: 0db8 1cbd 8920 8dbc 478b f13a 0c2e 37bc
00000030: 314a 77bb 75b7 02bc caea 6ebc e2df 08bc
00000040: 344e c03a 580c 57bc a7b0 bbbc f454 333d
00000050: f6f6 0b3d 4c08 d5bc 84ae 51bb 207d 023d
00000060: 981c 29bb 87c1 e93a 2dce 29bc 6fb0 0180
00000070: af07 0000 c325 0200 1f17 0780 f288 0680
00000080: c33f 0700 b5bd 0180 1f11 0680 bb8d 0400
00000090: 691d 0ebd 8cce c2bc 8641 e5bc 2846 02bd
000000a0: f10c a6bc 9378 dfbc ad4f d2bb 27c6 ddba
000000b0: 0766 b3ba 87fc 30bc 42f3 593c 3f82 6d3c
000000c0: ba48 afbc 8166 2e3c e85a b83b 0e14 fdbc
000000d0: 134c 173c 6208 e33b 859c 9f3c c4bb 00bc
000000e0: b2ad 2d3b 2c05 1b3c 2b7f e83c 316b 4c3b
000000f0: 526e b4b9 4702 12b9 5371 d13b 98b6 c03b
00000100: e60f 35bc 1912 c1bb d99c 933c 52df b1bc
00000110: 4e13 d73c 059d d2bc e013 033d 457d f23c
00000120: 1999 3d33 4d5d ea33 50ab af32 8b1e 12b3
00000130: 627a 2234 8b5f f933 a3cd d432 bd9c 57b3
00000140: e77f d7b3 925e 0280 d3cc 0000 a349 0180
00000150: 5770 0580 7bea 0880 bca0 0400 eed8 0700
00000160: 4c6a 0300 3159 0280 b576 0300 2816 0380
00000170: 7195 0000 93e9 0300 a2af 0280 3d81 0580
00000180: 5fc2 0780 11cf 0500 7df5 0080 ade0 1cbd
00000190: ab45 823a 8340 a83c a71a 96bb 11cf 2b3c
000001a0: 7f37 16ba 1689 ffbb 17f6 caba 4801 77bd
000001b0: 85dc e43c 89fd 2d3d 4a6f b63c fdc5 133d
000001c0: 9b20 0ebd 2e7d a6bc 69cc 753c 68d4 00bb
000001d0: e6c5 23bd 176b 41bc 568b 7ebd c400 883c
000001e0: db97 50bd 873f cd3c bcc5 923c 3dc2 3dbc
000001f0: cc29 78bc 159b 2c3c 2a98 f5bc 9371 ec3c
00000200: 297d 213c bfde b5bc b93c 253c 4786 72bc
00000210: 628c 10bd de4a a33c ed64 0cbd d5a8 243c
00000220: 7c14 dd3a 0ce8 863b 9f45 86b9 c2ee 553b
00000230: 43e3 773c 69ac 723c 6d76 333c 0847 213c
00000240: eb6d 12bd 6ffe a4bb dd3c 8bba 4d4e dbbb
00000250: b7d8 7bbd b6e6 26bd 5637 f2bb d268 5ebd
00000260: f9d1 1abd 0f3d abaa 8ba0 c2aa cff5 66aa
00000270: 462f eeaa f9ac cbaa 3e59 6daa 1e22 acaa
00000280: 97d9 bbaa b915 10aa e8e4 a21e 91cf a41e
00000290: 3c05 a21e e7e0 9d1e 11ea a61e 46d7 a21e
000002a0: 0f76 a21e 0f24 951e fea0 901e 1728 bfbc
000002b0: 55fe 22bc 55da 18bd 1078 32bd daed 0a3a
000002c0: 7720 e4bc ce9c 13bd 5746 73bc 2823 b5bc
000002d0: 2246 0980 1468 0100 d9bd 0800 377a 0880
000002e0: 53f9 0480 b803 0380 3db8 0880 fe98 0880
000002f0: 657b 0080 2f2b 8bba 4409 09bd 074a 97bc
00000300: 021a 88bc 4502 27b9 56cb cc3b 4107 16bd
00000310: 6e36 7cbc 8213 39bc 0a39 0480 27ad 0680
00000320: 72ce 0200 aa3f 0980 0910 0580 42bb 0700
00000330: b2ea 0800 a4eb 0880 85e5 0080 6562 453c
00000340: 5b13 44bd 698b c7bb cf4a 01bd 1a16 14bd
00000350: a3bf 65bd a1c2 3a3c aced 30bd f655 6fbd
00000360: 462c be3b e5f2 d53c 28a5 6ebc 4b2d e0bb
00000370: e01a 773c e49f adbc 9130 9abb 82e8 eb3c
00000380: c06c b1bc 57ed fc9c 2cce 221e f98c 991e
00000390: 8c73 381d d175 151d 87c4 861c d465 e19c
000003a0: 76ad 601f a9c4 719f de5f f7bb 41c4 8ebc
000003b0: bd0f f83c 424d d83c 68c9 153c d43e 573c
000003c0: 1937 0e3c 9943 08bc 3f9b 9a3c 8815 a33c
000003d0: 9ae2 d23c 0213 633c 2578 be3c f97a 7b3c
000003e0: 1369 a83c 6089 4d3c b4ff be3c b92e f73b
000003f0: a059 0400 86f2 0480 e0f6 0700 730e 0700

bias f4 [32]
0.0469421 -0.02872057 0.0129042305 -0.039811425 -0.028168995 -0.0065623736 0.014816692 0.0023344045
0.0025949667 -0.021220002 -0.029248051 0.012479425 -0.032729257 0.008252504 -0.04534031 -0.008915567
0.017913902 0.018940927 -0.04071661 -0.04845383 0.016813807 -0.039083555 -0.05449965 -0.059915237
-0.017742043 -0.017912697 -0.011695435 -0.033218797 0.0010678448 -0.041378204 0.014807934 0.013627047
00000000: 5c46 403d 6747 ebbc 446c 533c 4e11 23bd
00000010: aac2 e6bc 2e09 d7bb b6c1 723c cffc 183b
00000020: 5110 2a3b 92d5 adbc 9c99 efbc 8176 4c3c
00000030: 1d0f 06bd 8335 073c c3b6 39bd 9912 12bc
00000040: 2dc0 923c 012a 9b3c 76c6 26bd 8677 46bd
00000050: 1cbd 893c 1416 20bd 063b 5fbd ae69 75bd
00000060: c357 91bc a6bd 92bc 369e 3fbc 6f10 08bd
00000070: edf6 8b3a 317c 29bd fa9c 723c fa43 5f3c

weight f4 [32, 32, 3, 3]
4.853214e-08 0.0009899618 0.004792248 0.023852805 0.046293885 -0.007159938 0.017758092 0.0436237
-0.03819623 0.03046564 0.0041097384 0.018676728 0.013440082 0.06951121 0.042969454 0.012759589
0.00072177255 0.045662776 -0.016711999 -0.015183259 0.025808593 0.054840326 -0.0036393874 -0.011894275
0.02827059 0.03740784 0.04319848 -0.02375395 0.0023820088 0.0024828902 -0.009797866 -0.0114794
0.009112177 -0.04646151 -0.03956681 0.010798471 0.0014255523 -0.017569922 0.0048098005 -0.015206542
0.004047931 0.01045202 -0.008898369 -0.028033588 -0.017427165 0.02044469 0.042116415 0.0026908102
0.036687717 -0.0033553827 0.05167261 0.021085914 -0.024802394 0.028545873 0.03262721 0.06955745
0.004790118 0.011447864 0.07126889 0.03651262 0.068340205 0.07899623 0.044144962 -0.000989474
-0.037989065 0.014821765 0.02132275 0.027993923 -0.017957805 0.020331036 0.0024477146 0.018081065
0.0075884415 -0.009560609 0.013034057 -0.0075424756 -0.06702264 -0.008602763 -0.010050709 -0.031689264
0.018925438 -0.004159423 0.041123923 0.0048446003 0.032915685 0.014703883 -0.0025277778 0.04341578
0.07430546 -0.0104816705 -0.01900946 -0.0067933053 -0.02356978 -0.004972505 0.0006028706 -0.0032438678
-0.014617143 -0.039647035 -0.0005040258 0.010051784 0.0009447465 0.015032945 -0.0013483608 0.0075357296
-0.0029673597 -0.0003312977 -0.009296476 0.036592722 0.000621521 -0.011110785 0.00015172968 -0.010702897
0.0024002776 0.00033233184 -0.021315243 -0.0003656707 0.0150418095 -0.002268334 0.027546035 -0.023354048
-0.025673376 0.0026224956 -0.0047904444 0.031489316 -0.02099278 -0.0136172725 0.016995765 -0.020453649
0.005335918 -0.00048541263 0.029004907 -0.022875812 0.0015809436 0.022093432 -0.015875332 0.005276857
-0.010821378 -0.019935377 -0.038950708 0.022221068 -0.07510489 -0.009372513 -0.028568557 -0.0064404644
-0.010491509 -0.0084756445 0.0012028461 -0.014901689 0.014582088 -0.007985022 -0.011074453 0.029020982
0.006312547 0.013915336 -0.010616792 0.024026277 0.01710611 -0.03397079 0.006158023 0.01326765
0.021619735 0.061838023 -0.0039187316 -0.0047445344 -0.021146651 -0.008588542 0.011122016 -0.024200166
-0.005451225 0.02109493 -0.024425425 0.029517232 -0.013466434 0.030724797 0.029671775 0.02156863
0.03063158 0.00857311 0.012821064 -0.020045612 -0.004225096 -0.009460847 -0.019357648 -0.01243401
-0.021922905 0.0034911453 0.0016218768 -0.038381606 -0.0120186815 -0.012531077 -0.028543197 -0.005727789
-0.002654298 -0.011485062 0.0033612982 -0.0066161435 0.036992557 -0.003826036 0.024136236 -0.0735068
0.035325464 -0.032075588 0.020556416 -0.012684256 0.011676335 -0.070671014 0.027819611 0.03968736
-0.02450383 0.029928882 -0.003120535 -6.394074e-05 -0.0072991257 0.009160548 -0.043032646 -0.025155075
0.0071393703 0.0054620295 -0.0052232468 0.025407078 -0.014587097 0.0010631498 0.03321844 0.030543406
-0.019627795 0.0044594514 -0.022435809 0.005193965 -0.00059903786 0.015574706 -0.021805877 0.03328117
0.03812679 -0.033220183 0.0011298686 -0.0024742 -0.00740659 -0.0038834873 -0.014741748 0.0061415215
-0.019678917 -0.016493736 0.025994737 -0.0152416425 0.029792981 0.03454362 0.023137808 0.033659805
-0.07202116 0.011516053 -0.027224924 0.05580826 0.0034953838 0.0027225942 -0.04788847 -0.01129586
00000000: a771 5033 9bc1 813a 4a08 9d3b f566 c33c
00000010: a89e 3d3d ea9d eabb 6b79 913c c4ae 323d
00000020: a673 1cbd 1493 f93c fcaa 863b f0ff 983c
00000030: ca33 5c3c e55b 8e3d bd00 303d 980d 513c
00000040: 5635 3d3a e408 3b3d 9ae7 88bc 34c3 78bc
00000050: 8b6c d33c 40a0 603d ca82 6ebb 35e0 42bc
00000060: b997 e73c f738 193d e4f0 303d a597 c2bc
00000070: 7a1b 1c3b fcb7 223b 3b87 20bc 1814 3cbc
00000080: 3e4b 153c 6d4e 3ebd cf10 22bd 12ec 303c
00000090: 99d9 ba3a ccee 8fbc 889b 9d3b dc24 79bc
000000a0: 82a4 843b f33e 2b3c 77ca 11bc b2a6 e5bc
000000b0: 6ac3 8ebc 9f7b a73c 4382 2c3d 4e58 303b
000000c0: dc45 163d fbe5 5bbb a9a6 533d 5ebc ac3c
000000d0: 642e cbbc 09d9 e93c 1ca4 053d 2374 8e3d
000000e0: 6cf6 9c3b d28f 3b3c 6cf5 913d 428e 153d
000000f0: f3f5 8b3d c7c8 a13d 59d1 343d 3db1 81ba
00000100: 6c9a 1bbd fdd6 723c 0cad ae3c 8353 e53c
00000110: 3f1c 93bc 468d a63c d669 203b be1e 943c
00000120: 76a8 f83b 1aa4 1cbc cc8c 553c df26 f7bb
00000130: 2a43 89bd 9af2 0cbc bbab 24bc 9acc 01bd
00000140: 8509 9b3c c54b 88bb 8f71 283d 74bf 9e3b
00000150: 99d2 063d 8ee8 703c 13a9 25bb bfd4 313d
00000160: 762d 983d 50bb 2bbc bab9 9bbc 609a debb
00000170: 6915 c1bc 65f0 a2bb f609 1e3a 1297 54bb
00000180: be7c 6fbc ee64 22bd 9920 04ba 3db0 243c
00000190: dda8 773a be4c 763c 7bbb b0ba 48ee f63b
000001a0: 0978 42bb 06b2 adb9 3f50 18bc 40e2 153d
000001b0: 91ed 223a 030a 36bc a019 1f39 345b 2fbc
000001c0: fa4d 1d3b d33c ae39 4e9d aebc 7eb7 bfb9
000001d0: ec71 763c 54a8 14bb 39a8 e13c fd50 bfbc
000001e0: f950 d2bc 2dde 2b3b 29f9 9cbb f1fa 003d
000001f0: 0df9 abbc fb1a 5fbc b43a 8b3c 698e a7bc
00000200: edd8 ae3b fb7e feb9 b39b ed3c 0e66 bbbc
00000210: aa37 cf3a 49fd b43c fc0c 82bc 7ce9 ac3b
00000220: 264c 31bc 844f a3bc c78a 1fbd f508 b63c
00000230: 98d0 99bd 2b8f 19bc 9b08 eabc 880a d3bb
00000240: 94e4 2bbc 6edd 0abc d1a8 9d3a 3726 74bc
00000250: b6e9 6e3c 9cd3 02bc 9f71 35bc 69bd ed3c
00000260: 7bd9 ce3b 26fd 633c 0ef2 2dbc c1d2 c43c
00000270: 1d22 8c3c f524 0bbd 3ec9 c93b 8f60 593c
00000280: df1b b13c de49 7d3d b468 80bb 0a78 9bbb
00000290: be3b adbc f5b6 0cbc 1e39 363c 6d3f c6bc
000002a0: 31a0 b2bb 46cf ac3c d417 c8bc 1fce f13c
000002b0: 51a2 5cbc 92b2 fb3c 3912 f33c b2b0 b03c
000002c0: 14ef fa3c 3b76 0c3c 710f 523c b236 a4bc
000002d0: ad72 8abb ab01 1bbc ee93 9ebc 05b8 4bbc
000002e0: aa97 b3bc b3cb 643b 2895 d43a 0836 1dbd
000002f0: 01ea 44bc 254f 4dbc 6cd3 e9bc 2db0 bbbb
00000300: bbf3 2dbb d72b 3cbc 3a49 5c3b 3ccc d8bb
00000310: 8285 173d 3bbe 7abb 5bb9 c53c bc8a 96bd
00000320: 6fb1 103d b161 03bd ee65 a83c a0d1 4fbc
00000330: 194e 3f3c f7bb 90bd f4e5 e33c 378f 223d
00000340: 42bc c8bc 6a2d f53c e481 4cbb ec17 86b8
00000350: 812d efbb 2016 163c 0043 30bd 0412 cebc
00000360: 61f1 e93b d3fa b23b c527 abbb 8122 d03c
00000370: b8fe 6ebc 6359 8b3a 0f10 083d 2a36 fa3c
00000380: 78ca a0bc 9720 923b 4dcb b7bc 2332 aa3b
00000390: c008 1dba 0d2d 7f3c 3da2 b2bc d651 083d
000003a0: d62a 1c3d e311 08bd 1918 943a 3026 22bb
000003b0: fbb2 f2bb 1b82 7ebb 5f87 71bc d13e c93b
000003c0: ae35 a1bc df1d 87bc eaf2 d43c 15b8 79bc
000003d0: 6910 f43c 9c7d 0d3d 808b bd3c ddde 093d
000003e0: d47f 93bd d4ad 3c3c ce06 dfbc 3497 643d
000003f0: cf12 653b 8d6d 323b b326 44bd 4512 39bc

bias f4 [32]
-0.016581375 -1.0748798e-21 -1.9843187e-28 0.011954394 0.007715466 -0.02362739 -0.00042489188 0.024015993
0.037414428 -0.005787404 0.019047324 -0.0014699876 -0.023143463 0.01648106 0.0017332503 0.03394403
0.007002542 0.0025252325 -0.0029166734 0.039779577 -1.4947e-23 0.03153595 0.014893706 0.0147702275
0.02369085 -5.5910346e-05 0.017229395 -0.000777039 0.033104915 -0.010883592 0.045912284 0.025833646
00000000: aad5 87bc 666e a29c d38a 7b91 5ddc 433c
00000010: 05d2 fc3b 3a8e c1bc 06c4 deb9 30bd c43c
00000020: df3f 193d 43a4 bdbb 2209 9c3c 99ac c0ba
00000030: 5c97 bdbc 4a03 873c 3b2e e33a e508 0b3d
00000040: 9475 e53b 5f7e 253b a925 3fbb e9ef 223d
00000050: fb8e 9099 d72b 013d bb04 743c d3fe 713c
00000060: 5013 c23c 4781 6ab8 a924 8d3c 34b2 4bba
00000070: 0599 073d 1851 32bc 850e 3c3d 15a1 d33c

weight f4 [32, 32, 3, 3]
-0.02003689 0.023376103 0.02281828 0.016441647 -0.0070036366 -0.027466219 0.0105345035 0.0060552345
-0.012020441 8.74751e-40 -3.72424e-40 -9.6783e-40 -7.42526e-40 2.90988e-40 -9.9739e-41 1.42508e-40
-2.54807e-40 -6.3927e-40 7.766683e-30 2.0255019e-29 1.7292304e-29 7.920923e-30 2.0240863e-29 1.1853369e-29
1.2106483e-29 1.8457711e-29 7.530147e-30 -0.00071832555 -0.002119627 -0.0033792222 -0.0068824026 0.032653645
-0.004410963 -0.028284848 0.010338167 0.017588953 -0.01943495 -0.010894346 -0.0022515138 0.0010321467
0.013918464 -0.0089647705 -0.02223425 -0.011275722 -0.0064199627 -0.004573701 -0.009233996 0.015584205
0.010036601 -0.0044847415 0.006981233 0.011110999 0.006888891 -0.012935239 0.019620953 0.008285234
0.00694111 0.017379139 0.013950275 -0.013609346 0.0038362932 0.021744564 -0.024592096 -0.002274171
-0.015948478 -0.024093693 0.018430542 -0.016607998 0.008165162 0.021767573 -0.02004639 0.0029134871
0.004336651 0.030150395 -0.012882497 -0.0172558 0.0015355328 -0.027416399 0.01646672 0.020003574
0.0017990674 -0.0068156114 -0.005156201 0.005169464 0.011099024 0.009212257 0.018528488 0.023155602
0.034850385 0.026360562 -0.009740821 0.0036636204 -0.024633523 0.016954336 0.022477716 0.023586959
-0.024404937 -0.042106543 -0.017788054 -2.04646e-40 -5.41553e-40 2.58587e-40 -3.52225e-40 -4.11142e-40
-6.03906e-40 1.50082e-40 4.61551e-40 -9.9292e-40 -0.048415333 -0.009473293 -0.029143997 -0.0069876844
-0.035266023 0.03246383 -0.007520551 0.019475326 -0.010092809 -0.023631522 -0.009254543 -0.008726998
0.021179693 0.011355944 -0.026851162 -0.014251549 -0.05224257 0.006269298 0.00043675906 0.010652465
0.015163445 0.023134306 0.0009157377 0.009494699 -0.001433822 -0.016641105 -0.01267982 -0.047269
0.013627216 -0.009896345 -0.04078708 0.0049746586 0.010073289 -0.0037137186 -0.05041729 -0.04163435
-0.005731494 0.006587726 0.02329336 -0.038873006 -0.038383987 -0.01925555 0.026488073 -0.037212826
-0.042767316 0.000935775 0.017863205 -0.013165778 0.0009270913 0.010512709 -0.006548312 -0.008118213
0.0043520345 0.007030641 -0.006075769 -0.011381781 -0.009027417 -0.007944628 -0.007983921 -0.012253811
-0.0006970493 -0.0026283602 -0.01265638 -0.028871704 0.0023620455 0.020993186 -0.021474635 0.017071852
-0.01513235 -0.045909088 0.019553129 -0.0067367363 -7.731351e-25 -3.388503e-24 -3.7444182e-24 1.0744482e-24
-2.7254038e-24 -1.4017753e-24 -2.7773175e-24 -4.130359e-24 -6.6313797e-25 0.025240941 0.005952708 0.010123304
0.008327806 0.014632398 -0.00043698217 -0.010960447 -0.008763418 -0.012418878 -0.0063861758 0.015224149
0.015575479 -0.0073874574 0.013844981 0.018404393 -0.009212426 0.0071021644 0.020320896 -0.019253263
-0.00670767 0.0008272107 -0.0017719119 -0.008002257 0.013189958 -0.015490729 0.016981184 -0.0023129182
0.012461444 0.005926593 -0.026809132 0.022444427 0.036117073 -0.007914977 0.0015309223 0.005396082
-0.04476466 6.5273844e-06 8.513126e-06 7.56346e-06 9.1756465e-06 7.053832e-06 7.3713886e-06 9.167745e-06
1.0086065e-05 6.893069e-06 0.049201928 0.02590881 0.006497467 0.020248856 0.016477056 0.00062202924
0.008777437 0.008616447 -0.00916826 0.007205778 -0.009185068 0.016551685 -0.0019491016 0.011010401
0.018706007 -0.006292895 -0.0014692439 0.01054737 0.031440627 0.0187631 -3.949013e-05 0.025403172
00000000: 6724 a4bc 3e7f bf3c 67ed ba3c a2b0 863c
00000010: c37e e5bb d600 e1bc e998 2c3c fd6a c63b
00000020: 62f1 44bc 7386 0900 2b0e 0480 eb89 0a80
00000030: dc15 0880 282b 0300 0816 0180 418d 0100
00000040: 4cc6 0280 06f6 0680 ec86 1d0f 0969 cd0f
00000050: 635d af0f c9a7 200f 4944 cd0f 366a 700f
00000060: 748c 750f f52e bb0f c2ba 180f 034e 3cba
00000070: 71e9 0abb f175 5dbb c785 e1bb d4bf 053d
00000080: d789 90bb a0b5 e7bc 6a61 293c b516 903c
00000090: 0b36 9fbc 337e 32bc 228e 13bb 1949 873a
000000a0: 450a 643c f9e0 12bc 9a24 b6bc cebd 38bc
000000b0: 8d5e d2bb fcde 95bb 304a 17bc e554 7f3c
000000c0: 8e70 243c bdf4 92bb d4c2 e43b e80a 363c
000000d0: 35bc e13b 53ee 53bc 1fbc a03c cabe 073c
000000e0: 4072 e33b b25e 8e3c b28f 643c bcf9 5ebc
000000f0: 526a 7b3b a821 b23c 5d75 c9bc 420a 15bb
00000100: 62a6 82bc 2360 c5bc a6fb 963c 7f0d 88bc
00000110: 2cc7 053c e951 b23c 5438 a4bc 34f0 3e3b
00000120: 771a 8e3b f6fd f63c 1c11 53bc 095c 8dbc
00000130: ee43 c93a 5b98 e0bc 37e5 863c 89de a33c
00000140: afce eb3a 7e55 dfbb 59f5 a8bb 9b64 a93b
00000150: aed8 353c 02ef 163c 0ec9 973c d1b0 bd3c
00000160: 47bf 0e3d 1bf2 d73c f797 1fbc 5a19 703b
00000170: 3ecc c9bc d2e3 8a3c 3023 b83c 7039 c13c
00000180: ddec c7bc e977 2cbd 41b8 91bc 783a 0280
00000190: a1e5 0580 d6d0 0200 dcd5 0380 197a 0480
000001a0: 7293 0680 5ea2 0100 9e06 0500 dbcf 0a80
000001b0: 284f 46bd df35 1bbc 64bf eebc f2f8 e4bb
000001c0: 1b73 10bd cbf8 043d f46e f6bb b88a 9f3c
000001d0: 4f5c 25bc e596 c1bc 5ea0 17bc affb 0ebc
000001e0: 0981 ad3c 480e 3a3c f8f6 dbbc 547f 69bc
000001f0: 4efc 55bd af6e cd3b cffc e439 ad87 2e3c
00000200: 1970 783c 2884 bd3c 1e0e 703a a78f 1b3c
00000210: 15ef bbba ed52 88bc 05bf 4fbc 249d 41bd
00000220: b044 5f3c 4824 22bc 5a10 27bd 7602 a33b
00000230: 700a 253c dc61 73bb 5c82 4ebd c888 2abd
00000240: 42cf bbbb dadd d73b b7d1 be3c 4d39 1fbd
00000250: 8738 1dbd d1bd 9dbc 84fd d83c 7a6c 18bd
00000260: c82c 2fbd cc4e 753a db55 923c 46b5 57bc
00000270: 0b08 733a 7f3d 2c3c 3993 d6bb 4102 05bc
00000280: 839b 8e3b 4b61 e63b 3f17 c7bb a67a 3abc
00000290: bbe7 13bc 2f2a 02bc fece 02bc 35c4 48bc
000002a0: 30ba 36ba 9140 2cbb b55c 4fbc 5a84 ecbc
000002b0: 8ccc 1a3b e7f9 ab3c 93eb afbc 45da 8b3c
000002c0: aded 77bc 2b0b 3cbd e22d a03c d7bf dcbb
000002d0: 1346 6f97 1c16 8398 ecda 9098 4743 a617
000002e0: 2fde 5298 0aea d897 71e2 5698 18c9 9f98
000002f0: 343b 4d97 17c6 ce3c ef0e c33b 37dc 253c
00000300: 5a71 083c babc 6f3c c11a e5b9 7293 33bc
00000310: 7094 0fbc 8d78 4bbc 2043 d1bb b66e 793c
00000320: 4b30 7f3c 7c12 f2bb 0fd6 623c cfc4 963c
00000330: b7ef 16bc 46b9 e83b 0278 a63c 05b9 9dbc
00000340: 04cc dbbb 2cd9 583a 7f3f e8ba e61b 03bc
00000350: b21a 583c d4cc 7dbc 201c 8b3c 5494 17bb
00000360: 162b 4c3c de33 c23b d39e dbbc 60dd b73c
00000370: 7fef 133d d2ad 01bc 3aa9 c83a 9ed1 b03b
00000380: 265b 37bd ce05 db36 99d3 0e37 a0c9 fd36
00000390: 1af1 1937 f5af ec36 bf57 f736 2acf 1937
000003a0: 5237 2937 034b e736 f687 493d b63e d43c
000003b0: b4e8 d43b eee0 a53c e4fa 863c ad0f 233a
000003c0: 3dcf 0f3c 002c 0d3c 7836 16bc 721e ec3b
000003d0: f87c 16bc 6697 873c ff78 ffba f864 343c
000003e0: 573d 993c a134 cebb a593 c0ba e0ce 2c3c
000003f0: e3c7 003d 13b5 993c 34a2 25b8 501a d03c

bias f4 [32]
-0.01856748 -0.04545748 -0.029731445 -0.0390905 0.02840101 -0.050921634 0.04480319 -0.021073835
-0.010924444 0.02471659 0.03361026 -0.0484738 0.03535312 -0.053685997 0.031074798 0.053139754
0.0069210753 -0.025348786 -0.029519772 -0.010423418 0.01852198 0.010407166 0.019681258 0.025685146
0.043925673 -0.01640101 0.017219804 0.0079233 0.05123842 -0.029296005 0.04354708 0.005781657
00000000: d41a 98bc 9f31 3abd 5c8f f3bc 5c1d 20bd
00000010: 3ca9 e83c 3493 50bd 8d83 373d 09a3 acbc
00000020: 70fc 32bc 727a ca3c e9aa 093d 778c 46bd
00000030: 6fce 103d d9e5 5bbd 9390 fe3c 12a9 593d
00000040: 30ca e23b 42a8 cfbc 73d3 f1bc fcc6 2abc
00000050: 68bb 973c d182 2a3c 973a a13c a869 d23c
00000060: 68eb 333d 695b 86bc 8c10 8d3c bbd0 013c
00000070: 61df 513d 2dfe efbc 6c5e 323d 0e74 bd3b

weight f4 [32, 32, 3, 3]
0.014005842 0.012350828 0.0076582814 0.010654665 0.025524251 0.01894244 0.030028138 0.020428509
0.012268623 0.020803394 0.018730843 0.021942867 -0.007294466 -0.016559446 -0.0029289408 -0.013089743
-0.02971579 -0.022882484 0.014792125 0.020552408 0.02801935 0.020232134 0.01670663 0.015094368
0.022229074 0.011780381 0.013815998 0.021890586 0.021488573 -0.044147216 -0.025592249 -0.02256228
-0.008630525 -0.061698314 -0.07975815 -0.006309951 0.012389625 0.019338757 0.0072217435 0.0001979712
0.005876789 -0.0013976282 0.035858262 0.030947952 0.0004927264 0.006094056 -0.008926197 -0.0070500546
0.017252369 -0.017930727 -0.003630897 0.008680394 0.014250718 -0.010757816 0.030652301 0.034419864
-0.018282425 0.020143598 0.013785924 0.002140301 -0.0017096067 -0.01026364 -0.0109314015 0.013260247
0.0034951693 -0.008212066 -0.0060551153 0.018628834 0.0090304585 0.022127453 0.005378455 0.015931882
-0.011602017 -0.016884398 0.033068545 0.021062374 0.021009171 0.016863476 0.02653125 0.015465344
0.008225227 -0.014147637 -0.005615254 -0.0034613293 0.022511024 0.0106760245 0.0063679763 -0.016517034
-0.007686798 -0.0109663205 0.0033630552 0.0010146169 -0.017667433 0.0031272143 0.00093075406 -0.0064467248
-0.03231262 -0.014242296 -0.009677341 -0.028239265 -0.034082886 0.006865596 -0.019547699 -0.0029456161
-0.0028314246 0.0076744114 -0.007459792 0.0032925424 -0.010296042 -0.021217171 -0.019172959 -0.0013179239
0.0066258945 -0.0005162535 0.017392593 0.019052122 -0.00065516384 0.01566811 0.027661428 -0.05533537
0.0020070672 0.0035132843 -0.011723197 0.0037544183 0.035600733 0.0073944936 0.0035279281 -0.003597021
0.010454183 -0.010578362 0.014463433 0.011995317 0.03406399 0.03713263 0.017079707 0.013537416
0.016434839 -0.01725308 0.022931188 0.0107955495 -0.0097586345 0.023718962 -0.030272624 -0.0041463864
-0.0026573327 -0.0044192453 -0.020591082 -0.0009404464 0.00483952 -0.0065876776 0.0071862307 -0.019771926
-0.004823235 -0.0018882136 -0.0043585105 0.0069059855 0.011549825 -0.003928139 0.002570132 0.0071501145
-0.0533466 -0.010716697 0.015305819 0.003607763 -0.030798424 -0.013222181 0.0055888277 -0.010871387
-0.031286206 -0.00014673908 0.019224247 0.0088974675 0.003160192 0.015601419 0.005204006 0.020923862
0.01884222 0.036836274 0.028313266 0.0060242885 0.028516624 0.038655117 -0.0012490518 0.024298063
-0.0020960034 -0.009017832 0.044816922 -0.02369655 -0.026518451 -0.025639048 -0.010488936 0.07490671
0.008148667 -0.0009738305 0.0122732045 0.010733399 -0.02405477 -0.01733387 0.015522173 0.0054333033
-0.0065352065 -0.012293733 0.00966913 -0.002225757 0.04783343 0.019674694 0.009170069 -0.0010800848
-0.01635857 -0.019363523 -0.017160963 -0.008819352 -0.008608258 -0.005733272 -0.016314754 -0.017943235
-0.0076142307 0.00336062 -0.014158739 -0.0035908194 -0.011910264 0.0005649158 -0.011948135 -0.003428838
-0.0085471105 0.0017513306 0.015713496 0.0048370464 0.014583956 0.0029579974 -0.013363686 0.011320506
-0.006355725 -0.018052125 0.011531295 0.045313936 0.022533279 0.0072235167 -0.016640263 -0.005634822
-0.018663086 -0.08662197 -0.045783885 -0.023236992 0.011610595 0.026801044 0.021310244 0.05036415
-0.0013051941 0.026679803 -0.0023077752 0.02871119 0.003612746 0.010847332 -0.00513115 0.002992846
00000000: c278 653c 215b 4a3c 52f2 fa3b e790 2e3c
00000010: 3c18 d13c 2d2d 9b3c 92fd f53c b059 a73c
00000020: 5602 493c e16b aa3c 6d71 993c 87c1 b33c
00000030: 6a06 efbb ada7 87bc 79f3 3fbb 5d76 56bc
00000040: 876e f3bc 0c74 bbbc ab5a 723c 865d a83c
00000050: d688 e53c dcbd a53c 58dc 883c 5e4e 773c
00000060: bf19 b63c 8002 413c 7f5c 623c e353 b33c
00000070: ce08 b03c b6d3 34bd d6a6 d1bc 88d4 b8bc
00000080: 0c67 0dbc 5fb7 7cbd 3e58 a3bd b5c3 cebb
00000090: dbfd 4a3c 506c 9e3c 60a4 ec3b 7d96 4f39
000000a0: 1492 c03b 9f30 b7ba 1de0 123d 8f86 fd3c
000000b0: 4f2a 013a a6b0 c73b 2f3f 12bc 2504 e7bb
000000c0: d754 8d3c 76e3 92bc 58f4 6dbb 3638 0e3c
000000d0: d87b 693c 8d41 30bc 891a fb3c d8fb 0c3d
000000e0: 06c5 95bc 3004 a53c 5bde 613c 4b44 0c3b
000000f0: e214 e0ba d428 28bc 9f19 33bc 8241 593c
00000100: 360f 653b e78b 06bc fd69 c6bb 7f9b 983c
00000110: 7df4 133c a244 b53c c03d b03b 9483 823c
00000120: 6316 3ebc 2651 8abc e272 073d 008b ac3c
00000130: 6d1b ac3c 4625 8a3c 1058 d93c 5b62 7d3c
00000140: 1ac3 063c 7ecb 67bc 2a00 b8bb 78d7 62bb
00000150: 0a69 b83c 7eea 2e3c 75aa d03b bb4e 87bc
00000160: 89e1 fbbb 15ac 33bc b466 5c3b e5fc 843a
00000170: 4bbb 90bc f3f1 4c3b d9fd 733a 0c3f d3bb
00000180: 3d5a 04bd 8558 69bc b68d 1ebc 0856 e7bc
00000190: 7f9a 0bbd cbf8 e03b 7f22 a0bc 3d0b 41bb
000001a0: 6c8f 39bb a179 fb3b 4571 f4bb b2c7 573b
000001b0: bbb0 28bc a2cf adbc 9c10 9dbc 30be acba
000001c0: 081e d93b 3055 07ba e97a 8e3c 3213 9c3c
000001d0: 4dbf 2bba 695a 803c 389a e23c 57a7 62bd
000001e0: 0089 033b 213f 663b a712 40bc b00c 763b
000001f0: 13d2 113d 824d f23b d034 673b 00bc 6bbb
00000200: 0648 2b3c de50 2dbc 09f8 6c3c 0288 443c
00000210: af86 0b3d 6218 183d beea 8b3c 0acc 5d3c
00000220: 5ba2 863c 5556 8dbc 30da bb3c d1df 303c
00000230: aee2 1fbc 454e c23c 4bfe f7bc 69de 87bb
00000240: a526 2ebb 51cf 90bb a1ae a8bc 4a88 76ba
00000250: d694 9e3b 72dd d7bb 797a eb3b bcf8 a1bc
00000260: 3a0c 9ebb ef7d f7ba d6d1 8ebb 9b4b e23b
00000270: 7a3b 3d3c 9eb7 80bb a96f 283b 824b ea3b
00000280: f781 5abd 1695 2fbc 42c5 7a3c 3870 6c3b
00000290: fa4c fcbc d9a1 58bc 7c22 b73b e71d 32bc
000002a0: f725 00bd f9dd 19b9 2b7c 9d3c afc6 113c
000002b0: 391b 4f3b 189d 7f3c 5e86 aa3b 8568 ab3c
000002c0: 005b 9a3c a2e1 163d 39f1 e73c 6567 c53b
000002d0: b29b e93c d454 1e3d 39b7 a3ba bb0c c73c
000002e0: 1a5d 09bb 87bf 13bc f391 373d 441f c2bc
000002f0: 393d d9bc fb08 d2bc c9d9 2bbc b068 993d
00000300: fd81 053c a948 7fba 8d15 493c 23db 2f3c
00000310: 820e c5bc c3ff 8dbc b650 7e3c da09 b23b
00000320: 4925 d6bb a76b 49bc 456b 1e3c 02de 11bb
00000330: fdec 433d d32c a13c 0f3e 163c a291 8dba
00000340: 6802 86bc 40a0 9ebc 2695 8cbc 0b7f 10bc
00000350: a709 0dbc 2cde bbbb 85a6 85bc b1fd 92bc
00000360: cc80 f9bb d93d 5c3b 0efa 67bc f453 6bbb
00000370: 4523 43bc dc16 143a 1cc2 43bc 5bb6 60bb
00000380: 2e09 0cbc e78c e53a 97b9 803c 1680 9e3b
00000390: 8cf1 6e3c f6da 413b 5df3 5abc a579 393c
000003a0: b043 d0bb 0de2 93bc c2ed 3c3c 1b9b 393d
000003b0: b697 b83c 40b3 ec3b 2951 88bc 50a4 b8bb
000003c0: 54e3 98bc dc66 b1bd e287 3bbd 815b bebc
000003d0: 5d3a 3e3c dd8d db3c d292 ae3c a44a 4e3d
000003e0: 0c13 abba 9a8f da3c 0b3e 17bb bb33 eb3c
000003f0: d2c3 6c3b 02b9 313c 3523 a8bb a023 443b
